submissions/adam_agent.pth (torch, 82037 bytes, 6 tensors)

model.lstm.weight_ih_l0 f4 [256, 10]
000000 79 df cc 3d 09 39 ab be a2 17 af be 6b 00 2c be
       0.100035615 -0.33441952 -0.34197718 -0.16797034
000010 5c 12 81 3d 58 4e 3c 3d 09 38 44 be ab 65 f1 bc
       0.0630233 0.045973152 -0.19162 -0.029467424
000020 cc ea b6 bd 55 8f 83 bd 0e c7 5f 3e ec af 1f 3e
       -0.08931503 -0.06423823 0.21853277 0.15594453
000030 ea 6e 9e 3e 51 a7 ea 3e 20 6a 9e 3e c3 4c 9e be
       0.30943996 0.45830777 0.30940342 -0.3091794
000040 8d 9d cc be 76 8b 6e be ce 31 98 bd f4 cf 97 be
       -0.39963952 -0.23295388 -0.074313745 -0.29650843
000050 38 e5 8e be 6d 52 b7 be de df e9 3e 1c 3b 0c 3e
       -0.27909255 -0.35805073 0.4567861 0.13694423
000060 ee dd 22 bf 81 5b 38 be 39 15 6a be b7 7b 00 3e
       -0.6361989 -0.18003656 -0.22859658 0.12547193
000070 14 e1 0b 3f 82 06 c1 3e 09 80 7b 3e 74 dc bd bd
       0.54640317 0.37700278 0.2456056 -0.09270564
000080 73 eb c4 be 25 0c 83 3d 75 34 73 3e a9 c5 1e bf
       -0.38460883 0.06398801 0.2375048 -0.62020355
000090 db eb d3 bf b5 70 ac be 13 f1 86 3d 65 c8 27 3e
       -1.6556352 -0.3367974 0.0658895 0.16385038
0000a0 05 42 bf be 45 99 b6 3e c8 d6 e8 be 6e b6 6d 3e
       -0.37355056 0.3566381 -0.45476365 0.23214123
0000b0 57 a0 bc 3e 32 dd e5 3e 86 4e 22 3f b3 35 b1 3e
       0.3684108 0.4489532 0.6340107 0.34611282
0000c0 75 ff 98 3e 18 d5 97 3e ec 7e dc bd 1a 92 22 bd
       0.29882398 0.29654765 -0.10766396 -0.039690115
0000d0 31 e9 26 be f9 c7 f6 3e cf 34 59 3f 7f da be 3e
       -0.16299893 0.48199442 0.84846205 0.37276074
0000e0 71 e7 9b be 06 99 c1 3e f4 dc ec 3e 57 b0 d8 3e
       -0.30450013 0.3781206 0.46262324 0.42322037
0000f0 0e 82 e3 bd 96 1b e5 bd 87 e9 e8 3d 00 2f aa bd
       -0.1110879 -0.11186902 0.11372667 -0.08309746
000100 ae e0 48 bf 03 46 a2 be 08 0a 9a 3e e2 10 35 bd
       -0.78467834 -0.3169404 0.30085778 -0.044205554
000110 31 06 3d 3e a2 b3 23 3e b3 e2 3e bf ca cf 1d be
       0.18459393 0.15986493 -0.74564666 -0.15411296
000120 67 d7 73 3e 71 9f 42 bd ed 8f 5a 3d 3f 94 36 bd
       0.23812638 -0.047515336 0.053359915 -0.044574972
000130 58 3c b4 bd c1 70 16 be b2 f2 52 3e e1 29 8d bc
       -0.08800572 -0.1469145 0.20600393 -0.017231883
000140 12 27 9c bf 3e 84 aa be 11 2c 09 3f 07 ca 0e 3e
       -1.2199423 -0.33304018 0.53582865 0.13944255
000150 4e 33 c3 3e d0 ad 59 3e 39 5e 9a 3e e8 69 90 be
       0.3812508 0.2125771 0.3015001 -0.282058
000160 17 4e 0d be 56 88 3e 3e 2b 14 10 3d dd 9b 5a be
       -0.1379932 0.18606696 0.035175484 -0.2134852
000170 68 1a fc be 25 ed 65 3d 7c 86 54 3e 5f 58 ee bd
       -0.49238896 0.05613436 0.20754427 -0.11637949
000180 76 72 45 bf 04 8e bf 3d f1 d4 03 3e ac a7 0f 3f
       -0.7712778 0.09353259 0.128742 0.5611522
000190 f8 21 de bf 69 39 c0 be 90 44 08 3f 47 d4 df be
       -1.7354116 -0.375438 0.5322962 -0.43716642
0001a0 51 5c 93 bf a9 16 85 be 9b 20 9a 3e b9 77 a8 be
       -1.1512548 -0.2599385 0.30103 -0.3290384
0001b0 a1 bf 8c 3e 2b cf 91 3e 3c e4 ae bf 20 31 a5 be
       0.2748995 0.2847837 -1.3663402 -0.32264042
0001c0 b1 c4 cf 3e 94 ef b2 3c 30 3d 82 3d 44 42 e7 3d
       0.4057975 0.021842755 0.06359327 0.11291936
0001d0 dd bf 38 3e 1b ee 3f be c6 58 e5 bc d8 f9 85 3e
       0.1804194 -0.18743174 -0.027996432 0.26167178
0001e0 70 d4 9f 3d 19 56 e7 be 23 3d e5 be 51 80 96 be
       0.07804191 -0.45182875 -0.44773206 -0.29394773
0001f0 91 4d 17 bf 61 99 13 be 26 27 04 3f 9f 87 86 3e
       -0.5910273 -0.14413978 0.51622236 0.26275346
000200 39 0c 51 3e 6a 3a f9 bc 1a 97 28 3e e7 26 01 bf
       0.20414819 -0.030423362 0.1646389 -0.50449985
000210 d6 58 1c bf d9 4c 85 be 6f 13 25 bc a3 c7 17 be
       -0.6107305 -0.26035193 -0.010075434 -0.14822249
000220 73 9a d5 3d 91 4a 91 3e 9d b1 17 bd c8 e0 97 3c
       0.104298495 0.28377202 -0.03703462 0.018539801
000230 24 74 04 3c 29 46 8f be ab 17 95 bf 33 c8 9d bd
       0.008084331 -0.27983215 -1.1647848 -0.077042006
000240 bd d8 03 3f 83 8e 81 3d 8b 7e 18 be f0 1a 39 3e
       0.5150259 0.0632601 -0.14892022 0.18076682
000250 9f 86 ce 3e 1c 2b 3a 3f 71 95 ce 3d ae aa b3 be
       0.40337083 0.7272203 0.100870974 -0.35091156
000260 62 cb bc be ee bb f1 3d 87 ed e7 bc 09 5b 58 be
       -0.3687392 0.11803423 -0.028311504 -0.21128477
000270 d0 3f 82 bf 30 38 19 3c 5f 7a f5 3d 41 a7 be 3d
       -1.0175724 0.009351775 0.11986231 0.09309245
000280 24 88 b5 3e f2 58 02 3e d9 7a b0 3e de e4 b5 3d
       0.3545543 0.12729242 0.34468725 0.088815436
000290 9f 4c 22 be 94 77 33 3e ab ab 35 3e 89 80 74 3e
       -0.15849541 0.17526084 0.17741267 0.23877157
0002a0 c8 e1 12 3f 54 8d c6 3e 5e 89 e9 3d 9d e8 e8 3d
       0.57375765 0.387797 0.11403154 0.113724925
0002b0 f8 c1 83 3d ea a5 1c be 9d 7b ca be 86 85 3d be
       0.06433481 -0.15297666 -0.39547434 -0.18507966
0002c0 7b 5c 2c be 96 dc 4a bc d1 08 57 3c 8f 07 ab bb
       -0.16832153 -0.012381693 0.013124661 -0.005219407
0002d0 4b ca a2 3e b6 3d d3 3d ce ff 02 be 49 7f 09 be
       0.31794962 0.10314505 -0.12792894 -0.13427462
0002e0 c6 d5 d4 be 71 eb b0 bc b3 c0 be 3d 12 c2 11 3e
       -0.41569346 -0.021596642 0.09314098 0.14234188
0002f0 cd 2d 80 3e 82 37 0f 3e 2f 99 99 bd 35 30 17 be
       0.25034943 0.13986018 -0.074999206 -0.14764483
000300 aa 7f ce bd 4f 0d f6 bd 0b dc a4 be 8a 05 f2 be
       -0.10082944 -0.12014257 -0.3219913 -0.4726985
000310 3c 18 6f be 2c 7c 87 be bd 48 60 be d8 55 ef bd
       -0.23349088 -0.26461923 -0.21902747 -0.11686295
000320 05 90 83 3e d4 df 2d be 16 0f c2 be 83 65 c0 3e
       0.25695816 -0.16979915 -0.37902135 0.37577447
000330 6e 44 20 3d d3 b9 01 bf a9 61 97 bf f5 44 46 bd
       0.03912776 -0.5067417 -1.1826679 -0.048405606
000340 c4 28 a2 3e 1a 51 84 3e 75 9c 80 be e8 c2 2f 3c
       0.31671727 0.25843126 -0.25119367 0.010727622
000350 f1 13 16 3e ad 56 8d 3e 5f f9 4c 3f 86 e6 15 3f
       0.14656045 0.2760519 0.8006801 0.58554876
000360 28 3b be 3e 9d 22 48 3d 0d 4a e8 3e 78 6e f4 3e
       0.37154508 0.048861135 0.45368996 0.4774053
000370 91 61 9d be 88 32 81 be b2 67 37 3e 9a f0 82 be
       -0.307385 -0.25233865 0.1791065 -0.2557419
000380 72 97 90 bf ab 07 07 3d bb 36 fd 3d b6 00 59 bd
       -1.1296217 0.032966297 0.12363955 -0.052979194
000390 a3 2c 2d bb 9e 76 62 3e 93 8a 83 bd 46 65 d8 be
       -0.002642431 0.22115561 -0.06422915 -0.42264766
0003a0 ff aa b4 be 3b a7 69 be c0 e3 3c be ec 68 f4 be
       -0.3528671 -0.228177 -0.18446255 -0.477363
0003b0 97 23 bf 3c 28 12 d7 be f4 cc 39 be 16 c6 02 3c
       0.0233324 -0.4200604 -0.1814459 0.007981798
0003c0 2c d2 22 be 85 e7 40 3d 2c 4b 3e 3e 6b 0c ac 3c
       -0.15900487 0.047095794 0.18583363 0.021002015
0003d0 cb f3 43 be e6 f5 11 bd df 39 26 3e e5 c3 09 3e
       -0.19135968 -0.035634898 0.16233014 0.13453634
0003e0 cd 72 35 be 19 6a 8c 3d d0 c0 69 3e f5 62 22 3e
       -0.17719574 0.06856174 0.22827458 0.15858062
0003f0 6c d5 6e 3f 48 28 5f 3d bc ac 18 bf c2 9f 50 be
       0.93294406 0.054481775 -0.5963857 -0.20373443

model.lstm.weight_hh_l0 f4 [256, 64]
000000 31 bd 82 3c ee 61 28 be 94 a7 86 bd 82 11 46 bc
       0.015959354 -0.16443607 -0.06574932 -0.012089135
000010 99 fe 8d bd 28 41 51 bd 8e e2 cf bd 4b b7 b1 bc
       -0.06933326 -0.05108753 -0.10150634 -0.021693846
000020 51 53 3c 3d 9b b6 08 3d 5e 9c 34 3d ef 16 1f be
       0.045977894 0.03337727 0.044094436 -0.15536092
000030 51 e4 8a 3d 32 d6 2d 3d 34 d0 51 3d 08 1c b4 3c
       0.06781829 0.0424406 0.05122395 0.021986023
000040 c4 7e 37 bd 0c 2c d8 3d c0 c5 e8 bd e7 b2 05 3d
       -0.044798627 0.10555276 -0.11365843 0.032641318
000050 98 f9 81 bc a7 4d f7 bc fa 8d 09 bc 2e b1 f5 bd
       -0.015866086 -0.030188395 -0.008395666 -0.11996685
000060 0f 7e e9 3d 70 47 3e 3d 6d 6e c7 bd 3d 9c 68 3c
       0.11400997 0.046454847 -0.09737859 0.014197406
000070 0d 7a 79 bd 29 67 9e 3d a1 7f fa 3d ba 17 2d 3e
       -0.060907412 0.0773452 0.122313745 0.16903582
000080 f8 b4 05 bd 18 1a 80 3d dc 6a 8a bd 4c 4c 9f bd
       -0.03264329 0.06254977 -0.06758663 -0.07778224
000090 2a b9 05 be ad b4 8b 3c c6 e1 71 3d ba 83 50 3e
       -0.13058916 0.017053926 0.059053205 0.2036275
0000a0 39 40 71 ba 38 9e 5f 3d 00 a5 f3 bd d9 e2 e1 3d
       -0.00092029903 0.05459425 -0.118967056 0.11029596
0000b0 e2 26 fa 3c f7 26 0c be 19 aa c3 3d 79 d7 c0 3d
       0.030536119 -0.13686739 0.09553928 0.09416098
0000c0 0e 28 f3 bd d2 e3 69 bc e6 1e 50 bd 30 c9 db 3c
       -0.11872874 -0.014275508 -0.050810717 0.026829332
0000d0 05 53 e4 bc 7d 12 78 be 6d b7 c1 3d f1 a4 2a 3e
       -0.027871618 -0.24225803 0.09458814 0.16664483
0000e0 3e e9 08 bc 5f 37 c6 3d a2 bd e8 bd 18 03 a7 bd
       -0.0083563905 0.0967853 -0.113642946 -0.08154887
0000f0 36 56 2e 3e 00 32 1f 3e 3d e3 c4 3d e3 1f 06 bd
       0.17025074 0.15546417 0.09613655 -0.032745253
000100 15 1f 3f 3d 4e 0b 49 3e ab 7e 1d 3d 1d 92 11 be
       0.0466605 0.19633219 0.038450878 -0.14215894
000110 10 d8 db 3e 17 42 14 bf ff e6 20 bd 6b fc e7 3d
       0.4293828 -0.57913345 -0.039282795 0.11327442
000120 7e 9b f2 3d 1d 16 52 be 2d 56 8f be b6 70 99 be
       0.11846064 -0.20516248 -0.27995434 -0.29968804
000130 ae e5 70 3c d0 98 8c 3e 63 cc 86 bc c9 ed 39 bd
       0.014703197 0.27460337 -0.016454881 -0.045392785
000140 bf 36 91 bc 9c 9e 18 3d 1a 12 bf bd 02 b0 93 bd
       -0.0177263 0.037260637 -0.093296245 -0.07211305
000150 35 b9 2c be 0b 85 a1 be 7c 0e c3 be 77 f7 88 bd
       -0.16867526 -0.31546816 -0.38096988 -0.06687825
000160 6e 06 a1 bd 0a 12 82 3d 65 e9 92 be 88 5f 27 3d
       -0.078625545 0.06351097 -0.2869369 0.04086259
000170 dc 19 0f 3e 56 37 e4 be 4c b2 88 3e 64 51 6c be
       0.13974708 -0.44573468 0.2669853 -0.23077923
000180 0c b6 88 3a 94 b5 7d be 3a ee b4 3e 94 bd 11 be
       0.0010430231 -0.24776298 0.35338002 -0.14232475
000190 77 e5 53 3e 25 a9 90 bd 0f 3c 86 be 2e 84 09 3f
       0.20693003 -0.07063512 -0.26217696 0.53717315
0001a0 50 b8 98 be 4c 26 52 3e 53 4a 0a bf cc a5 37 3e
       -0.2982812 0.20522422 -0.5401966 0.1793434
0001b0 57 05 75 be bc fc 8d be 66 a1 75 3e 93 3d c3 bd
       -0.23927818 -0.27731884 0.2398735 -0.09533229
0001c0 25 5b 9f 3e 65 0c a7 bc 1e f3 d7 bd cc 2f 27 3e
       0.31124225 -0.020391652 -0.10544418 0.16326827
0001d0 e9 d8 ea 3d 74 d2 25 3d 0a 6f 46 3e 97 92 5c 3e
       0.114671536 0.040483907 0.19378296 0.21540295
0001e0 f4 8f 68 3e 0c d6 93 3e 82 01 0a be b2 9c 77 be
       0.22711164 0.28874242 -0.13477138 -0.24180868
0001f0 7a 7c 18 bd 09 6c 12 3d 0d 7d 84 3f dc cb 2b be
       -0.037228085 0.03574756 1.0350662 -0.16776985
000200 58 01 c5 3e 7c 94 d1 be 5f 1a cc bd f4 40 49 bf
       0.38477588 -0.40933597 -0.099659674 -0.78614736
000210 3b 86 f1 3e 30 99 1b 3f af 87 b9 3d 00 7c ba 3e
       0.47172722 0.6078062 0.09059083 0.3642273
000220 d4 53 c3 3d ec 8e 0d bf ba f9 a9 be 85 a8 96 3e
       0.09537473 -0.55296206 -0.3319834 0.29425445
000230 73 49 94 be 02 c5 aa 3e 80 3a 0e 3f 2c 01 ab 3e
       -0.28962287 0.3335343 0.55558014 0.33399332
000240 d7 60 1c 3f 56 5a 04 3f 3c 7e a5 bd ff 77 05 bf
       0.61085266 0.5170034 -0.08080718 -0.52136225
000250 d0 72 cf be 9d 89 a2 3d e6 21 be be 4c ac cb be
       -0.40517282 0.07936404 -0.37135237 -0.3977989
000260 6d aa 8e be 83 1a 28 bd 70 33 1c bf 9d 4e 28 be
       -0.278644 -0.04104091 -0.6101599 -0.16436239
000270 94 6f 08 3f d9 01 0b bf 85 3e 0d 3f 60 f0 4b be
       0.53295255 -0.54299694 0.5517352 -0.19915915
000280 58 e7 18 bf e7 90 02 bf 00 33 42 3e 71 1c af 3e
       -0.59728 -0.51002353 0.18964767 0.34201387
000290 64 05 a5 3d d2 67 ab bc fa fe ee be 88 22 bb bd
       0.08057669 -0.020923529 -0.46678907 -0.09137446
0002a0 5f e6 2e bf 65 4e c3 3e f6 3c c9 bc 2e 7a 11 3f
       -0.6832027 0.38145748 -0.024565201 0.56827056
0002b0 7c 10 e8 be f4 cc af 3e 16 53 91 3b 78 fb 7f 3d
       -0.45325077 0.34336054 0.0044349534 0.06249568
0002c0 e2 0a 0c 3e d4 63 8f 3e 93 27 12 be 36 f5 04 bf
       0.13676026 0.2800585 -0.14272909 -0.5193666
0002d0 67 12 ec 3e a2 e7 9d 3e 22 55 8d 3e eb 25 a4 3e
       0.4610779 0.30840784 0.27604014 0.3206018
0002e0 7d cf ad 3e 78 ae 14 3f d1 9a 11 bf d7 bc 84 be
       0.33947363 0.5807872 -0.56876856 -0.25925323
0002f0 29 2a 98 be 6d 34 6a 3e 48 b0 f4 3e be 3c 02 bf
       -0.29719666 0.22871561 0.47790742 -0.50873935
000300 0f 64 74 3e 64 2a a5 3d 44 0c 15 be 74 1c ee be
       0.23866294 0.08064726 -0.1455546 -0.46506083
000310 94 fc 30 3f 8a 09 a7 be a2 5c 24 3e eb 45 62 3e
       0.69135404 -0.32624465 0.16050962 0.22096984
000320 06 fa cf 3d 06 b6 a9 be a3 81 83 be ac 81 23 be
       0.1015511 -0.33146685 -0.25684842 -0.15967435
000330 62 33 92 3b cf 71 3e 3e 24 17 69 3e b2 0d 60 3e
       0.0044616917 0.18598102 0.22762734 0.21880224
000340 be b2 f9 3d d5 d7 e1 3e 37 4f fd be 5f 95 6a be
       0.121922955 0.4410998 -0.494745 -0.22908543
000350 bc 16 1c bf b3 7a 05 be af 45 72 be a3 41 c5 be
       -0.6097219 -0.13035087 -0.23659395 -0.3852664
000360 0e 02 0c be f3 9f 09 3e 15 fe 05 bf e3 d0 de 3d
       -0.13672659 0.13439922 -0.52340823 0.10879686
000370 ea 5d 27 bd 31 4e 8a bd 12 12 bd 3e 48 ea 9e be
       -0.040861048 -0.06753195 0.3692785 -0.31038117
000380 6c 7d 3a be b4 47 ac be 64 59 e2 3e 08 77 d1 be
       -0.18211907 -0.33648455 0.44208825 -0.40911126
000390 5d 35 a5 3d dc a6 44 3e 80 48 29 be 5c 32 0c 3f
       0.08066819 0.19204277 -0.16531563 0.5476434
0003a0 83 3c fe be 65 d5 f3 3d 01 14 9d be b9 cc b1 3d
       -0.49655542 0.11905936 -0.30679324 0.08681626
0003b0 fc 77 8f bc fa 31 7f 3c ef 7b c7 3e 2e ab 45 bd
       -0.017513268 0.01557588 0.3896174 -0.048258953
0003c0 f5 78 20 be fe d1 46 3e bc b7 19 be 04 b3 e9 b9
       -0.15671141 0.19416043 -0.15011495 -0.000445746
0003d0 e9 65 56 3e 13 2d 00 bd e8 91 a7 3e 03 d5 af 3d
       0.20937313 -0.031292986 0.32728505 0.08585551
0003e0 3f af 23 3e 44 66 5f 3e 87 22 8a bc 0e 46 cc bd
       0.1598482 0.21816355 -0.016862167 -0.09974299
0003f0 e8 4c 54 bd 78 0f d0 3c 14 aa 28 3f e1 3b a5 be
       -0.051831156 0.025398001 0.6588452 -0.32272246

model.lstm.bias_ih_l0 f4 [256]
000000 25 56 07 bd ea 51 24 3d e4 cb b7 3e aa e8 48 3e
       -0.03304114 0.04011718 0.35897744 0.19620004
000010 39 c6 1a 3e a3 b6 d8 3e f6 7b 90 3e 2c 12 86 3e
       0.15114678 0.4232684 0.28219575 0.2618574
000020 44 7f 33 3e ed 37 7a 3e 67 dd 55 3e 9a 1f a3 3e
       0.17529017 0.24435396 0.2088524 0.31860048
000030 f2 cf 7f 3e 9f 14 03 3e 5d bf 97 3e 65 c8 9d 3e
       0.24981669 0.12800835 0.29638186 0.3081695
000040 88 05 f0 3e 07 1a dc 3d ca fd 2f 3e 6d 00 c6 bd
       0.4687922 0.10747152 0.17186657 -0.0966805
000050 e6 54 de 3e ea c3 22 3f ff 46 6e 3e 76 bb 12 3d
       0.43424147 0.6358019 0.2326927 0.035823308
000060 7d d8 f3 3e f6 fd 10 3e 3d 32 ac 3e 30 ab e5 bd
       0.47626105 0.14159378 0.3363208 -0.11214292
000070 3c a6 d7 3d 6e 9d 20 3c 72 89 1a 3e da 04 50 3e
       0.105297536 0.009803159 0.15091494 0.2031435
000080 f0 4e d3 bc 22 37 c6 3c c7 d2 90 3e f8 15 52 3e
       -0.025794476 0.024196211 0.2828581 0.20516193
000090 05 55 a0 3e 2f 20 47 3f 9c 87 14 3d 80 82 a3 3e
       0.31314865 0.77783483 0.03626214 0.319355
0000a0 22 93 89 3e 4e 3d 8b 3e 3e dc 7b 3e d9 41 81 bd
       0.26870066 0.2719521 0.24595734 -0.063113876
0000b0 64 b0 4a 3e 75 3d 81 3e 49 ad 88 3e ce 4d 41 3e
       0.1979385 0.252422 0.26694706 0.18877336
0000c0 da 2a 92 bc 11 1b e8 3e 21 5e a9 3d d0 5f bf 3d
       -0.017842699 0.4533315 0.08269907 0.09344447
0000d0 c3 f3 38 3c 2c ec 18 be 09 b7 4d 3e 2a 87 5b 3e
       0.011288586 -0.14933842 0.20089354 0.2143828
0000e0 7a c9 81 3d 9f 1c a9 3e 7f e2 bf 3d 4c 64 17 3e
       0.06337257 0.3302965 0.093693726 0.14784354
0000f0 67 6e 5c 3e 24 bd f7 3d 43 e0 c2 3e 00 fe 0e 3e
       0.2152649 0.120966226 0.38061723 0.13964081
000100 e7 2e 31 3e 89 4d 4d be 3c 5e 1f be 99 86 19 3b
       0.17303048 -0.20049109 -0.15563291 0.0023426174
000110 3e a9 0f be 8d e2 00 be 80 de aa be a3 45 40 bd
       -0.14029405 -0.12586422 -0.3337288 -0.04694141
000120 8c 55 a0 bd 21 02 c3 bc 6d 61 86 bd dd 43 08 be
       -0.07828817 -0.023804726 -0.06561551 -0.13307138
000130 0f d3 f8 bd 51 87 35 3e e4 12 ba bc 70 53 c3 3d
       -0.12149631 0.177274 -0.022714086 0.09537399
000140 10 52 fb bd ea 09 04 3e 73 df 78 3d 7f 23 2d 3e
       -0.122715116 0.12894407 0.060759973 0.16908072
000150 e0 dd 90 3d 74 9d d3 3c d4 30 09 3d 09 40 8e 3c
       0.07073569 0.025831915 0.03349383 0.017364519
000160 43 6d cf bd 05 36 e4 bd dc a2 eb bd f1 33 6e 3d
       -0.10128262 -0.11143116 -0.11505672 0.058155004
000170 7a 62 61 be 2f fb 6e 3c f9 8e d4 bd e3 a7 37 bd
       -0.22010222 0.014586254 -0.10378832 -0.044837844
000180 9b e8 95 bd 2d 45 cf bd f4 da 6c be 6a b5 59 bb
       -0.073197566 -0.10120616 -0.23130399 -0.0033219703
000190 03 62 2b bd 63 21 ec bc 85 93 b2 3c 3a 36 79 be
       -0.041841518 -0.028824514 0.021798858 -0.24337092
0001a0 a3 33 e9 bd b6 f0 1a 3e 87 ea 01 be 20 f3 d3 bd
       -0.11386802 0.15130886 -0.12687121 -0.10349107
0001b0 1d 76 44 bd 4e 42 1b be ff 34 32 bc 73 ad d0 3c
       -0.047964204 -0.15162012 -0.010876893 0.025473332
0001c0 81 39 cb 3d 67 7b bc bd f1 0c 07 be ad f3 99 3d
       0.099230774 -0.09203225 -0.1318853 0.075171806
0001d0 3e f6 57 3d bd f1 0c 3e d8 05 b3 3c 3e a0 4c be
       0.05272507 0.13764091 0.021853372 -0.19983003
0001e0 35 0e a2 3d b2 af 68 be 6b c0 e2 bc 01 c9 8d bd
       0.07912866 -0.22723272 -0.027679643 -0.06923104
0001f0 65 ec 2e 3d 44 67 fd 3c 1b 08 24 bd 12 3f 6c 3d
       0.042705912 0.03093303 -0.040046792 0.057677336
000200 e7 08 4f 3e b3 ac 00 3d 39 ae 92 bd 34 c3 d7 bd
       0.2021824 0.0314147 -0.071621366 -0.10535279
000210 d8 b5 37 3d bd 3f ec 3c 39 a2 19 bd 35 f6 0c 3e
       0.044851154 0.028838987 -0.037508223 0.13765796
000220 d3 ac 92 bd a1 32 9f bc 02 79 bf 3d 0d e9 b2 3b
       -0.0716187 -0.019433321 0.09349252 0.0054599107
000230 7e 40 6c bc 02 62 40 3e ff 78 11 be ea d9 80 3d
       -0.014419673 0.18787387 -0.14206313 0.06291564
000240 fd ad ff bd 28 10 1b 3e b9 84 33 be 0d c3 0a be
       -0.124843575 0.15142882 -0.17531098 -0.13550968
000250 ef 6e 32 be 39 12 bc bd 45 8d 17 be 0a 68 7a be
       -0.1742513 -0.09183163 -0.14799984 -0.2445375
000260 af 45 0b 3c 1b 7c a3 3c 69 4e de bd e1 a1 fd 3d
       0.008500501 0.019956639 -0.10854799 0.123843916
000270 58 f7 32 be e3 bd 27 be f0 e1 4b 3e bc a4 7d 3d
       -0.17477167 -0.1638103 0.19910407 0.06192468
000280 1d 8e 31 bd 87 67 a7 bd aa 9b 0f 3e 29 3b 04 be
       -0.04334842 -0.08174043 0.14024225 -0.12913193
000290 23 1e 00 be 05 c6 0b be 34 70 1c 3d ec 06 ee bd
       -0.12511496 -0.13649757 0.038192943 -0.11622414
0002a0 24 0f 1f bc e2 26 04 3d f5 4e e1 bd 54 dc d9 3d
       -0.0097082 0.032263644 -0.11001388 0.106377274
0002b0 b3 1d 6d bd 10 6a 3b 3e f5 c7 ff 3b af 39 f7 3d
       -0.05788965 0.18302178 0.007805819 0.12071549
0002c0 60 ea a5 3d 7a a1 b8 3c 78 bc e9 3c 8e b5 d6 bb
       0.08101344 0.022537936 0.028532252 -0.0065524047
0002d0 09 67 d6 bc 17 2e 7d 3d e1 8f 44 3e 29 85 15 3d
       -0.026172178 0.061811533 0.1919551 0.036503945
0002e0 e1 23 1a 3e f3 f0 ee bc 10 32 9c 38 da 7d 58 3e
       0.15052749 -0.029167628 7.4479845e-05 0.21141759
0002f0 9b cd ee bc b5 cb 14 3e 75 bc 7d 3d 54 4b da bd
       -0.029150775 0.14530833 0.061947305 -0.10658899
000300 f9 17 02 3d 37 45 8e 3e 6a a5 b4 3e 84 84 44 3e
       0.031761143 0.27787182 0.3528245 0.19191176
000310 51 14 6a 3e ce 58 c8 3e c2 5e 5c 3e bc 1e 47 3e
       0.22859313 0.39130253 0.21520522 0.19445318
000320 09 ad 95 3e 2a ed 06 3d 96 96 a0 3e 90 9a 1a 3e
       0.29233578 0.03294102 0.31364888 0.15098023
000330 dd 58 bd 3d a6 a1 a8 3d 6d 42 9e 3e d8 2a b1 3e
       0.09245465 0.08233957 0.30910054 0.34603
000340 1e a8 92 3e 4c 7f a3 3d 36 94 4d 3e a2 6a a3 bd
       0.28643888 0.07983264 0.20076069 -0.07979323
000350 fd fb 91 3e 8c 21 aa 3e 59 91 55 3e 38 d1 3c 3e
       0.28512564 0.3322872 0.20856227 0.18439186
000360 0d b1 95 3e db bc 7e 3e 70 b7 9f 3e 76 dd 29 bd
       0.29236642 0.2487673 0.3119464 -0.041470967
000370 1a f6 29 3d 92 aa 83 3d 14 29 94 3e b1 f5 00 3e
       0.041494466 0.06429018 0.2893759 0.12593724
000380 5b dc e1 3d da 1b fb bc ea 37 fe 3e d8 2c 96 3e
       0.110283576 -0.03065293 0.49652034 0.29331088
000390 38 bc a3 3e 7e 79 92 3e 18 78 32 3e d0 6c 73 3e
       0.31979537 0.28608316 0.17428625 0.23771977
0003a0 35 b3 60 3e ee 6f bf 3e 6c 46 f2 3d 0f b7 12 bb
       0.21943362 0.37390083 0.11829838 -0.0022386943
0003b0 70 90 ac 3d ac ac 4f 3e d8 81 a2 3e 78 dd 33 3e
       0.08425987 0.20280713 0.31739688 0.17564952
0003c0 80 0e a1 3d 05 2e 4f 3e 0a 4b c2 3e 88 b3 21 bd
       0.07864094 0.20232399 0.37947875 -0.039477855
0003d0 3a 72 38 3d 4f 43 69 bc 71 ff 2c 3e 58 9b b3 3d
       0.04503081 -0.014237239 0.16894318 0.08769864
0003e0 18 b2 37 3e 0d 22 9b 3e 84 0f 79 3d 63 d3 67 3e
       0.17939031 0.30299416 0.060805812 0.22639231
0003f0 d5 8c 9b 3d ec 52 26 3e 82 69 70 3e 67 11 71 bd
       0.07595221 0.1624257 0.23477748 -0.058854487

model.lstm.bias_hh_l0 f4 [256]
000000 4f 7e 88 3d fd 33 69 3e dc 8d bd 3e 90 8f af 3e
       0.066647165 0.22773738 0.37022293 0.34289217
000010 fb 87 68 3e 12 cb eb 3e ae 8b 95 3e a0 c1 b0 3e
       0.22708122 0.46053368 0.2920813 0.34522724
000020 8b 89 a4 3e 09 58 b0 3e b3 75 95 3e 56 be 90 3e
       0.32136187 0.34442165 0.2919136 0.28270215
000030 6e b6 5d 3e 21 dc b2 3d 77 7f 1b 3e bd 48 07 3e
       0.21651623 0.087333925 0.15185343 0.13211341
000040 22 30 c4 3e 23 54 6a 3d a4 42 31 3e 76 13 ec 3d
       0.38317972 0.057209145 0.17310578 0.115271494
000050 9a ce ad 3e cb 55 24 3f b6 67 b3 3e e6 8b 3d 3e
       0.33946687 0.6419341 0.35040063 0.18510398
000060 0d 61 c7 3e db a0 03 3e 79 81 71 3e de a8 26 3c
       0.3894123 0.1285433 0.23584546 0.010172097
000070 8e a9 72 3d 20 ab 9e 3d ef 9d 76 3e 13 df b8 3d
       0.05924373 0.07747483 0.24083684 0.09026923
000080 ac 88 51 3e 5b 0e 1c 3e 29 d7 12 3e da 74 47 3e
       0.20462292 0.15239851 0.1433989 0.19478169
000090 f1 fa 64 3e 9d 9f 3e 3f cf 0c b0 bc 49 5c 3a 3e
       0.22361352 0.744623 -0.021490483 0.18199266
0000a0 a4 cf e7 3c 0c 0a b7 3e 21 39 15 3e cf 0d e8 ba
       0.028297253 0.35749853 0.14572574 -0.0017704311
0000b0 55 82 89 3e 5b e9 a4 3e 82 cb 8a 3e 89 bb ad 3e
       0.26857248 0.32209286 0.2710839 0.3393214
0000c0 61 4b 10 bc d0 18 06 3f 85 e2 8a 3e 27 ab e9 3a
       -0.008807034 0.5238161 0.27125946 0.0017827497
0000d0 1a 96 1a 3e 79 49 32 be c5 8a ac 3e 79 a1 be 3e
       0.15096322 -0.1741084 0.33699623 0.3723257
0000e0 95 2e 1a 3e 3d 05 7a 3e 11 e0 79 3e d5 2e 36 3e
       0.15056832 0.24416061 0.24401881 0.17791303
0000f0 1a fe 30 3e 6c 4c 84 3e 3e 64 09 3f 0b 07 05 3d
       0.17284432 0.25839555 0.5366858 0.03247742
000100 38 32 09 3d c5 b2 3b bd 11 fe 35 be 56 a2 53 bd
       0.033495158 -0.045824785 -0.177727 -0.051668487
000110 5d c1 e9 bd 7e 7f db bd 85 8f 1c be e4 d0 e7 bd
       -0.11413834 -0.107176766 -0.15289123 -0.113191396
000120 42 17 c2 bd f6 26 ea b9 c8 13 56 bd 0f 72 67 3d
       -0.09477092 -0.00044660986 -0.05226496 0.05650526
000130 6f 13 f7 bd ba ab 34 3e dc ee 50 3d 23 6b 37 3d
       -0.120642535 0.17643633 0.051009044 0.044779908
000140 f7 31 56 be c5 25 d3 3d 91 d3 55 bd 79 8f 84 3d
       -0.20917498 0.10309938 -0.05220372 0.06472678
000150 d2 17 34 3e 96 9b fa bc fc e3 46 bc 47 5a 07 3e
       0.17587212 -0.030591767 -0.012139317 0.13218032
000160 ce a9 d8 3d a9 64 2d be 17 a9 f6 bb cc 7b 2e 3d
       0.10579263 -0.1693293 -0.0075274813 0.04259853
000170 48 ba db bd e5 2d d5 3c 9c 26 97 3d 08 b9 9d bd
       -0.1072889 0.02602286 0.07380411 -0.077013075
000180 f5 bb ab bd 9c 32 0e be a7 00 0d bd bd ee 43 bd
       -0.08385459 -0.13886493 -0.03442445 -0.0478351
000190 5e 48 91 3d 24 96 4e 3d 81 4d 88 bd e1 d4 c8 bd
       0.07093881 0.050436154 -0.06655408 -0.098062284
0001a0 63 27 eb bd 26 00 1e bd a1 84 30 be b8 95 31 be
       -0.11482122 -0.03857436 -0.17238094 -0.1734227
0001b0 f6 ab ca bc e0 6a 59 3d a3 1a d6 bc 0d 22 d1 bd
       -0.0247402 0.05308044 -0.026135748 -0.10211573
0001c0 0e bd 02 3d db 26 f3 3d 37 eb 0a be cb 1a a0 3d
       0.031918578 0.118726455 -0.1356629 0.0781761
0001d0 ce 46 02 be 39 96 8e 3e d9 eb 9e 3d 6b c3 50 be
       -0.12722322 0.27848986 0.07759828 -0.20387046
0001e0 13 48 87 bd e3 d3 0a be 10 c4 af 3d f4 50 79 bc
       -0.06605544 -0.13557391 0.08582318 -0.015217055
0001f0 fd 96 8e 3c a8 c5 95 3c 73 4b 70 be f2 91 0d bd
       0.017405981 0.018282726 -0.23466282 -0.034563012
000200 db b2 38 3e eb 62 6a bd 50 d4 d0 bd a7 3e a6 3d
       0.18036978 -0.05722324 -0.101967454 0.08117419
000210 22 10 0a 3e d3 0c a5 3d 07 a1 3f 3e 16 fb 1a 3e
       0.13482717 0.08059087 0.18713771 0.15134844
000220 ac 22 a0 3d 9c 89 94 bc 38 aa f5 bc c8 18 ef bd
       0.07819113 -0.018132024 -0.029988393 -0.116746485
000230 dd 3a 24 be e2 22 43 3e 3c 1f 83 3c a9 26 05 be
       -0.1603808 0.19056275 0.016006105 -0.13003029
000240 0b 7c 83 3d c9 1f 0c 3e 9d 5b 16 be 7a 90 69 be
       0.06420144 0.13684 -0.14683385 -0.2280902
000250 5d e0 50 3c 08 f7 04 3e 76 de 82 3d 0b 1d ee bd
       0.012748805 0.1298486 0.06390087 -0.11626633
000260 0b 72 01 3e 66 f0 0d 3e 50 a4 93 3d 7b b5 6d bd
       0.1264116 0.13861236 0.072090745 -0.0580344
000270 79 80 32 bd 87 53 a9 bd 75 c8 fe 3c 85 82 81 3d
       -0.043579552 -0.08267885 0.031101445 0.06323723
000280 4b c0 cd bd 06 31 10 be 1f 5d 0f 3e 82 54 d1 bb
       -0.100464426 -0.14081201 0.14000367 -0.006388248
000290 d4 e4 bc bd ea 58 0e 3d 40 57 8c bc 56 6c 30 bd
       -0.09223333 0.034752764 -0.017131448 -0.043072067
0002a0 7d fb 5e bd 9e 49 82 bb 0c f7 3a be 0e e0 eb bc
       -0.054439057 -0.003976061 -0.18258303 -0.028793361
0002b0 e8 d7 de 3c f5 af 15 3e 9a a4 c7 bd 37 20 f7 3d
       0.027202561 0.14617904 -0.09748192 0.12066691
0002c0 50 67 2b 3d ec 09 67 3d 02 4f aa 3d ae 61 5f bc
       0.041846573 0.056405947 0.08315851 -0.0136341285
0002d0 9e b6 aa 3c 51 f7 8d bd 40 30 0d 3e 08 8e a2 bd
       0.020839032 -0.069319375 0.13787937 -0.079372466
0002e0 73 4a 58 3e 9f 08 15 3e b0 ba 3a 3b 72 f4 d0 3d
       0.2112215 0.1455407 0.0028492622 0.10202874
0002f0 ef c7 3a be 03 bd b6 3d 30 17 62 bd 8b 72 84 bd
       -0.18240331 0.0892277 -0.055197895 -0.0646716
000300 02 a1 d0 bd 64 8d 66 3e 15 e8 01 3f b2 16 c8 3e
       -0.1018696 0.22514874 0.50744754 0.39079815
000310 af 48 96 3e 31 be 89 3e 26 3b 80 3e 0a dd 88 3e
       0.29352328 0.26902917 0.25045127 0.2673114
000320 c1 21 83 3e c9 fd 23 3e 28 9e 86 3e d8 96 3b 3e
       0.2561169 0.1601478 0.2629254 0.18319261
000330 af 90 bc 3d 54 99 24 3e a7 f7 87 3e 39 7a b2 3e
       0.09207284 0.16074115 0.2655613 0.34858873
000340 df 6f 76 3e dc 62 85 3c c9 63 3b bc f1 ad b5 3d
       0.24066113 0.016282491 -0.011437365 0.08871067
000350 92 5e 7d 3e b5 47 86 3e 18 77 2f 3d 99 a3 8d 3c
       0.24743107 0.26226583 0.042838186 0.017289924
000360 f5 fa e7 3d 7d 06 05 3e 5f 8e 12 3e bb 49 a2 bd
       0.11327163 0.12990756 0.14312123 -0.07924219
000370 ec ed fa 3d d4 22 8f 3c 87 8f 9b 3e 97 0e a9 3b
       0.12252411 0.017472662 0.3038294 0.00515921
000380 e8 79 01 3e c0 c9 8f 3d 31 4d ed 3e 47 f6 61 3e
       0.1264416 0.07020903 0.46347955 0.22066604
000390 ff f0 37 3e 1c a9 89 3e 3b 99 81 3d 3d 28 db 3e
       0.17963026 0.26886833 0.063280545 0.42804137
0003a0 27 5f 0c 3c 95 e2 67 3e d5 43 0b 3e d7 4d 32 bd
       0.008567608 0.22645028 0.13600095 -0.043531265
0003b0 6d 88 94 3a 7c 8e de 3d 11 e9 a5 3e a0 23 8e 3e
       0.0011332162 0.108670205 0.32404378 0.27761555
0003c0 f1 f4 a0 bd 46 78 33 3e b5 b0 29 3e 9b 09 a9 3c
       -0.07859219 0.1752635 0.16571315 0.020634463
0003d0 8f df 0e 3d b7 11 62 bd ab d6 21 3e 19 0f a6 3e
       0.03488117 -0.055192675 0.15804546 0.32433394
0003e0 35 c5 14 3d 49 ec 54 3e ef 06 9a 3d f8 a9 56 3e
       0.036320884 0.2079326 0.07520854 0.20963275
0003f0 20 62 55 3e 36 38 be 3d 18 ec e1 3e 2a d8 de 3d
       0.20838213 0.09288065 0.44125438 0.10881074

model.fc.weight f4 [4, 64]
000000 5a a6 d3 3d 71 3f 1a 3b 14 6f 92 be c4 7d f2 bb
       0.103344634 0.002353635 -0.2860037 -0.0074002463
000010 84 33 b0 be 1e ff 36 3f 67 ba af 3e b1 54 ae be
       -0.34414303 0.7148303 0.343219 -0.3404899
000020 67 92 3f bf 12 2e b3 3d a0 a6 8b 3f 37 06 6a 3f
       -0.7483277 0.087490216 1.0910225 0.91415733
000030 fb 37 73 3e f4 93 e9 3a ec 99 be be b2 b1 94 3d
       0.23751824 0.0017820583 -0.37226808 0.07260455
000040 22 e1 9f be 81 3b 25 3e d0 b1 80 be 4d c8 f1 bd
       -0.3122645 0.1613598 -0.2513566 -0.118057825
000050 e8 aa a0 be a2 20 84 3f 64 7f a9 be ac 30 5e be
       -0.3138039 1.0322459 -0.33105004 -0.21698254
000060 25 e2 7c be 19 9e da 3e 29 f0 7e be 60 1a e1 3d
       -0.24695642 0.42698744 -0.24896301 0.10991359
000070 a1 1d 0a bf 22 bc b1 bc fd 7b c6 bd e3 8d 9c 3d
       -0.5395146 -0.021696154 -0.09691618 0.0764425
000080 5e fe 83 3e 0d 1a 50 bd 2c 67 23 3e dc 39 4f be
       0.25780004 -0.050806094 0.15957326 -0.20236915
000090 c6 66 4d bd df 35 95 3e 17 d0 9e 3e e7 30 75 bf
       -0.05014684 0.29142663 0.31018135 -0.95777744
0000a0 9e 4e 06 be 39 ea 28 3f 62 08 83 3c ce 79 0d be
       -0.13115928 0.65982395 0.015995208 -0.13815996
0000b0 23 1a b3 3e 5f 9f 35 bd aa c2 55 3e 34 9f 6a 3e
       0.34980878 -0.04434144 0.2087504 0.22912294
0000c0 bd 53 63 be 6a 2f eb be 39 15 90 3d 3d 4f 23 bc
       -0.22199912 -0.45934612 0.07035298 -0.009967622
0000d0 15 32 48 3e 9d a5 81 3d ed 2c 9e be 75 06 c8 bd
       0.19550355 0.06330416 -0.3089365 -0.097668566
0000e0 63 74 1d 3e 92 bd 21 bf 97 41 c2 3e 27 d4 98 3d
       0.1537643 -0.63179886 0.37940666 0.0746234
0000f0 be bc ae be 75 9b 50 3e 0b f3 93 bd 93 91 61 be
       -0.34128374 0.20371802 -0.07224091 -0.22028188
000100 53 29 bb 3d 2e 33 1c be de 19 17 3f 00 c3 05 be
       0.09138741 -0.15253899 0.59023845 -0.13062668
000110 ed ba a7 bc 0a 28 92 3d 93 10 04 bf 24 2f 20 3e
       -0.020474875 0.07136543 -0.5158779 0.15642983
000120 22 0c 0d 3f 33 cd 25 3e e3 fb 2f bf c6 2e fe be
       0.5509664 0.16191559 -0.68743724 -0.4964506
000130 d5 fb 00 bf 90 33 97 3d 44 72 8d bd 70 50 af 3e
       -0.50384265 0.07382882 -0.0690656 0.34241056
000140 0d 72 de 3e 58 9d 26 be ef 94 dd 3e 52 77 ec 3d
       0.4344639 -0.1627096 0.4327769 0.11546196
000150 8d 01 ec 3d 1c 97 08 be e5 8c f1 3e 71 74 ea 3d
       0.11523733 -0.13338894 0.47177806 0.11447991
000160 27 ac bd 3e de ba 31 bf 5b 16 50 3f 3a df 8a 3c
       0.37045404 -0.6942576 0.8128411 0.016952146
000170 6e 0f 45 3e ab 0b 3e be b4 5f 59 be b7 a2 d3 bd
       0.19244167 -0.18559138 -0.21227914 -0.1033377
000180 e2 bd a1 be 72 9f bd 3e f3 f0 82 be cf 70 d3 3e
       -0.31590182 0.3703571 -0.25574455 0.41297004
000190 1b 55 1f 3d 48 e3 a6 3e a5 ea 4a be e3 8d 12 3e
       0.038899522 0.32595277 -0.19816072 0.14311938
0001a0 9e d3 14 3f 48 0a 5d bf 5c 1b 6b 3f 2f ef 2e 3e
       0.581354 -0.8634381 0.9183862 0.17083429
0001b0 4b fd af 3d 80 7a e9 3e f8 b5 1c bf 1b 5d 47 3e
       0.08593234 0.45601273 -0.6121516 0.1946911
0001c0 13 8f 53 be ae 72 14 3f 40 78 10 3e 4a 9a c5 3d
       -0.20660047 0.5798749 0.14108372 0.09648569
0001d0 be ce 52 bc 03 8d 98 be 26 0b 54 3e a1 15 9a 3d
       -0.012866674 -0.29795083 0.20707378 0.07523657
0001e0 18 1d be be eb 04 e0 3e b1 eb 88 be 97 2e 8d be
       -0.37131572 0.43753752 -0.26742318 -0.27574608
0001f0 c8 51 9f 3e 64 77 82 3e cf 44 4c bf 29 20 3a 3e
       0.31117082 0.25481713 -0.79792494 0.1817633
000200 02 a1 2d bc 1e 69 13 bf 11 03 11 bf ac 55 67 3f
       -0.010597469 -0.5758227 -0.56645304 0.903651
000210 54 d1 a2 bd c1 5d f4 be 82 e2 82 be 64 f3 53 3e
       -0.079500824 -0.4772778 -0.25563437 0.20698315
000220 2f 31 13 3e 40 38 f2 3e e8 e6 3f 3d 9a 37 d6 be
       0.14374231 0.4730854 0.04685107 -0.41839296
000230 72 ad a6 bd 36 df 6f 3d a0 4f f5 be 01 57 5c bf
       -0.08138551 0.05856248 -0.47912312 -0.8607026
000240 0c 16 f6 bc 11 6b cf 3c 18 38 26 3e c9 c5 cb 3d
       -0.03003981 0.025319608 0.16232336 0.09949834
000250 d6 43 1d 3f fc 65 db be 62 44 09 3e 77 18 91 bd
       0.61431634 -0.42851245 0.13404992 -0.070847444
000260 18 18 b8 bd 0f a2 d4 3e ca ec 8d be da 33 99 3a
       -0.089889705 0.4152989 -0.27719718 0.0011688427
000270 33 18 d1 bd 8d b7 00 3e 5c 5f 34 be a3 96 d1 3e
       -0.10209694 0.12570019 -0.17614502 0.4093524
000280 7d fc a0 bd bb a9 f6 bd 97 51 14 3f 29 cc c1 be
       -0.07860658 -0.12044092 0.57936996 -0.37851074
000290 03 6e c0 be 88 b9 58 bf 7d ed 58 3e fc da 2a 3e
       -0.37583932 -0.846581 0.21184345 0.16685098
0002a0 86 af 3b be 58 21 77 bc 6d 24 35 bf 37 6a 10 3c
       -0.18328676 -0.015083633 -0.70758706 0.008814386
0002b0 c2 c0 44 be 09 46 88 be 8d d6 50 be 8a 56 97 3e
       -0.19214156 -0.26615933 -0.20394345 0.29558212
0002c0 34 d7 07 bd 44 e6 58 be e3 0d 45 3f 3b f1 a5 3d
       -0.033164218 -0.2118159 0.76974314 0.08102652
0002d0 10 f0 b4 be d7 70 fe 3d b7 d0 19 3e 1b 0a 09 3f
       -0.35339403 0.12423866 0.15021025 0.53531045
0002e0 bf 26 db bd f3 42 db 3e 37 91 ec bd 30 ec 28 3f
       -0.107007496 0.42824516 -0.11551135 0.65985394
0002f0 1c 6a 89 3d 5a 4c 1d 3e c5 ee 26 3e e1 77 10 3e
       0.06709692 0.15361157 0.16302021 0.1410823
000300 97 eb 77 be 59 7a e2 3e 2e 35 f5 3e 53 0d b7 be
       -0.24210964 0.4423397 0.47892135 -0.35752353
000310 54 21 f1 3e e9 bb bb be 66 ad 0b 3e 16 43 c8 bd
       0.4709574 -0.36666802 0.13640365 -0.097784206
000320 29 4c a8 3d 36 78 c2 be 56 f0 e3 bd 58 32 0b be
       0.082176514 -0.3798234 -0.11129825 -0.13593423
000330 80 7d be 3e 3b f3 b3 be 9e 60 51 3f fb 24 01 3f
       0.37205124 -0.35146508 0.8178805 0.5044705
000340 d9 c4 61 bd c4 9b 17 bd 97 88 20 be 38 10 8a 3d
       -0.05511937 -0.037013784 -0.15677105 0.06741375
000350 2c 23 fb be fb 05 05 bf 3b 9e bf bd 69 c4 c0 3d
       -0.49050272 -0.5196225 -0.09356352 0.09412462
000360 0e b6 68 3e 0c 10 14 be 05 eb 8b be 48 5c 6b be
       0.22725698 -0.14459246 -0.27327743 -0.22984421
000370 0d e1 d1 3e c8 90 fb bd 06 d6 c6 3e 90 1e ad be
       0.40992013 -0.12283474 0.38835162 -0.3381238
000380 7e 53 5a 3e dc 34 a9 bc 91 94 0f bf 7e 22 87 3e
       0.21320912 -0.020655088 -0.5608607 0.26393503
000390 d3 aa cd 3e 47 5a a1 3e 6b 27 81 be 12 d4 c7 3e
       0.4016939 0.3151419 -0.25225386 0.39028984
0003a0 9c d6 8c 3c 68 3c d1 3d cc 9a d9 3d 10 c2 21 b7
       0.017192177 0.102166 0.10625228 -9.6415315e-06
0003b0 39 aa 3c bd cd ff 9a be ee d7 14 3f b3 2e 65 bf
       -0.046060774 -0.30273286 0.5814198 -0.8952438
0003c0 74 11 a6 3e e5 49 52 be c6 5a 5c bf 97 83 7b bd
       0.3243519 -0.20536001 -0.8607601 -0.06140479
0003d0 d0 62 08 3e e5 89 4f 3e a3 ba 11 bd 86 5e a7 be
       0.13318944 0.20267446 -0.03557838 -0.32689303
0003e0 6d fd 18 bb 5a dc 8a be a3 04 ad 3d 55 38 de be
       -0.0023344413 -0.2712124 0.0844815 -0.43402353
0003f0 83 bb 5f 3d d5 c1 1d bf 31 da 4f 3f 6d 6d 26 bd
       0.054622184 -0.6162389 0.8119231 -0.0406317

model.fc.bias f4 [4]
000000 11 c7 2b 3d 41 a4 05 bd 4d 3a 8b 3d c2 cd c4 bd
       0.04193789 -0.032627348 0.06798229 -0.09609558
