submissions/gru_agent.pth (torch, 20597 bytes, 6 tensors)

model.gru.weight_ih_l0 f4 [96, 10]
000000 08 46 88 bd 82 8b 57 be d3 86 8b bf ae 04 a1 3d
       -0.066539824 -0.21049312 -1.090052 0.07862221
000010 11 c0 0f 3f f3 a9 cb be 3c 92 96 bf b5 53 94 bd
       0.56152445 -0.39778098 -1.1763377 -0.07242528
000020 a9 8c bb be a5 8c a2 3e 05 0b ba bf dd c1 e7 be
       -0.36630753 0.31747928 -1.4534613 -0.45265093
000030 40 c4 dc be 64 64 de be c1 29 4b be fd cd a8 3e
       -0.43118477 -0.43435967 -0.19840147 0.32969657
000040 39 1e de bb 18 6f fd be 75 80 9a be c4 ee c1 bd
       -0.006778505 -0.4949882 -0.3017613 -0.09469369
000050 9f da 19 40 5a ee 24 3e d2 15 88 3e 6f a4 a4 3e
       2.4039686 0.16106549 0.26579148 0.32156703
000060 ea 03 f0 be 60 7a c6 be af b9 da bd 49 8e 25 3e
       -0.46877986 -0.3876524 -0.106799476 0.16167559
000070 3d 24 15 bf 5d 61 d9 be 43 92 93 3f 24 ca 2c 3f
       -0.5825842 -0.42457095 1.152901 0.6749594
000080 35 a2 cf 3e df 5f d8 be 1a f7 8f 3e e6 21 b2 be
       0.40553442 -0.42260644 0.2811821 -0.34791487
000090 2e 80 30 bf b9 53 33 bd df a1 9f be 92 9d 3b 3e
       -0.68945587 -0.043781016 -0.31178185 0.18321827
0000a0 21 28 8f 3e f9 1f 02 3d 01 f3 07 3f 9a 75 9f 3e
       0.27960303 0.031768773 0.5310517 0.3114441
0000b0 76 62 a8 3e 8c a2 e6 be de 32 6b 3f 27 eb 03 3f
       0.3288762 -0.45045888 0.9187449 0.5153069
0000c0 5a f2 4e bd 39 4e 8e be 49 bd d7 3e 0b de a1 3e
       -0.050524093 -0.27794054 0.421366 0.31614718
0000d0 31 70 02 3d ba da 99 bd 7c 12 20 3f 3d 50 17 3e
       0.031845275 -0.07512422 0.62528205 0.14776702
0000e0 d6 10 14 c0 61 7d 4b 3e 13 f1 7d 3e 7d 66 a9 3e
       -2.3135276 0.19872047 0.24798994 0.33086005
0000f0 d4 24 e7 bd d6 1b 48 be 12 74 17 40 74 55 72 be
       -0.11286321 -0.19541869 2.3664594 -0.2366541
000100 fb 94 49 3e ad 9f 70 bd ce 1c bf be a4 77 ad bd
       0.19685738 -0.05874603 -0.37326664 -0.08470085
000110 d8 6b 4a 3e 19 e3 85 3f 26 b9 4f bf 2e 40 0c be
       0.19767702 1.045993 -0.8114189 -0.13696358
000120 d8 0e 84 3e 42 67 04 bf 99 9d 0b c0 fe f8 7a ba
       0.25792575 -0.5172006 -2.181494 -0.0009573846
000130 4b 6f 6a 3f b9 60 6a 3e fd d8 28 be 57 0b 88 be
       0.9157607 0.2288846 -0.16489024 -0.26571152
000140 ba de a8 be 53 fe 7d 3e 94 e8 05 40 30 5e d8 be
       -0.32982427 0.24804048 2.0923204 -0.4225936
000150 8f 53 3b 3e 42 b5 5f be ad c3 34 be ae 1b 71 3d
       0.18293594 -0.21846488 -0.1765277 0.058864288
000160 03 9e 55 bd 64 ab 1d 3f 08 36 9f be 81 6c 25 bf
       -0.052152645 0.61589646 -0.3109591 -0.6461869
000170 80 11 4e bf 61 4a 8b be 4f be 05 c0 e5 b9 44 bf
       -0.8049545 -0.27205184 -2.0897405 -0.7684615
000180 42 7f 75 3e d5 83 5b be 49 2c 34 3e 05 aa 8e 3d
       0.23974326 -0.21437009 0.17595018 0.069660224
000190 f2 8e 47 3f 24 ff 7b be 50 91 33 3e 11 38 8f 3e
       0.7795249 -0.24609047 0.17535901 0.27972463
0001a0 1c cc b9 bc 62 c5 42 3f 91 ad c1 3e 30 a1 00 3f
       -0.022680335 0.7608243 0.37827733 0.5024595
0001b0 6c 6f 6c be f8 bf 38 3e e3 6d 23 be 51 fc 38 3e
       -0.23089379 0.1804198 -0.15959887 0.18065001
0001c0 11 04 1b 3e f4 6f 3f bf 2f 31 8a bf 21 f6 a3 bd
       0.1513827 -0.747802 -1.079626 -0.0800593
0001d0 ec 46 6c be 36 c9 a9 bd 02 ea f1 3c e8 ce 8e 3e
       -0.2307393 -0.08290331 0.029530529 0.27892232
0001e0 18 56 8a c0 b4 c6 03 bf 37 0c 1d 3e cb 37 b4 3c
       -4.3230095 -0.5147507 0.15336691 0.02199926
0001f0 92 2d 97 bd 30 85 90 bc f6 45 85 be 02 f5 a2 be
       -0.07381739 -0.017641634 -0.26029938 -0.3182755
000200 78 e7 78 3e 64 97 b5 bd 75 7a e7 be 80 3f 59 be
       0.24307048 -0.08866766 -0.45210615 -0.2121563
000210 e3 73 08 bf 50 9e 95 3e 72 3c e7 bd 89 a8 93 3d
       -0.5330183 0.29222345 -0.11290826 0.0720988
000220 a4 09 c5 3e 5f ca 09 be 65 62 1d 3e 42 2e fc 3d
       0.38483918 -0.13456105 0.15369566 0.123135105
000230 c8 b8 c2 be f6 a7 a0 3e 38 00 3e be a5 8e 93 3e
       -0.38031602 0.31378144 -0.18554771 0.28819767
000240 f8 a6 56 bf ba 2f ad 3d 39 3f 35 3f 9f 89 99 be
       -0.83848524 0.08456369 0.70799595 -0.2998781
000250 86 80 67 3d ec 08 b7 be 1a 82 16 bc 43 ef 14 3e
       0.056519054 -0.35748994 -0.009186292 0.14544396
000260 89 3d 86 bf fd d8 40 3f 7f 20 cf 3f 4f 63 90 3e
       -1.0487529 0.753311 1.6181792 0.28200766
000270 6d b9 27 3e 37 05 98 3e 83 1a f6 be ed 31 02 be
       0.16379328 0.2969148 -0.48067102 -0.12714358
000280 1c 65 a3 3e 1f 11 1c 3e 48 bb ea bc e2 cc 01 3f
       0.31913078 0.15240906 -0.028653756 0.5070325
000290 54 c2 8e 3f b4 89 65 3f db 5d 14 be b9 9b 66 be
       1.1153054 0.89663243 -0.14488928 -0.22520341
0002a0 0d af bc be 50 3a 11 3e a8 a0 8d 3f f2 c5 fe 3e
       -0.36852303 0.141824 1.1064653 0.49760395
0002b0 37 f8 8c be fd b7 7f be 00 2a 10 3d ae 6f e7 be
       -0.27533123 -0.2497253 0.035196304 -0.45202392
0002c0 90 ea fc 3d 49 15 0f 3f 0c c6 2e 3f 9f b6 92 be
       0.12349427 0.55891854 0.68270946 -0.28654954
0002d0 c5 93 c3 3e fb 94 58 bf ac b3 16 c0 86 b8 b5 be
       0.38198677 -0.84602326 -2.3547163 -0.35492343
0002e0 97 7b bf 3b 1e 13 ea bd 20 04 dc 3d c9 a8 63 3e
       0.0058435905 -0.114294276 0.10742974 0.22232355
0002f0 f9 bf 68 bc c6 d5 50 bd 14 35 0a 3e e4 9e 07 3f
       -0.014205926 -0.05098512 0.1349681 0.5297682
000300 21 8a 95 3f 9e 2e b9 3e e0 31 b0 be 37 28 68 3e
       1.1682779 0.3616838 -0.34413052 0.22671591
000310 17 51 9a 3e d4 1b 7a 3e a4 c0 31 be bc 2a 1e bf
       0.30139992 0.24424678 -0.17358643 -0.6178396
000320 91 7d 27 3f 67 73 2d 3f 96 33 c5 bd a8 97 d9 be
       0.65425974 0.67754215 -0.0962898 -0.42498517
000330 71 3f 76 be 64 a2 7d be 96 e9 5e bf df af 80 be
       -0.24047638 -0.24768978 -0.87075174 -0.2513418
000340 37 ff 98 3e 8e 21 14 bf 12 6e 49 be fa 46 b1 be
       0.29882213 -0.578637 -0.19670895 -0.34624463
000350 5c 1c 0e 3f 27 de ad bd 66 10 7c 3e b2 60 04 bf
       0.5551202 -0.08489638 0.2461563 -0.51710045
000360 18 a8 38 bf 8c 8b bb bc 08 03 b9 3c 89 0d 0f be
       -0.7213149 -0.02289369 0.022584453 -0.13970007
000370 83 8d a8 bf bc 86 8e be 58 9a 86 bd 91 b0 26 be
       -1.3168186 -0.2783717 -0.065724075 -0.16278292
000380 4d 0c 1b bf 7d e6 95 3c 13 26 a1 3e 8f e4 1c bf
       -0.60565645 0.018298382 0.3147436 -0.6128625
000390 00 8b 8b 3d 31 c5 00 3e 7e be a4 bf ca 34 30 3d
       0.068136215 0.12575223 -1.2870634 0.043019094
0003a0 1a fa 31 3f aa 7b 97 be 01 46 0c 3d 36 96 be 3d
       0.6952225 -0.29586536 0.03424645 0.09305994
0003b0 be 52 d4 3e d6 3f ce 3e 06 52 c6 3c 28 cc 68 3e
       0.41469377 0.40283078 0.024209034 0.2273413
0003c0 e6 fb 0e be 03 14 af be d4 f5 46 bf b1 49 d2 3d
       -0.13963279 -0.34194955 -0.77718854 0.10267962
0003d0 f8 ae a3 3f c9 de ac 3d 14 f7 a1 3e 97 89 8c 3d
       1.2787771 0.084409304 0.31633818 0.06862181
0003e0 2b fd 69 be 2a 3b cb 3d 31 84 08 bf 4e d7 bb 3e
       -0.22850482 0.09923394 -0.5332671 0.36687702
0003f0 c6 3f 03 3e 44 fb 95 be a4 d5 8b be 8f 14 18 3e
       0.12817296 -0.29293263 -0.27311432 0.14851592

model.gru.weight_hh_l0 f4 [96, 32]
000000 18 01 88 bc d0 35 3c 3e eb 00 08 3e a6 ff 9a 3e
       -0.016602084 0.18379903 0.132816 0.3027317
000010 2f e6 69 3e 2d 6d 55 3e c1 4c f4 3d a7 03 c3 3e
       0.22841714 0.20842429 0.11928702 0.38088724
000020 31 aa 99 3d eb b7 05 bf 5a df 18 bf 23 f4 af 3e
       0.075031646 -0.5223376 -0.5971581 0.3436595
000030 ce e6 7d be f6 62 f9 be 0c b2 b3 3c a6 52 67 3e
       -0.24795076 -0.48708314 0.021935485 0.22590122
000040 3e 25 24 3f 98 12 8b 3e 7f c3 15 be a7 d6 67 bd
       0.6411933 0.27162623 -0.14625357 -0.056601193
000050 93 b8 fb be b4 28 11 be 78 e2 bd 3e e7 ac 6d 3e
       -0.49164256 -0.14175683 0.37086844 0.23210488
000060 03 0b 31 3f b9 ef cf 3d de 73 bb bb 55 90 d9 3e
       0.6915743 0.10153145 -0.0057205996 0.4249293
000070 91 2f fb bd 9b 08 8a be b4 93 7c 3d 37 0b 74 3e
       -0.12264932 -0.2695969 0.0616643 0.23832403
000080 fe ab 8c 3d f8 d6 17 bf bf c5 10 3f ef 25 aa be
       0.068687424 -0.5931239 0.56551737 -0.33232066
000090 27 4e a2 3e 8e 0e b2 bd 08 13 35 3e c2 29 90 be
       0.3170025 -0.08694182 0.17683041 -0.2815686
0000a0 2b 76 d5 3d e2 50 0c 3f 7c 82 29 bf 16 e4 cd bd
       0.104229294 0.5481092 -0.6621473 -0.100532696
0000b0 c3 62 24 bf e7 07 b6 be d9 6f f7 be b9 c6 e9 be
       -0.642132 -0.35552904 -0.4832752 -0.45659426
0000c0 27 6e 05 bf 0f ad 2f be da e7 13 3f 19 26 88 be
       -0.52121204 -0.1715586 0.5777565 -0.26591566
0000d0 7a cd cb 3d db fb 18 bd f2 4e 58 3e e1 e1 a0 bd
       0.09951301 -0.037349563 0.21123865 -0.07855583
0000e0 70 4c 33 be 03 e1 48 3c b8 6a 51 3e 27 97 10 bf
       -0.17509627 0.012260678 0.20450866 -0.5648064
0000f0 4b dd 34 bf 3b 62 8e be 20 64 1d be f7 3e 44 bd
       -0.70650166 -0.2780932 -0.15370226 -0.04791161
000100 39 26 86 bd 3e 65 52 3e 9f 4a ac 3c 6a 34 98 3e
       -0.06550259 0.20546433 0.021031676 0.2972749
000110 06 f5 63 be 02 a5 73 3d ac df 50 bd e8 ec 22 bb
       -0.22261438 0.059483536 -0.05099456 -0.0024860445
000120 96 04 b2 3e 5d 7d d4 bc 9f 29 85 3c e1 e8 1f bd
       0.34769124 -0.025938684 0.016255198 -0.03904045
000130 bb 7a f9 3e bc ee 35 3d e4 75 2b 3b 71 e5 b2 3d
       0.48726448 0.044417128 0.0026162798 0.08735169
000140 e5 48 49 3d 2d 49 82 be b6 9d 6c be 40 e1 31 be
       0.049141783 -0.25446454 -0.23107037 -0.17371082
000150 d2 9f 3a 3e 9f fb 3e be ab a2 af be e0 b3 35 3e
       0.18225029 -0.18650673 -0.34303793 0.17744398
000160 42 80 13 bd a0 63 24 3d 80 97 2b 3e a6 95 ae be
       -0.036010988 0.040134072 0.16757011 -0.34098548
000170 d3 fd a0 3e cd 68 b4 3d 82 df f1 bc bb ce 93 bd
       0.31443653 0.08809052 -0.029525522 -0.07217165
000180 b1 92 02 bf c8 19 5e 3d 25 e3 98 3d 50 07 3a 3e
       -0.51005083 0.054223806 0.074651994 0.18166852
000190 55 39 8f 3e 93 6c 5d bc a1 fa 9e 3e ec 3d 6f 3d
       0.27973428 -0.013514656 0.3105059 0.058408663
0001a0 f7 c2 55 be 2b ec 5e 3d 2c 49 25 be a2 89 9f bc
       -0.20875154 0.054424446 -0.16141194 -0.019474808
0001b0 ee 3f 74 be c0 06 ad be 8e 83 74 3d fb f7 92 bd
       -0.23852512 -0.33794212 0.059695773 -0.07176205
0001c0 14 33 2b 3e 1f bd 8d 3e ef 6f 15 3f e2 aa 0b be
       0.16718704 0.2768335 0.5837392 -0.13639405
0001d0 7e 61 93 be f4 14 a4 3e 2d 55 bb 3d e1 38 2a be
       -0.28785318 0.32047236 0.09147105 -0.1662326
0001e0 0c ac 5b 3e 63 04 4a 3e 12 4c 5b 3e 39 8e 02 3f
       0.2145235 0.19728236 0.21415737 0.50998265
0001f0 bf 93 2d be ab 05 0a bd 4a 1b 02 be 90 48 dd 3e
       -0.16950892 -0.03369681 -0.12705722 0.43219423
000200 ed 6e f1 bc dd ca 12 3c cc f9 0a 3e a7 28 64 be
       -0.029471839 0.008959499 0.13571852 -0.22281133
000210 d8 17 ab 3e 25 d9 31 3e 67 47 11 3e a3 5a 02 bf
       0.3341663 0.1736799 0.14187394 -0.5091955
000220 1e d6 8a be 58 e7 37 3e 5a da af 3e b6 98 05 3e
       -0.27116483 0.17959344 0.34346277 0.13046536
000230 4c 92 07 be ff 61 aa 3e 57 5c ac 3e 0a d3 f5 be
       -0.13239402 0.3327789 0.336642 -0.48012573
000240 88 f3 9f 3e 7e d3 9b 3e aa 46 98 bd d2 f4 a6 3d
       0.31240487 0.30434793 -0.07435353 0.081521645
000250 9f 66 e8 bd 21 14 91 bc 10 38 8d bd 4d 20 f3 bd
       -0.113476984 -0.017709794 -0.06895459 -0.11871395
000260 15 b5 54 bd e9 25 db be 34 6e 66 bd 8b 6a 5e 3c
       -0.051930506 -0.4280236 -0.05625744 0.0135752065
000270 63 f4 f2 bd 35 da 7a be 21 85 05 be a8 27 29 3e
       -0.11863019 -0.24497302 -0.13039066 0.16519034
000280 a8 b4 85 bc 0f 94 0f 3e 8d 58 8e bd b6 e9 94 3e
       -0.016321495 0.14021324 -0.069504835 0.29084557
000290 da 44 f1 3d c2 bd 7c 3e 65 58 94 3c 6b 48 9e be
       0.117807105 0.24681762 0.018108556 -0.30914626
0002a0 46 2b b7 bd a5 66 51 be d3 e0 58 3e 31 a9 42 be
       -0.08943801 -0.20449312 0.21179514 -0.19009854
0002b0 ef e1 d9 bd ab ef ae bd 28 fe e9 3d db d9 3b 3e
       -0.106387965 -0.08541807 0.114254296 0.18344824
0002c0 ca 48 93 be c9 cb e7 bd 02 6e 93 3e fd 0a cc bd
       -0.2876647 -0.11318166 0.28794867 -0.09963033
0002d0 93 44 01 3f f5 63 49 3e b5 5c ad be be 0e 58 be
       0.5049526 0.19667037 -0.33859792 -0.21099374
0002e0 0e 60 01 3d 48 1d 78 3f fb e0 53 be e8 3b e7 3d
       0.031585746 0.9691968 -0.20691292 0.11290723
0002f0 18 34 f1 3d 5a b3 4c 3e 16 a4 8e bc 00 31 72 3e
       0.11777514 0.19990292 -0.017412227 0.23651505
000300 ae 5a 77 bf 8d 3e aa 3d cb b8 21 bf 22 a5 b6 3e
       -0.9662274 0.08312712 -0.63172597 0.3567286
000310 d4 b5 83 be e5 19 4a 3d 69 37 83 3e da e4 1f 3d
       -0.2572466 0.0493411 0.25628212 0.03903661
000320 b5 e1 1d bf fd 89 4a 3e 3f e1 42 3f 73 3d fc 3d
       -0.61672527 0.19779201 0.7612495 0.12316408
000330 a1 f0 7b 3d 62 f0 0c bf 05 c2 8b 3e 45 77 d2 3d
       0.06150878 -0.55054295 0.27296463 0.10276655
000340 b6 82 86 3e c7 90 fe 3d 9f 6f 93 3f b9 db 24 3e
       0.262716 0.12429958 1.1518439 0.16099443
000350 df 6a 11 3f 63 ad 47 3f c1 2f 03 be 1d 8a cd bd
       0.568037 0.7799894 -0.12811185 -0.10036109
000360 86 13 25 3f 9c 73 6a 3f b0 89 1e be 1f 0d 4f 3e
       0.64482915 0.91582656 -0.15482211 0.20219849
000370 0a c9 8d be 08 14 33 be ef 83 d7 3c d7 72 fd 3e
       -0.27692443 -0.1748811 0.026308028 0.49501678
000380 19 11 7b 3d 29 2b 0f bf 12 a3 8b 3e 29 67 9b be
       0.061295602 -0.5592523 0.2727285 -0.30352142
000390 20 07 b9 bc bc 19 dc be ca 27 94 3d 38 f8 44 be
       -0.022586405 -0.42988384 0.07234152 -0.19235313
0003a0 da 34 0d 3c 29 cc 6a 3f b3 45 34 be 89 80 05 bf
       0.008618558 0.91717774 -0.17604713 -0.52149254
0003b0 5e 70 68 be 45 2a b7 bd a2 93 05 be 1e 87 05 bf
       -0.22699115 -0.08943609 -0.13044599 -0.521593
0003c0 b5 5c fe be 7b b6 39 3e e0 b4 82 3e 10 1f bb bd
       -0.49680105 0.18136017 0.25528622 -0.09136784
0003d0 7a 1b 27 3e f4 c5 b3 3d 05 72 2e be 42 17 ec bc
       0.16319075 0.08777991 -0.17035682 -0.028819684
0003e0 77 25 62 bf 68 8b 4c be 64 40 f0 3e d7 f7 c6 bd
       -0.88338417 -0.19975054 0.46924126 -0.097152404
0003f0 b4 7a 8a be 06 fc e7 3d 09 43 38 be 71 c7 d0 be
       -0.2704674 0.113273665 -0.17994322 -0.40777162

model.gru.bias_ih_l0 f4 [96]
000000 dc 97 14 be 7c 8c 24 3e e3 b5 d2 bd 56 41 37 3e
       -0.14511055 0.16069216 -0.102885984 0.17896017
000010 60 52 c1 3d 8b 6e a6 3d 72 fb d7 3d 96 42 9a 3d
       0.0943954 0.08126553 0.10546006 0.075322315
000020 04 3b 22 be f8 a2 24 3d e6 2d 04 3e fa e4 41 be
       -0.15842825 0.04019448 0.12908134 -0.18935004
000030 d0 ed 18 3c 81 3f df 3d 80 19 71 3d 4d fe 60 bc
       0.009334043 0.10900784 0.05886221 -0.013732505
000040 fa 0b 22 3d ee 56 76 3d 43 86 b1 bc 46 3b 30 be
       0.039562203 0.060141496 -0.021670466 -0.17210111
000050 82 05 30 be 88 18 d6 bd ac db 62 3e 99 b2 1c 3d
       -0.17189601 -0.10453898 0.2215411 0.03825626
000060 3e 92 e7 bd cc 75 a1 be f1 23 0e be 88 19 3f 3d
       -0.1130719 -0.31535184 -0.13880898 0.046655208
000070 97 99 0a be 6c 26 a9 be b9 dc aa 3e 41 cb 47 be
       -0.13535152 -0.33037126 0.33371523 -0.19511129
000080 74 da 26 bf 45 00 d4 be 8e 5c b9 be 68 b5 0f bf
       -0.65177083 -0.41406456 -0.36203426 -0.5613618
000090 53 a7 19 bf 62 77 02 bf fe bc 7c bf c4 86 6e bf
       -0.6002094 -0.50963414 -0.9872588 -0.93174386
0000a0 7e 54 0c bf d1 66 09 bf eb 40 08 bf 07 f3 36 bf
       -0.54816425 -0.5367251 -0.53224057 -0.7146458
0000b0 46 6f 81 bf de fd 9e be 61 a1 97 be 4a b2 b3 be
       -1.0112083 -0.3105306 -0.2961531 -0.3509696
0000c0 a2 45 50 3e 33 09 96 bd 8e 2c bc be 87 96 58 be
       0.20339063 -0.07325973 -0.36752743 -0.21151172
0000d0 0f b2 ac be 35 ea 9f be d1 62 d8 be f8 8c f7 be
       -0.33729598 -0.31233373 -0.4226289 -0.48349738
0000e0 c9 57 1a bf a3 df 46 bf a5 8d cb be 17 99 13 be
       -0.602902 -0.7768499 -0.39756504 -0.14413868
0000f0 33 32 4a be 14 62 dd be ca a6 df be ac 6d bc bd
       -0.19745712 -0.4323889 -0.43681937 -0.09200606
000100 df 16 12 3e c2 3d 92 3d a3 88 f2 bd be 90 7f be
       0.14266537 0.071406856 -0.11842468 -0.24957559
000110 3a 9a 36 bd 89 48 d2 bd 19 55 a1 3e 62 44 1a be
       -0.044580676 -0.10267741 0.31510237 -0.15065148
000120 9b 29 8d bc 62 5e 50 3e d2 7e a6 bc 80 47 3b 3e
       -0.017231753 0.20348504 -0.020324145 0.18288994
000130 0f a7 5d 3e 84 f5 ec bd 73 20 7c 3d 9b 67 4f be
       0.21645759 -0.11570266 0.061554383 -0.20254366
000140 ea 17 2a be bb 39 1f bd 1c 89 20 3e a2 1e 59 be
       -0.16610685 -0.038873415 0.15677303 -0.21203092
000150 e0 30 5f bd b6 1a 75 3d 63 7c 82 be e9 cf 7c be
       -0.05448997 0.059839927 -0.25485525 -0.24688686
000160 9d 04 20 be 7e 07 87 3e 31 67 c3 bd ee 8a c8 bd
       -0.1562676 0.26372904 -0.095411666 -0.09792124
000170 32 6e 77 be ed f3 98 be db 99 24 3d 4c 16 60 3d
       -0.2416313 -0.298736 0.04018579 0.054708764

model.gru.bias_hh_l0 f4 [96]
000000 75 ae 59 3d bb 20 98 3e 15 8e 12 bd c0 08 ca 3d
       0.05314489 0.2971247 -0.03578003 0.0986495
000010 28 99 17 be 55 2a ab 3d 2d bd 83 3e 32 ce b6 3e
       -0.14804518 0.083576836 0.25730267 0.3570419
000020 ae cf 50 be 08 91 14 bc e7 9b fd bd 13 01 5a be
       -0.20391724 -0.009067781 -0.12383252 -0.21289472
000030 02 da ac 3c ec 54 13 3e f6 ed 0b bc 0c bc a1 be
       0.021100048 0.14387864 -0.008540621 -0.3158878
000040 91 ab 82 3e 5d 6f aa 3d b7 db 14 be 3a 09 c6 bc
       0.2552152 0.08322022 -0.1453694 -0.024174321
000050 cd 45 26 3b 84 6d 72 be 79 9f 07 3e 35 1c b4 3a
       0.0025371194 -0.2367459 0.13244428 0.0013741317
000060 0a 4d ce bd fa 15 6c bd 85 b1 0b bd 05 5d 21 3e
       -0.10073288 -0.057638146 -0.034104843 0.1575814
000070 de ea 08 bd 29 6f 72 be 36 98 61 3e 72 19 22 be
       -0.03342711 -0.23675217 0.2203072 -0.15830019
000080 bd 1a 53 bf f5 55 2a bf 58 48 c7 be f6 89 f5 be
       -0.82462674 -0.6653741 -0.3892238 -0.47956818
000090 b6 ae 34 bf 53 94 20 bf 60 23 91 bf 62 5a 63 bf
       -0.7057909 -0.62726325 -1.133892 -0.8880979
0000a0 a8 20 15 bf 7b 46 ef be 21 cc d7 be 25 70 59 bf
       -0.58252954 -0.4673346 -0.42147925 -0.84936744
0000b0 90 3d 55 bf f6 44 1a be e6 b6 84 be dd 14 07 bf
       -0.8329706 -0.15065369 -0.2592079 -0.5276621
0000c0 6a 43 5d 3e 72 9d 9d 3d 3a 25 97 be e5 22 82 be
       0.21607748 0.07696046 -0.2952059 -0.25417247
0000d0 34 7d 03 bf 81 f0 19 be 68 5f a5 be 70 96 a4 be
       -0.5136292 -0.15033151 -0.32299352 -0.32146025
0000e0 89 20 b9 be 9a 33 65 bf 53 9c 94 be 60 b9 a6 be
       -0.36157635 -0.8953186 -0.29025516 -0.32563305
0000f0 3b 2e a7 be 18 60 fa be 3f 23 20 be dd 79 96 be
       -0.3265246 -0.4890144 -0.15638445 -0.2938985
000100 c9 5f 9c bd 3c 80 44 be c0 99 26 be 58 1f 33 be
       -0.07635457 -0.19189543 -0.16269588 -0.17492425
000110 00 69 b6 bd 33 d4 5d 3e 47 3f 56 bc 62 62 8c be
       -0.08906746 0.21662979 -0.01307661 -0.2741881
000120 8f b9 29 3d 5a 4b 2d 3e ab da 19 3e 6e 28 d2 bd
       0.041436728 0.16923276 0.15024821 -0.102616176
000130 4b c8 34 bf 16 b1 e4 bd e0 d5 54 bc ff 2b 95 3d
       -0.7061812 -0.11166589 -0.012990445 0.07283782
000140 b0 97 97 be ba 01 11 be 6e 08 8d 3e 02 0c 87 bd
       -0.29607916 -0.14160815 0.27545494 -0.06594087
000150 44 34 02 3e be 87 eb bd 21 17 8d bc 66 c8 d0 bd
       0.1271525 -0.115005 -0.017222943 -0.10194473
000160 3a ad a6 bc e5 d9 6e bd af 6f 99 be 75 21 9a bd
       -0.020346273 -0.05831327 -0.2996802 -0.07525913
000170 1f 57 f2 bd e7 ff 85 3a 30 25 91 3d df 34 15 be
       -0.11833023 0.001022336 0.07087171 -0.1457095

model.fc.weight f4 [4, 32]
000000 94 76 a7 3e 2b 52 1c 3f 1d 95 b5 be 1e a4 07 bf
       0.32707655 0.6106288 -0.35465327 -0.529848
000010 0c c5 a3 3e 9d 66 a7 3e 21 b5 f8 3e 3b 0a 0f bf
       0.31986272 0.32695475 0.4857569 -0.55874985
000020 14 c8 70 be f7 e7 03 3f e2 50 08 3f 94 59 ea be
       -0.23513824 0.51525825 0.5324842 -0.45771468
000030 db fb 91 3f 77 b7 68 3e d2 96 8e 3d 84 0d 19 3e
       1.1404985 0.22726236 0.069623604 0.14946562
000040 4c 1b 83 3d 91 8a 4f be 34 22 06 3f ec 27 15 be
       0.06401691 -0.20267703 0.5239594 -0.1456601
000050 a2 9b 43 3f 52 24 3c 3e bc fd 5b bf c2 7c 97 be
       0.7640935 0.1837323 -0.8593404 -0.2958737
000060 1e 93 82 3f a9 08 94 3d 1f 9f f4 be af 48 6c bf
       1.0201147 0.07228214 -0.4777765 -0.92298406
000070 7c 7d 4f 3d d1 29 cc bd 8b c4 10 bf 2c 3a 39 3d
       0.05065678 -0.09968913 -0.565499 0.045221493
000080 e1 f9 22 bf a8 2c 00 bf 8b fd ae 3d 6c 67 57 3f
       -0.63662535 -0.5006814 0.08544453 0.84142184
000090 12 aa 8e be 08 6b 3c 3e fd 24 d2 3e c0 54 9a 3f
       -0.27864128 0.18400204 0.41043845 1.2057114
0000a0 60 42 0f be 0d da 34 bf 5f 2d ad be e2 e9 22 3f
       -0.13990164 -0.7064522 -0.33823678 0.63638127
0000b0 16 e9 bf be 59 b9 3e bf b2 05 87 3e ba ec 36 3f
       -0.37482518 -0.7450157 0.26371533 0.71454966
0000c0 39 f8 20 bf cb 60 40 be 57 28 3d bd bb 3d 91 be
       -0.6287876 -0.18786924 -0.04618105 -0.2836741
0000d0 af ee 14 3e 44 09 93 be 8b 7b eb 3e 26 5a 86 3e
       0.14544176 -0.28718007 0.45992693 0.26240653
0000e0 c3 55 0e bc 93 d9 d0 3e 62 e0 0d 3e f8 e6 29 3f
       -0.008687439 0.40790996 0.13855127 0.66368055
0000f0 4e 0b f9 bd 68 24 68 3d ee 9d 47 3f dc 38 be bc
       -0.12160359 0.056675345 0.77975357 -0.023220472
000100 f5 48 2e bd bc 77 0b be 70 20 63 3e 93 6c 37 bf
       -0.042550046 -0.13619894 0.22180343 -0.71650046
000110 6b 63 be be 2a c6 71 bf 01 d1 3c 3f f1 1b f2 be
       -0.37185225 -0.94443 0.73756415 -0.47286943
000120 39 68 c1 be b0 ec 19 be d8 67 a2 3d 73 f6 1b be
       -0.37774828 -0.15031695 0.07929963 -0.15230732
000130 da e6 1b bf cb fc 6b 3e e7 a7 52 bf 7e e5 04 be
       -0.60899127 0.23045652 -0.8228745 -0.1297817
000140 35 5d 2a 3e 04 56 09 3e a8 3d 9f 3e c8 c2 f7 bc
       0.16637118 0.13411719 0.31101727 -0.030244246
000150 0e 0c 7f bf f4 32 b3 3d 23 7d b4 3e 63 d9 fd bb
       -0.9962777 0.08749953 0.35251722 -0.007746862
000160 f7 a2 37 bf a2 52 c0 be d6 15 ae 3e a0 bb d6 bd
       -0.7173304 -0.37563044 0.34001034 -0.104850054
000170 b6 44 28 bf 46 12 06 bf 2a 3d aa be ba b1 4c bf
       -0.65729845 -0.52371633 -0.3324979 -0.7995869
000180 4c 43 a9 3e 74 7c af be e4 dd d9 3e 80 00 14 3f
       0.33059156 -0.34274638 0.42552102 0.5781326
000190 79 7d cd 3e ca 19 14 3e a5 f4 9a bf 56 32 ff 3b
       0.4013479 0.14462963 -1.210591 0.007787983
0001a0 16 83 eb 3e 42 2c 05 3f 5d 55 08 be 8f f2 ea be
       0.45998448 0.5202066 -0.13313814 -0.45888183
0001b0 28 d4 8d be 4a 03 39 3e d1 95 63 3f 21 6d d4 be
       -0.27700925 0.18067661 0.88900477 -0.4148951
0001c0 24 43 73 3e 45 06 a0 3e d0 15 4e bf 45 09 20 3f
       0.23756081 0.31254783 -0.80502033 0.62514144
0001d0 55 5c 31 3e e6 ec 2e 3e e2 29 11 3e 99 55 92 3d
       0.17320378 0.17082557 0.14176133 0.07145233
0001e0 34 fd 36 be d3 d6 ae be 26 52 45 3e f1 1e 6f 3e
       -0.17870027 -0.34148273 0.19269618 0.23351647
0001f0 94 ec 10 3f 45 ec 22 3f 7a 94 b2 3b c5 bb 1e 3f
       0.5661099 0.6364177 0.0054498287 0.62005264

model.fc.bias f4 [4]
000000 fd 18 a0 3d eb 42 46 3d ce 63 da 3d c6 8b 09 be
       0.07817266 0.04840366 0.106635675 -0.13432226
