submissions/xingyi_yang_agent_hybrid.pth (torch, 141845 bytes, 9 tensors)

model.encoder.0.weight f4 [64, 10]
00000000: 1264 b63e 3817 2d3e 347c e73e 05ca 3b3e
00000010: 28f3 c7bd e4ed b23d 4435 533d 974d b73d
00000020: 2872 afbe 5064 c7bd 48e6 80be 8669 40be
00000030: e9ab 7d3d fd8f f53d 7321 2c3d 3323 803e
00000040: 8f28 f53c 9903 993e 96f1 8d3e be84 1abe
00000050: 4f59 083e a686 903a 9130 95be 7b39 4a3e
00000060: d16e 64bd cf35 893e dbc4 f53d 6532 f7bd
00000070: e76c 97be c0d5 78be 81f3 a23e 3356 993e
00000080: 3fc4 8e3d b067 c8bd 2f2f 993d 58b5 4dbd
00000090: a484 573e 6731 a83e f0ec 4c3e 18f1 e7bd
000000a0: e7e6 09be 7f45 6fbd e11d 13bf 2319 18be
000000b0: cb11 13be 0634 9fbc ec8d 843e 3185 64be
000000c0: dfec 743d c0b1 2b3e 7a65 ec3e 8b78 52bc
000000d0: 75b0 b03d 1a2b 3bbe 524c 0cbe 1ccb 44be
000000e0: 52f2 3bbe 3c5e 813e cc12 113d b62a 373e
000000f0: 55f7 8bbe 6e9f a63c 8a48 20be 8e34 c33e
00000100: df3d 943e b6d1 ea3d 702d 84bd 7d18 cdbd
00000110: af1a c73e 3d04 adbb 0fa9 803d 1405 17be
00000120: 48ed 333e b82a 8cbe 7521 313e 7c7b 78be
00000130: 3964 9ebe a8c4 8a3c 0b5d 84bd a1ce 7dbd
00000140: be57 a8bc 03f6 e9bd 33cb e93d 4c65 bfbb
00000150: a4a1 07bf 3407 04be 44e9 e53e 1333 e53d
00000160: 5d20 b23e cec5 3dbe 5d24 10bd def5 3c39
00000170: e4e0 023f b29c b6bc 79bb 95be a17f 4a3e
00000180: 5c99 523b 3125 133e 6dd8 4f3c 75e4 883e
00000190: 9279 8a3d f514 27be 1a5d 113e b39f 143e
000001a0: 316c 38bd 18d8 1e3d 2555 27bf 643a f43d
000001b0: dd24 723e 4431 113d 3f38 18be b442 50be
000001c0: 3ea2 f63e f207 5c3e 8851 883d 97a8 03bb
000001d0: 3450 443d d75e 44be 07ec f33e ffd9 8d3e
000001e0: 0d6d 1b3f d9b3 2f3e 43b9 e4ba 01a4 47bb
000001f0: 03f9 903e 34f8 1cbe 6488 433e 4a46 ad3e
00000200: 6723 60bd 0d6d ac3e bb29 70be 50ca c5be
00000210: 214a a03c 425b 4b3e ce36 823e 53a6 853b
00000220: 2d27 c93d a4b9 0cbe 9e1c 84be 7459 823e
00000230: 5414 943d 90f6 f1bc 234b 1bbf b5d7 64bd
00000240: 16ad 9ebc a9ce 323d f929 243e 4773 d4bd
00000250: 9034 b43e 88a2 133e edcc acbe 33e6 0cbf
00000260: 7bd6 07bf b72b 063e 7579 4fbd b927 073e
00000270: 6fd7 753d 21b6 5e3e 8fbd 893e 6aeb 353e
00000280: 5c80 5dbe c605 74bd 390f dcbe a25b f7bd
00000290: 4e20 02bd 97b3 ae3c 855b 7e3e 657e 5a3d
000002a0: 7298 123e abe0 0dbe 9b83 633e 674d 1d3d
000002b0: 0ec5 3c3c ec51 c13e b989 47bd 0e0f 8bbe
000002c0: 2a64 5cbf 7d65 65be e50f 023d e993 a23e
000002d0: 4d99 c23c 7679 213e 8034 623e fc98 0e3d
000002e0: 91c5 87be 9110 bdbe 50db abbe 856d a9be
000002f0: 26da 213e 2603 793e 88e7 9f3e 9492 85be
00000300: 2366 59be 14d7 28bd f9c0 5b3e 8c41 283e
00000310: 7cd7 4dbe 454c 853e 9664 833e 1a7e 6b3d
00000320: c179 a7bd 1268 963e 9115 103d 4e57 ef3d
00000330: 2222 ad3e 7272 c9bc 5c20 e3be f581 ad3d
00000340: 411e cf3e a352 8bbe 7469 acbe c13f b53e
00000350: f8e7 b93d ed09 dc3e 6f73 26bd 855b 7c3d
00000360: 9222 9e3d f8f8 5dbd e2ee dd3e 94cf d03e
00000370: ff4c 563e e7a0 b73e cc97 dcbc 8660 6ebd
00000380: b1d9 d63e 88e9 a1be 97b0 1fbf 4960 f2bd
00000390: 92d7 d13e 2e0a 763e af98 57bc b7f9 babc
000003a0: 6831 323c 3fa0 963d b166 58bf 8432 cdbe
000003b0: 604e 493e ce2d 163d 6a92 bb3e fd81 03be
000003c0: 937c 22be 33ef 4ebd acdb fd3e ab4b 803e
000003d0: a097 d33e 445e b33d dd4c f1bd 2d55 56be
000003e0: 847e dd3d b7fc 7f3d e9b1 a43e 16a2 913e
000003f0: f1dc d03e e1d1 5f3e d8cc 26be 3a95 19be
0.35623223 0.16903389 0.45211947 0.18338783 -0.09763175 0.0873678 0.05156447 0.08950346
-0.34266782 -0.0973593 -0.2517569 -0.18790254 0.061931524 0.11990354 0.042024087 0.25026855
0.029926566 0.29885557 0.27723378 -0.150897 0.13315319 0.0011026456 -0.29138616 0.1974849
-0.055769745 0.26798865 0.12000438 -0.12070159 -0.29575273 -0.24300289 0.31826404 0.29948577
0.06971025 -0.09785402 0.07479703 -0.05022177 0.21046692 0.3285019 0.2001226 -0.11325282
-0.13466989 -0.058415886 -0.57467467 -0.14853339 -0.14362256 -0.019433986 0.25889528 -0.22316433
0.05979621 0.16767025 0.4617117 -0.0128461225 0.086274065 -0.1827816 -0.13700989 -0.19218105
-0.18354157 0.25267208 0.035418317 0.17887387 -0.27337137 0.020339694 -0.15652671 0.38126034
0.28953454 0.114657804 -0.06453979 -0.100144364 0.38887545 -0.0052800463 0.06282245 -0.14748031
0.17570984 -0.27376342 0.17297919 -0.24265856 -0.3093584 0.016939476 -0.06463059 -0.061964635
-0.020549651 -0.11423876 0.1141571 -0.005840933 -0.5298102 -0.12893373 0.4490453 0.11191382
0.34790316 -0.18532488 -0.03519093 0.0001802067 0.51124406 -0.022291515 -0.29244593 0.19775249
0.0032134866 0.14369656 0.012685877 0.267368 0.06761469 -0.16316588 0.14195672 0.14514045
-0.045025054 0.0387803 -0.65364295 0.119252 0.23646875 0.035447374 -0.14865206 -0.20337945
0.48170656 0.21487406 0.06656176 -0.00200895 0.04792805 -0.19176804 0.47641012 0.2770538
0.60713273 0.1715845 -0.0017450232 -0.0030462744 0.2831498 -0.15329057 0.19094998 0.3384269
-0.054721262 0.3367695 -0.23453419 -0.38630915 0.019566597 0.19859031 0.25432438 0.0040786653
0.09821925 -0.13742691 -0.25803083 0.25458872 0.0723044 -0.029536515 -0.60661525 -0.055869777
-0.019369643 0.043654118 0.16031636 -0.1037355 0.35196352 0.1441747 -0.33750096 -0.55038756
-0.53061646 0.13102613 -0.05065294 0.13198747 0.060019907 0.21749164 0.26902434 0.17765585
-0.21630996 -0.05957582 -0.42980364 -0.120780244 -0.03176909 0.02132587 0.248396 0.053343195
0.14315966 -0.13855235 0.22218172 0.038403895 0.011521591 0.37757814 -0.048715327 -0.27159923
-0.8609034 -0.22401996 0.03175344 0.31753471 0.02375474 0.1576899 0.2209034 0.034813866
-0.2651792 -0.36926702 -0.3356576 -0.3309137 0.15805873 0.24317607 0.31231332 -0.26088393
-0.21230368 -0.04122074 0.21460332 0.16431254 -0.20101732 0.26034752 0.25662678 0.057493307
-0.081775196 0.29376274 0.035176817 0.11686574 0.33815104 -0.024590705 -0.44360626 0.08472053
0.4045277 -0.27211484 -0.33674204 0.35400203 0.09077448 0.42976323 -0.04063743 0.061610717
0.077214375 -0.054192513 0.43346316 0.4078337 0.20927809 0.35864946 -0.026927851 -0.05819752
0.4196296 -0.31623483 -0.6237883 -0.11834771 0.4098478 0.2402732 -0.013158961 -0.022824151
0.010876037 0.07354783 -0.84531695 -0.40077603 0.19658804 0.036664777 0.36635143 -0.12842555
-0.15867834 -0.050521087 0.4958166 0.2505773 0.41326618 0.08758214 -0.11782239 -0.2093093
0.108151466 0.062496867 0.32166985 0.28443974 0.40793565 0.21857406 -0.16289079 -0.14998332

model.encoder.0.bias f4 [64]
00000000: da3e 2e3e 7165 193d f7cf 8cbe 092d 5ebe
00000010: d7f9 343e ca12 b23d d857 503d e803 66be
00000020: 6ebd e73d c08d 4f3d 8872 cd3d b2b3 06be
00000030: 07b6 ebbd 502b a53e 7d1e d2bd 68e3 763d
00000040: 36e7 993e 5228 703e edd3 b43e 6d65 04be
00000050: 8616 8bbd b131 3abe 07b1 4fbb 7cd6 e3bb
00000060: 2b77 923e 20dd aa3e 89d2 fb3d 0ee0 753e
00000070: f890 b93e 8d02 9c3e 3225 fbbd 7fe8 bdbd
00000080: e9be dbbc ba6a c2bd 2fd5 533e 49a7 183e
00000090: d4e4 2f3e 4168 73bc 393c 32be d5ac a43e
000000a0: bbc7 ccbd e369 f63d 70ff cc3d 8491 e93d
000000b0: 54a3 473e 9ba4 573e 31ef 47be a0f4 38bd
000000c0: 6bce 773e 4b61 463e c5e7 343e 85bc d9bd
000000d0: 341b 33be c9d9 4a3c bf50 b43c 9062 b63c
000000e0: d003 48be 8b72 2d3d 4304 ae3d 70a8 7e3e
000000f0: 9506 ab3d 9672 e73d 3cfd 813e ade8 58bc
0.17016163 0.037450258 -0.27502415 -0.21696867 0.17673431 0.0869499 0.050865024 -0.22462428
0.11315428 0.050672293 0.10031611 -0.13154486 -0.11509328 0.32259607 -0.102597214 0.060275465
0.30059212 0.23452881 0.35317937 -0.12929316 -0.067914054 -0.18183018 -0.003169121 -0.0069530588
0.28606543 0.3337183 0.12296016 0.24011251 0.36243415 0.30470696 -0.12262954 -0.09272861
-0.026824431 -0.09493013 0.20686792 0.14907564 0.17177135 -0.014856399 -0.17405786 0.3216311
-0.09999033 0.12031915 0.10009658 0.11404708 0.19495898 0.21058886 -0.19524838 -0.045155168
0.24199836 0.19373052 0.17666538 -0.1063166 -0.17490846 0.012381026 0.022011159 0.022263795
-0.19532704 0.042345565 0.084969066 0.24868941 0.08350865 0.113011524 0.25388515 -0.013239068

model.lstm.weight_ih_l0 f4 [256, 64]
00000000: 3533 c63d dbd2 3cbd 5ac6 c2bd 740c 95bd
00000010: a04a d63d 4e26 e23b d5ea 053d 6090 163d
00000020: 759c d33c 367d 383e 0351 623a 3fea b13c
00000030: 9ba8 fa3c 4092 733e 6e6c a73c ba1e 08bd
00000040: 49a4 75bb 2493 613e eb92 003e 26db 9abd
00000050: 1c7d d03c 5dba 263e 05d9 2fbb 26c8 793b
00000060: 5c2d 813e 6170 323d 6641 873e d231 a73d
00000070: f615 283d 274c 0e3e 1980 d1bc 53f6 8f3d
00000080: 4865 503e 7abf 983d 544c 7bb7 6b00 dd3d
00000090: 8384 493d 04f8 3e3e 0c93 8f3e 1e37 193e
000000a0: 531c 1d3e 5a15 543e 15c9 893c 3eaa 5d3e
000000b0: d6d3 bb3d e8d6 783e 3ffd 37be 624c 823d
000000c0: 65e0 1c3e cf7d 613e 8d0e 563e bc30 873d
000000d0: e5d4 c83c ecfe 623d d7a3 22bd 248e c43c
000000e0: 8b8b b6bd cbf1 6f3d 928f 3b3e cce9 173e
000000f0: 2931 863c d557 293e b873 4d3e dd2c 493d
00000100: b100 f8bc 3aa6 4fbc 0072 843c 81ba e43d
00000110: 683f b73d fd67 b7bd dfdd 4e3e e416 773d
00000120: 367e 843d 26c7 01bc ce93 ef3d 194f 273d
00000130: 55ec 36bd 8b37 523d 67c6 d6bd 5cf2 323e
00000140: a04a d83d ad56 adbd 04d8 0cbc aa97 0a3e
00000150: 38a7 6dbc a012 8fbc e280 d83d f4bf bdbd
00000160: 6a81 d63d f226 943d ca55 56bd e809 65be
00000170: 1574 05be 2c68 34bc c131 2dbd ed7b 3f3d
00000180: 4aae 163e ff88 9f3d 09db 50bd d36e ae3b
00000190: a9a4 a3bc dbb0 bdbc 8610 aebd ecf4 813e
000001a0: 5fab cdbd 4d71 6bbd f764 ca3d 380f 833d
000001b0: 46b0 ae3d d411 1a3e c43b ea3d c017 54bd
000001c0: 16d0 6bbd 4c10 b4bd 0ca0 8bbd d277 413e
000001d0: 6ae7 89bd 6bfa 56bd 7002 b1bd 6fd2 9c3d
000001e0: c5e6 2a3e 0bdc bc3d b415 22be 6d9d 0f3d
000001f0: 060d 1c3e ea0d 023e 3877 4e3d ef00 99bd
00000200: 1d0b e83d 4e4d 053e 3897 6ebd 7e1a 57be
00000210: 05ca 5e3e ae84 3a3e f3a0 88bd 5a47 8dbb
00000220: 895a 543e 28ab 933d 8da5 013e 4bb4 1fbc
00000230: 15e5 e83d 055e 103d 5943 c63d 325f 553e
00000240: ba57 893d ccb0 04bd b1ef 173d d769 9ebd
00000250: bdc3 2cbd a988 b43d d349 f0bd aae5 9f3e
00000260: 379b 123e 8196 1a3e c28d 0abd 74a6 783e
00000270: 2d18 123e abbc 7a3d 6d0a d53c e57b f63d
00000280: 4ba1 6a3d 3bc5 e73d 3a20 733e fefd 943d
00000290: ab0e 413e 6181 96bd 20c0 0dbd 37a6 3c3e
000002a0: 518f 86bd af96 993e e8b5 1a3d c807 113e
000002b0: 41e8 39bd e968 13be ca29 c73d 9ac3 c63d
000002c0: d068 943c 8e2a 473d 16bb de3d 022d fbbd
000002d0: f088 9bbc 7ad3 62bd 03ea fe3c 5573 9d3c
000002e0: fca8 333c a222 c7bd 4036 023e 9aaf b5bc
000002f0: e9c5 0d3e ec59 953b 480a 4fbc 5ac6 2a3c
00000300: 41c8 3d3c 694e 18be e08e 7b3d 82a6 a5bd
00000310: c39c cbbc 40e0 cb3c 3a43 24be 7765 a33d
00000320: a719 ab3d f2a2 983d 30d8 3d3d 9a59 083e
00000330: 050f e5bd d8f7 f53d 3497 ecbd 1794 cdbd
00000340: fd9b 19be 39ae 8d3c b58d 3b3e f281 e8bd
00000350: 57e4 4abe 9d4f c83b 8f4f a13d fd00 49bd
00000360: b09a 5ebc 515a 163d eff1 203d 8d98 5a3e
00000370: add5 4d3c cbcb ce3c 323a 50be 123f 31bd
00000380: 2b84 013e ab52 a93c 8791 fd3d 6521 a83d
00000390: ffb3 803d 259f f2bd 7910 393d 9b09 333a
000003a0: bcac b53d af69 bcbd 8ed1 b53c a272 9d3d
000003b0: caec 90bd 7013 84bd 3dee 8dbd 5a4d a9bd
000003c0: a8b9 123d 18a6 9c3c 43b0 823e f50b 1cbe
000003d0: 0e25 36bd 351f 943d 2603 ab3d 0886 7fbd
000003e0: 50ae abbe e38c 03be 9a51 ad3a fb8a 90bd
000003f0: 4598 a8bd 9079 f23c 0e2e fcbb d5f2 543d
0.09677736 -0.046099525 -0.09510489 -0.07277766 0.10463452 0.006901539 0.032694656 0.03675878
0.02583144 0.18016514 0.00086332875 0.021718143 0.030597975 0.23786259 0.020437445 -0.033232428
-0.0037481955 0.22028786 0.12556045 -0.075613305 0.025450282 0.1628203 -0.0026832235 0.0038113683
0.2522992 0.043564204 0.26417083 0.08163799 0.04103657 0.13896237 -0.025573777 0.070294045
0.20351136 0.07458396 -1.4978537e-05 0.10791095 0.04919864 0.18649298 0.28041875 0.14962432
0.15342836 0.2071127 0.016819516 0.21646973 0.09171264 0.2430073 -0.179677 0.06362225
0.15319975 0.22020648 0.20903988 0.06601092 0.024515579 0.055418894 -0.03970703 0.02399356
-0.089133345 0.0585802 0.18316486 0.1483528 0.016380863 0.16537412 0.20063674 0.04911505
-0.030273767 -0.012673909 0.01616764 0.11168385 0.08947641 -0.08955381 0.20201825 0.060324565
0.06469385 -0.007921016 0.116981134 0.040846918 -0.044658978 0.0513225 -0.10487061 0.17475265
0.105611086 -0.08463798 -0.008596424 0.13534418 -0.0145052 -0.017464936 0.105714574 -0.09265128
0.104739025 0.07233991 -0.05232791 -0.2236706 -0.13032563 -0.011011165 -0.042283777 0.046749044
0.14714924 0.07789802 -0.05099014 0.00532327 -0.019975977 -0.02315562 -0.08499245 0.25382173
-0.10042452 -0.0574811 0.09882539 0.06399387 0.08529715 0.15045863 0.11437181 -0.051780462
-0.057571493 -0.08792171 -0.06817636 0.18893364 -0.06733592 -0.05248491 -0.08643043 0.076573245
0.16689594 0.09221657 -0.15828592 0.035062242 0.15239343 0.1270062 0.050406665 -0.07470881
0.11330245 0.1301777 -0.058249682 -0.210062 0.21756752 0.18214676 -0.066713236 -0.0043114843
0.20737661 0.0721038 0.12660809 -0.009747575 0.11371819 0.035245914 0.09680814 0.20837095
0.06706186 -0.03239517 0.037093822 -0.07735031 -0.042178858 0.08815128 -0.11732831 0.31229907
0.14317022 0.15096475 -0.033826597 0.24282247 0.14267035 0.061215084 0.026005948 0.1203535
0.057282727 0.113169156 0.23742762 0.07275008 0.18853252 -0.07348896 -0.034607053 0.18422781
-0.06570304 0.29997775 0.037771136 0.14163125 -0.04538751 -0.14395489 0.097247675 0.09705277
0.018116385 0.048624568 0.108755276 -0.12264444 -0.018986195 -0.05537746 0.031117445 0.019220034
0.010965582 -0.097234026 0.12716007 -0.02217846 0.13845028 0.0045578387 -0.012636729 0.010423267
0.011583389 -0.14873661 0.061415553 -0.080883995 -0.024855023 0.024887204 -0.1604127 0.07978337
0.08354502 0.07452954 0.04634875 0.1331543 -0.111845054 0.12010163 -0.11552277 -0.100380115
-0.15000911 0.01729499 0.18315776 -0.1135291 -0.19813667 0.0061130063 0.07876503 -0.049073208
-0.013586685 0.036707226 0.039293226 0.21347256 0.012563151 0.02524366 -0.203347 -0.04327304
0.12648074 0.020669302 0.12381273 0.082094945 0.062843315 -0.11846761 0.045181725 0.00068297394
0.08870837 -0.09199845 0.02219465 0.0768788 -0.07076414 -0.0644902 -0.06930206 -0.08266707
0.035821587 0.019122168 0.25525102 -0.15238936 -0.04446893 0.07232515 0.0835021 -0.06238368
-0.33531427 -0.12846713 0.0013223172 -0.070577584 -0.08232168 0.029598981 -0.00769592 0.051989395

model.lstm.weight_hh_l0 f4 [256, 64]
00000000: 3100 48bd c1bf 92be 4f96 1ebd 1a80 f73d
00000010: 0ad1 2abd 5e12 e23d bd2b efbc 1946 573d
00000020: 06e0 90bd 693d 5b3e 26fd d63d ffe8 33be
00000030: da67 03be 2465 68bd 39f9 66be d643 cb3d
00000040: 7145 67bd bd43 283e 2262 ec3c d4a3 043e
00000050: f71f 223d 980d a338 bce8 4bbe 60a6 fe3c
00000060: b8e8 37be b7b0 9dbd 00f6 c73d 97f1 aa3c
00000070: 07d1 c7bd 7b43 29bd 1629 b33d 629c a3bd
00000080: 534f f63d 58d9 2ebe 5328 2dbe 8a70 f8bd
00000090: 35bd f3bd eaae 2cbe 96af 1bbe 86e6 1f3c
000000a0: 3319 573e b6f0 1d3c 42d8 8e37 434e c7bd
000000b0: 9f8a f63c d9e9 833e 1f31 fabd 43dc 913d
000000c0: 80ac 80bd ce22 c83d 6a90 183d 2a68 1d3c
000000d0: 1742 753c 2241 e5b9 8998 c1bd ecef a1bd
000000e0: e4e5 8cbe a3b4 52bd 47c1 813d 639b 773d
000000f0: d709 cf3d 9283 acbd 06bf ff3d 7a12 afbd
00000100: cdcc c6bd 55b7 29be 86a3 e13d 8282 283d
00000110: c76c 383d fe53 1c3e a6e1 763c 5cc9 0fbd
00000120: 810e 5c3d 59fb 723d 9dd3 9abc 4e35 90bc
00000130: 4f6a 80bd cdd5 283d 2bb6 b9bd 3210 e23d
00000140: 843f e0bb 6ae5 fa3d 247f c03d ab41 95bb
00000150: 5b20 cf3d df3c ea3d 238f 63bd 47c8 1fbd
00000160: 8776 fdbc c4c5 3f3d 2fb0 0f3d 5732 043d
00000170: 6f53 01bd e94f 07be 6b1e 8b3d 0afd 713d
00000180: 0775 113e b500 56bd 36b4 7dbd a079 193c
00000190: 84d4 31be 0034 14be a91a 84bd b522 d43d
000001a0: 14a8 23bd 40f7 a53d 14e2 0abd 08e6 9e3d
000001b0: 8004 d43d 4ad8 8d3d 454b 1c3c a93c bd3d
000001c0: d708 7d3d 6717 823c 3312 3e3d e8a0 02be
000001d0: f128 d83d 1926 9fbd 1d5d a7bd 8a86 6f3c
000001e0: 1dd4 fdbd 10bc 16be b7fd 4abd fe3d 98ba
000001f0: c2e8 233d 6e9e f63a 625c 29bd 78f2 963c
00000200: 0600 b1bd 11c0 6ebe 566c b8bd 02e6 a33d
00000210: baee c53b 74ee eb3d 028e bcbd cb75 8ebc
00000220: ab41 47be af1a d23d 6fc8 a43d b30b 53be
00000230: 84dd b83c b2c0 6c3d 4247 32be ce4c 85bd
00000240: 6836 a13c fe75 073e f80e 86bc e41c 04bc
00000250: fe73 0e3e c9ec 7f3d 1ca2 b4bd 22b3 48bd
00000260: 4839 013c 3adc 133d 9845 ec3d 0679 013e
00000270: c167 c1bb 1627 ad3c b6ff 6d3d 3711 8cbd
00000280: cd02 0e3e b6a3 0ebe 8d4e 48be 8592 31be
00000290: 98c3 a9bd 1e35 a0bd eb8a 1f3d ddac 4d3e
000002a0: fcd0 393d 73c7 b9bc d72a f33d 44ef 92bd
000002b0: b596 223d da4d 5f3e 0352 8ebd 8082 43bb
000002c0: 6f77 8dbd a6c5 b93d 160d b5bc c31c 993c
000002d0: 8723 5e3e c2da cdbd 3dcf 07bc 6548 9a3c
000002e0: 83d4 fc3c 4dc1 24be 2040 983d 2f71 773d
000002f0: 333a f83d d58d 8b3d d859 323e 2074 efbd
00000300: 12ed c43d cda1 833c 2904 003d b52d 943c
00000310: 07cd 963d 989e 1f3e a300 90bc e711 143e
00000320: af4d bcbb 4e42 3d3e 5010 c1bc add0 00bd
00000330: 16c4 bd3c 1342 bd3d 911d 89bd 3205 723d
00000340: 66d9 a43c 174f e73c 73f7 5c3c 31e9 d63d
00000350: 2547 ecbc dfdd 41be 427e 4f3d d729 863d
00000360: c200 1bbe 72ec 00bd 3a1f f83d 24a4 c33c
00000370: 4367 e1bb c7e4 793d 134b 33bd 7dbe 15bd
00000380: d437 d63d a197 8cbc 4b81 37be 0458 12be
00000390: 1800 76bd 37f6 91bd d28e f6bd aa81 81bc
000003a0: f28c 153d 5965 b53d 9bec 033e 81da 7bbd
000003b0: 6744 353e 1734 d5bc 9c28 8f3b 2570 a93d
000003c0: d31f f4bd a338 053e 33f7 bcbb e1d8 f43d
000003d0: a14e bf3c 96b4 6dbd 6470 4cbd 4ca8 fcbd
000003e0: 73fa 433a 4bb1 1fbe 2d1f 95bc 612f ab3c
000003f0: bd62 b63d 3834 8d3d 8e1c d13d b194 32be
-0.048828308 -0.28661922 -0.038717564 0.1208498 -0.04170326 0.110386595 -0.02919566 0.052557085
-0.07073979 0.21410145 0.10497503 -0.1756935 -0.12832585 -0.05673708 -0.22556008 0.09925048
-0.05646271 0.1643209 0.028855387 0.1295312 0.039581265 7.774978e-05 -0.19913 0.031085193
-0.17959869 -0.07699721 0.09763718 0.020867152 -0.09756666 -0.04132412 0.08748071 -0.07988812
0.12026849 -0.17075098 -0.16909914 -0.1213084 -0.11901323 -0.168636 -0.152037 0.009759551
0.21005706 0.0096399095 1.7028422e-05 -0.09731724 0.030095397 0.2576435 -0.122164 0.0712209
-0.06282902 0.097722635 0.0372471 0.009607354 0.01496937 -0.0004372681 -0.09452922 -0.079070896
-0.27519143 -0.0514418 0.06335693 0.060450923 0.10109299 -0.084235325 0.12487607 -0.08548446
-0.097070314 -0.16573842 0.11017518 0.041140087 0.045025613 0.15266415 0.015068447 -0.03510414
0.05372477 0.059321735 -0.018899733 -0.017603543 -0.06270277 0.04121952 -0.09067949 0.11038245
-0.006843509 0.122507885 0.0939925 -0.0045549474 0.10113593 0.114373915 -0.055556428 -0.03900936
-0.030940307 0.046819463 0.03508013 0.03227457 -0.03157371 -0.13214077 0.06792911 0.059079207
0.14204799 -0.052246768 -0.06193944 0.009367377 -0.17366225 -0.14472961 -0.064503975 0.10358182
-0.039955214 0.081038 -0.03390701 0.07758719 0.10352421 0.069260195 0.00953943 0.09240086
0.06177601 0.0158803 0.046404075 -0.12756693 0.10554684 -0.077709384 -0.08172057 0.014619479
-0.12393973 -0.14720178 -0.049558368 -0.0011615155 0.040016897 0.0018815526 -0.04134787 0.018426165
-0.086425826 -0.23315455 -0.090050384 0.08002855 0.0060404213 0.11520091 -0.09206773 -0.017390152
-0.19458644 0.10258996 0.08046042 -0.20609932 0.022566564 0.057800956 -0.17409995 -0.0650879
0.019679263 0.13228604 -0.01636456 -0.008063529 0.13911435 0.062481675 -0.088199824 -0.04899896
0.007887192 0.036098696 0.115367115 0.12643823 -0.005902261 0.021136802 0.058105193 -0.06839221
0.13868256 -0.13929638 -0.19561215 -0.17341049 -0.0828926 -0.07822631 0.038950842 0.20085473
0.04536532 -0.022678113 0.118734054 -0.071745425 0.039694507 0.21807042 -0.06949236 -0.0029832423
-0.06907546 0.090709016 -0.022100966 0.018690472 0.2169324 -0.1005149 -0.008289156 0.018833349
0.030863052 -0.16089363 0.07434106 0.060410675 0.121204756 0.06814162 0.17417085 -0.11692071
0.0961553 0.016068364 0.031253967 0.018088201 0.073633246 0.15587842 -0.017578429 0.14459954
-0.0057465653 0.18482324 -0.023567349 -0.03144901 0.02316479 0.09241118 -0.066950925 0.059086986
0.020123195 0.028235955 0.013486731 0.104936965 -0.028842518 -0.18932293 0.05065752 0.06550949
-0.15137008 -0.03147549 0.12115331 0.02388198 -0.006878765 0.061009195 -0.04377277 -0.036558617
0.10459867 -0.017162146 -0.17920415 -0.14291388 -0.060058683 -0.0712704 -0.120389596 -0.015808899
0.03651137 0.08857221 0.12883227 -0.06148768 0.17701875 -0.026025815 0.0043688547 0.08273343
-0.119201325 0.13009886 -0.005766773 0.11955429 0.023352923 -0.05803355 -0.04991187 -0.123367876
0.00074759795 -0.15594976 -0.018203342 0.020896615 0.089055516 0.068947256 0.102105245 -0.17439534

model.lstm.bias_ih_l0 f4 [256]
00000000: 2a0b a83d 7709 0c3e 3f34 0a3e 05bb 31bd
00000010: 6aea fbbb 023f 37bd 4d97 903e 7dd2 c43d
00000020: 98ec e13d 56ae 253e 6554 183e 2b79 293e
00000030: b6c2 7c3e cd40 353c a133 963d d175 c73d
00000040: d7f9 fd3c c83f 373e 217c 4e3e 3835 233d
00000050: c16a dc3d ddbe 763e 942a d4bb 97bc 2a3e
00000060: 050b 283d c1ab 2b3d e6fa a53e 9791 173e
00000070: 5b12 a73e f894 a73e 2285 0f3e 6983 303e
00000080: 7639 f03d 8a95 063e 3eca 20bd d3d9 473e
00000090: 3558 733d 8669 4a3c fade 4a3e 1bbe 043e
000000a0: 1b1b 6c3e fcf9 553e 5552 a93e 9dd4 453e
000000b0: e88c fb3d ad47 bb3d 91d7 8c3d 3108 723c
000000c0: 7ade 8d3e 90fd b93d e1ac 513d ef19 5a3d
000000d0: f73e 2b3e 9c96 283e a505 493e 8b0e e93d
000000e0: 2709 8ebd de75 ad3d 1fc4 503e 6d9b 033e
000000f0: 17d6 3e3c 4851 713e 2b2a 153b c17b 893e
00000100: aea9 a6bd fc61 683d d34e bbbd 9e86 e83d
00000110: 349c 73bd 42ec 33bd 62f7 803d 31d6 2dbc
00000120: 6949 483c fb6a f7bd ef4a e53c 26e0 673d
00000130: 9a4a ecbd 8149 5c3d f936 ff3d 746a 68bd
00000140: 8207 62bb dbbe 1ebd c0b7 833d 7827 e93c
00000150: a9d8 fc3d 1460 eb3c 6d3f 173e cd29 e93c
00000160: c36d dfbd 13de e9bc 94b4 d2bd 825a a5bc
00000170: bc00 76bd e21b a3bd 9585 0abd ccf8 c8bd
00000180: 8b15 fb3d 8863 debd 9c02 76bd bfe5 54bd
00000190: 2096 3f3e 1b48 2e3d e6c1 dd3d 41e4 c3bd
000001a0: edfc 4d3d 9b74 bcbd 45fe de3d 87b4 ba3d
000001b0: 67f5 a5bd 45d9 373e 13ca ab3d 29cb 033e
000001c0: a22a 263c 6890 73bd b9f3 e43d 7985 b5bc
000001d0: cd2e da3d ded0 f33d a42f c53d 4f61 9cbd
000001e0: c13d 223e abc0 6cbd 4436 2abd 875b 76bd
000001f0: 46b6 ec3c 7353 f1bb 81f4 963d 6d3d 03bd
00000200: 9bb2 20be 632f 90bd 9e83 d83c 2353 7b3c
00000210: 5e85 7e3d 9903 82bd 261d 3a3c 216c 973d
00000220: 8367 d4bd 6413 0dbc fd2c bc3d 90ff f2bd
00000230: cbf5 d9bd d3bd 863d 24e9 05be 7923 903d
00000240: 1717 b1bb 1875 b03d 8023 3fbc 2211 2ebc
00000250: 70ab 003d aad3 723b a848 50bd 4293 4ebd
00000260: 5b97 6bbd 6b85 d9bd 39d1 e33d 0ecd d6bd
00000270: cf59 97bd fa4a dc3d d2f2 99bb a7ca 433d
00000280: 6742 6dbd 6a39 48bc 759d 05bd 0901 b6bd
00000290: dcd6 38bd a38e b7bd b9eb 31bd 1776 6e3c
000002a0: 5f0c 043d adcb 7dbc 3b1b 653d 4fc3 babd
000002b0: a5a8 073e 7f5a b53d e155 e1bd b94b 14bd
000002c0: f2c2 0b3c 11b8 43bd 6088 4a3d d011 7ebd
000002d0: 3b35 423c c6b6 16bd 991e d83d 5520 4ebd
000002e0: 583b dbbd f4f7 86bd 6403 fabc 2c6d 5c3d
000002f0: d517 e23d 1d5a 5e3c 8363 833d 21e4 85bd
00000300: 404e 283e 431d a33d ea1e f53d 4af9 8b3c
00000310: 751a a0bd 1240 f23d c5d7 1e3e 6bbc 3f3d
00000320: d1e3 493d 7f72 3fbd 84e2 8f3e 3b79 853d
00000330: 8a36 103e 7447 68bd e63c 98bd 8a8e 193e
00000340: fdb6 1c3e a85b 993e 4cd7 443e 0169 203e
00000350: 7193 d63d 59fd 3b3e c00d 95bc 8d7c a03e
00000360: a368 b93d 1c05 9f3d a5b3 8b3e 9158 1b3e
00000370: d42d 5a3e de52 9a3e b066 723d 23f4 3d3e
00000380: eeb7 833c 78c2 9c3d 1c96 803d 53f1 f93d
00000390: b9e8 993c ce97 4e3e 574b 553d a458 873e
000003a0: bcec 693e adc8 2c3d d471 9f3e 5797 2f3e
000003b0: 7e67 813e f552 ff3d 1a8d 4e3d 0c88 943c
000003c0: ac57 5f3e 6464 033d b360 d33d 4ab7 133e
000003d0: 89d4 93bc 6152 f73d 36b5 4c3e 83d1 c5bd
000003e0: 94af df3d c124 8fbd b8fd e13d 2f9c eebb
000003f0: 27f9 ecbc 3560 693e 23c2 f03b 8e58 bebb
0.082052544 0.13675486 0.13496493 -0.043391246 -0.0076878564 -0.044737823 0.28240433 0.0961046
0.11031455 0.16179785 0.14875944 0.16550128 0.24683651 0.011062813 0.07334066 0.097392686
0.031002922 0.17895424 0.20164539 0.039845675 0.10762549 0.24096246 -0.0064748023 0.16673504
0.041026134 0.041911844 0.32417983 0.14801632 0.32631192 0.32730842 0.1401563 0.17237629
0.1172971 0.13142982 -0.039255373 0.19516687 0.059410293 0.01235426 0.19811621 0.12963144
0.23057215 0.20896143 0.33070627 0.19319387 0.12282735 0.091445304 0.068770535 0.014772461
0.277088 0.09081566 0.05119026 0.05324739 0.16723238 0.16463703 0.1963106 0.11379727
-0.069353394 0.08469747 0.20387314 0.12852259 0.011647723 0.23566163 0.002276073 0.2685223
-0.081378326 0.05673407 -0.09145894 0.11353801 -0.05947514 -0.043926485 0.062971845 -0.010610149
0.012224534 -0.12080952 0.027989833 0.05661025 -0.115376666 0.053781036 0.12461657 -0.056742147
-0.0034489338 -0.038756233 0.06431532 0.028461203 0.12346012 0.028732337 0.14770289 0.028462315
-0.10909607 -0.028548276 -0.10288349 -0.020184759 -0.060059294 -0.079643026 -0.0338188 -0.09813079
0.12259968 -0.10858828 -0.060061082 -0.051976915 0.18709612 0.042549234 0.10827999 -0.0956502
0.050290037 -0.09201928 0.10888342 0.09116464 -0.081034474 0.17953975 0.08388152 0.12870468
0.010142 -0.05946389 0.11179299 -0.022158371 0.10653458 0.11905073 0.09628227 -0.07635748
0.1584387 -0.05780093 -0.041555658 -0.06014588 0.028895508 -0.0073646843 0.07370854 -0.032041002
-0.15693133 -0.07040288 0.026429947 0.015339646 0.062138908 -0.063483424 0.011359489 0.07393671
-0.10371306 -0.00861058 0.09188268 -0.11865151 -0.106425844 0.06579175 -0.13077217 0.07038016
-0.005404364 0.08616084 -0.011666179 -0.010624202 0.031413496 0.003705243 -0.05085054 -0.050433405
-0.05751739 -0.106211506 0.111238904 -0.1048833 -0.073901765 0.10756488 -0.004698136 0.047800686
-0.057924654 -0.01222072 -0.032620866 -0.08886916 -0.04512678 -0.08962753 -0.043437693 0.014554522
0.03223836 -0.015490455 0.055934172 -0.091192834 0.13247927 0.088551514 -0.11002708 -0.036205027
0.008530365 -0.04778296 0.049446464 -0.062028706 0.011853511 -0.0367954 0.10552711 -0.050323803
-0.10704678 -0.06590262 -0.030519195 0.053815052 0.11039702 0.013571289 0.06415465 -0.06537653
0.164361 0.079645656 0.11968787 0.017086644 -0.07817546 0.11828627 0.15511997 0.04681055
0.04928953 -0.04674005 0.28102505 0.065172635 0.14083305 -0.056708768 -0.074334905 0.1499578
0.1530418 0.2995274 0.19222754 0.15665056 0.10477341 0.18358363 -0.018195033 0.31345025
0.09053161 0.077646464 0.27285495 0.15170504 0.21306545 0.30141348 0.05917996 0.18550162
0.016078915 0.076542795 0.06278631 0.12204232 0.018787729 0.20175096 0.052073803 0.26434815
0.22844213 0.042183567 0.3114153 0.17147575 0.2527427 0.12466995 0.050427534 0.018131278
0.21810788 0.03207816 0.10321178 0.14425388 -0.01804568 0.120762594 0.19991001 -0.09659102
0.10922161 -0.06989432 0.11034721 -0.007281802 -0.028927399 0.22790606 0.0073473617 -0.0058088964

model.lstm.bias_hh_l0 f4 [256]
00000000: 53f7 703e 2ee8 0f3b e4e6 093e 16dc 04bd
00000010: a019 a03d 1756 0c3e 275a 033e 4d6e a73d
00000020: 3968 3c3e 2cbe 063d 2732 4b3e 15c2 4c3e
00000030: 6799 4c3e 0872 84bd 1355 0f3e a6ba 893e
00000040: 98a4 e63d dfae 1b3e 9010 133d 5c56 733e
00000050: 92f8 49bd b5d0 043e 3b23 f2bc 481d 8a3e
00000060: c394 603e 3ae4 b1bc 9f78 723e baec e83d
00000070: 272e e53d 7c8e ab3e 6f38 913d 73de 6a3e
00000080: 766d 493e 234a da3d 0be0 5e3c b255 803e
00000090: a689 293d cb49 f33d c8ee 043c b9f9 a63e
000000a0: b303 bb3d 8378 e23d dfdd 6d3e ded4 f63d
000000b0: 7900 8b3e 8f7f 02bd 2803 233e d619 313d
000000c0: 5715 033e 6be6 213e b743 593d 28f2 813e
000000d0: 9650 e03d de18 ee3d 5421 483d 5993 6cbd
000000e0: e70e d93d 3d2a 6fbd 2790 2a3e de8d dc3b
000000f0: 6321 ae3d 37b2 153e 428e e43d 9f37 803e
00000100: 6210 c739 20c7 713d 9376 ee3d ecff 4e3d
00000110: 259e 8d3d c7c9 8c3b 01e3 07bd a9c5 dc3d
00000120: 665e d6bb d5db d33d e2ca 023d c558 f7bb
00000130: d22e 9b3d e968 283d 945a d63d 1b6b 02bc
00000140: 389a fe3d f820 e1bd 3319 8dbd 0018 99bd
00000150: 4723 8abd a0f9 f4bc 7b90 43bd ef7f f53c
00000160: f703 8c3d 96f2 603c 567d c73d 5ff2 8e3d
00000170: 1e89 1ebd bda7 1abd e8d2 e7bd 0bb4 e23c
00000180: 3359 dd3d e4d4 b03d de77 4d3d be90 363a
00000190: ed2f 693c b4f9 103d aa08 d5bb dd8b bb3d
000001a0: 48c4 e0bd fb1b 8b3b 105f 923c 9fb8 cabc
000001b0: 8545 f93b f2c8 9cbc 5ea8 35bd 984a f2bc
000001c0: f09c f03d c00b 053d 84a7 fc3c 5b6b c13c
000001d0: ef3e dc3d da5e f93d 5778 683d 9f87 f53d
000001e0: afb8 193e 60d1 a43c 6ceb bf3d cb9a f7bd
000001f0: fb72 3a3e 7cfd f43b 75cd bc3c d9a7 acbd
00000200: ef6e 003d bc4c cd3c 28c8 5ebb 7a6d 943d
00000210: 6223 d13d 4c4b b9bc ec77 1e3e 079d af3d
00000220: 0b7a 92bd d417 b83d 6cc7 f43c 3d49 f03c
00000230: d7de d1bd 81b4 ebbc 4a59 0cbe 41b3 c93b
00000240: cd37 0dbd 7686 4ebc 3ccb 703d 2d33 ca3d
00000250: 7084 493d 733a a13d d78d 92bd 9efc f53d
00000260: 8678 a8bd 9c18 963c de46 93bc c2a6 c63d
00000270: fbd7 9c3d 5de5 023d 1cc2 fb3c f350 a33d
00000280: 28bb 8b3c c2d4 4d3d d062 1dbe 1343 3c3d
00000290: 034e 9c3d 7d3f f03d 133b 563d dcce 1e3d
000002a0: a62c 503a 6615 bf3d 5472 9e3d b1cd a13d
000002b0: e57b 0e3e b7fc 9f3d d9be 06bd cc87 c03d
000002c0: c0d3 9cbd c76d dc3d 180b bc3a 0a4a ebbd
000002d0: b287 5ebd 0e5e 88bd 8e14 b7bc edf3 05bd
000002e0: bae8 8f3d e8c7 fb3b bb9d 9abd 3435 b33d
000002f0: 5722 183d b6af e03d dfa0 d83d fd71 f6bd
00000300: 73a5 f93d 5537 e6bc 8e60 cc3d 4e0d ad3d
00000310: 015f bcbd 0e33 1d3e 707c e03d c430 8cbd
00000320: 2de1 863c 693a 893d c3a7 2a3e b715 383e
00000330: 14a3 793e 7b1f 8b3d a353 1c3e e809 fc3d
00000340: 16b7 f73d fa55 8f3d 03df 4e3d 1d17 1d3e
00000350: 07c4 63bc cb81 853d 2091 64bd 349b d33d
00000360: b106 853e 601c 003d 7a24 a33e 534e 463e
00000370: 4555 8c3e d8c5 003e ae2f 643d 6ed3 7f3e
00000380: bae2 973d 0aad f73d 5b1b 9c3c b0f0 9c3e
00000390: 9bd7 943d c403 003e 3a0e cb3c 5a7a 753e
000003a0: f1e2 333e 08f8 453e 35e5 e73d defc 863c
000003b0: 9eb8 553d 10d0 a93b 9c95 5a3e 0f96 323e
000003c0: 6fb9 b13e 3e33 043e 8249 103e 073e 303e
000003d0: 3db0 5d3e 314e 843e 539e c13d 352c 00bc
000003e0: 4c78 373e aba8 75bd 91f0 513e add6 293e
000003f0: 27c8 99bb 49ec 193e 4476 2c3d 2637 bc3d
0.23531847 0.0021958458 0.13466984 -0.032436453 0.078173876 0.13704716 0.12827359 0.08175335
0.18399133 0.032896206 0.1984335 0.19995911 0.19980393 -0.06467062 0.13997297 0.26900214
0.112618625 0.15203427 0.035904467 0.23763412 -0.04930932 0.1297024 -0.029557815 0.26975465
0.21931748 -0.021715272 0.23678826 0.11373277 0.111904435 0.33507144 0.07090842 0.2293642
0.19670662 0.10658672 0.013603221 0.2506538 0.041391037 0.11879309 0.0081135705 0.32612398
0.09131565 0.11058142 0.23229168 0.1205232 0.27148798 -0.03185993 0.15919173 0.04323753
0.12801109 0.15810554 0.053043094 0.25380063 0.109528705 0.11625837 0.04885991 -0.05775771
0.105985455 -0.05838989 0.16656552 0.006730779 0.08502462 0.14618765 0.11159946 0.25042436
0.00037968444 0.05902779 0.1164371 0.050537035 0.06914929 0.0042965147 -0.033175472 0.10779888
-0.006542015 0.10344664 0.031931765 -0.007548424 0.0757729 0.041115675 0.10466495 -0.007960106
0.12431759 -0.109926164 -0.06889572 -0.07475281 -0.0674501 -0.029904187 -0.04774521 0.02996823
0.06836694 0.013729712 0.09740703 0.06979822 -0.038704984 -0.037757624 -0.11319524 0.027673742
0.10808029 0.08634356 0.050163142 0.0006964317 0.014232618 0.035394385 -0.006501277 0.09157536
-0.10974938 0.004245279 0.017867595 -0.024746237 0.0076071643 -0.019138787 -0.04435002 -0.029576585
0.117486835 0.03248191 0.030841596 0.023610761 0.10754191 0.121762946 0.05675539 0.11988758
0.15011857 0.020119369 0.09371075 -0.12090071 0.18207924 0.0074765068 0.023047188 -0.08430452
0.031355795 0.025061004 -0.0033993814 0.072474435 0.10211827 -0.022618912 0.15475434 0.085748725
-0.07152184 0.0898892 0.029880248 0.029331798 -0.102475815 -0.028772594 -0.13705936 0.006155402
-0.034477044 -0.0126053 0.05878757 0.09873042 0.049198568 0.078724764 -0.0715596 0.120110735
-0.08226113 0.018322282 -0.017978128 0.09699775 0.076583825 0.03195702 0.030732207 0.07974424
0.017057016 0.05025173 -0.15369725 0.045962404 0.07632067 0.117308594 0.05230243 0.038771495
0.00079412234 0.09330253 0.0773665 0.07900561 0.1391445 0.078118734 -0.03289685 0.09400901
-0.076575756 0.10763126 0.0014346568 -0.11488731 -0.054328628 -0.066585645 -0.022348668 -0.03270333
0.07026811 0.007683743 -0.07549616 0.08750382 0.037142124 0.10971014 0.10577559 -0.1203346
0.1218976 -0.028102556 0.09979354 0.08449803 -0.09197808 0.15351507 0.109612346 -0.06845239
0.016464794 0.06700594 0.16665559 0.17977034 0.24378616 0.06793114 0.1526628 0.12306577
0.12095468 0.069988206 0.05050565 0.15340848 -0.013901717 0.06518897 -0.055802464 0.10332337
0.25981668 0.03127706 0.31863767 0.19365816 0.27408805 0.12575471 0.055709533 0.24982998
0.074162915 0.120935515 0.019056013 0.3065238 0.07267686 0.12501436 0.024787057 0.23972455
0.1756704 0.19332898 0.11323015 0.016477998 0.052178018 0.0051822737 0.21346134 0.17440055
0.34711787 0.12910172 0.14090541 0.17211162 0.21649261 0.25840905 0.09454026 -0.00782304
0.17916983 -0.059975307 0.20501925 0.16585799 -0.0046930495 0.15031542 0.042104974 0.09190206

model.policy_head.weight f4 [4, 64]
00000000: 4675 52be 2e57 443e 3147 2e3e 3ad0 803d
00000010: 63b6 5a3d 50f6 02be 1b67 343e d9d1 7a3e
00000020: 5bdf 823d b095 a5bc d18d 81bd 6115 a2be
00000030: 32ac 16be 56f6 13bd 8631 d0bc 2825 a5bd
00000040: d5ad 553d d75d f4be 023d ac3d d48b 693c
00000050: bba7 263d fbb5 ad3e 3b43 683e 6fda 31be
00000060: 7d91 9b3e 9258 323c 9ea7 f2bc ee6c b73e
00000070: 5afa 8cbe 8038 2dbf 33ab c0be 0d11 8e3e
00000080: 2a51 35be 0f5f bc3d 1ca5 b03c f6bf 8abe
00000090: 697c 273d db8c 7bbe 83ac d23d 6034 f5be
000000a0: af72 7e3e 2ab9 733e c4c4 b93e 5459 583e
000000b0: e158 5cbe 976c b1bc 1e90 f9bd 2682 f23d
000000c0: 0a70 c53e 2e8e 4cbe 4360 13be 190d 30be
000000d0: 683c 5a3e b067 063f 57ed 2bbd 7cc4 83bd
000000e0: 9218 04be 7b71 eabd a6b9 7a3e afd4 173e
000000f0: 0414 fcbd 9321 1a3e 6194 dcbd 815f 593e
00000100: 8325 473c 021e 07ba 2230 80be b01d 62bd
00000110: 4072 d73d d1d0 533e 3646 03bf 76d7 06be
00000120: 719e 1abe cc32 063d cb78 ee3e 40e6 d03d
00000130: f4b5 173f 9b03 a33c dc8e 25be a77c 9abe
00000140: 95b9 643c cd67 263e e314 1cbe 02b9 bf3e
00000150: dafc 5abe 4e20 da3c 4f39 7c3d 7992 00bf
00000160: 497a 5abe 7254 d13d 04ea b13d 4a9f debe
00000170: ddea 963e 1249 a73d 22d1 8a3e 7b82 e83d
00000180: 0983 e33d 6ae5 92bd 7776 c13d fc0c 5dbe
00000190: 61f5 323e f747 da3c 9358 313e 4b4e 1f3e
000001a0: 31f7 0ebd 0b47 493e 5824 773d bd23 54be
000001b0: 62c1 a23e c8cd 1c3e ef89 a9be 01c5 ca3d
000001c0: bd8a 93be 0076 8a3e b6f3 8dbb ca1f 2fbd
000001d0: f549 33be fcba 3ebe 9e98 5c3e 8ad8 373e
000001e0: 1133 7e3d 7784 213d 0256 18bd cce8 2dbe
000001f0: 26b2 823d ccbf fabe 5b52 ed3d 066c 25bc
00000200: 2ed0 ba3d c91a 513d b68d 263e 5db9 a5bc
00000210: ee76 acbd df75 29be f088 663e 2389 9b3d
00000220: 732a db3e 22cc 4e3e 682a e4ba 86af 5c3e
00000230: a0fe bfbd e2ad a7bd 6866 e8bd 3905 163f
00000240: 58e8 493b 3abc 233e bde2 e4bc e617 72be
00000250: 1751 873c f262 1cbc 6470 513c 7bf5 ab3e
00000260: 5d75 7e3e d820 3fbe dfbe ad3e 1e8b 2b3b
00000270: 5cec 583d af80 903e 545a 903e 9724 a13e
00000280: 706b 2cbd 362d c8be ee3a 143e 42c6 1d3f
00000290: f866 58be 8079 b0bc a2ce 673e 1e45 f73d
000002a0: a8ad 713d 47dc 633e 70e2 babe e194 0ebe
000002b0: 4809 9c3e 84e1 ccbc f9f0 0e3f 36eb bbbc
000002c0: 2097 c73d 9239 24be 79e4 cbbd a969 96be
000002d0: c869 7fbe ffb5 ecbe f934 9dbe 1f57 393e
000002e0: 791b 12bd bcdd a03d 3ab1 6bbe dcc3 6b3e
000002f0: 7d90 b9bc d106 283e 1830 033e dc39 7d3b
00000300: 7fc2 05bd 4404 bd3d 7cc8 2e3d 96d1 253e
00000310: fb29 8a3d 8620 b53c f8f8 0239 b55c debd
00000320: 0946 99be 75fd 98be 27fc 00bf 81d6 c93d
00000330: d58c 83be 8719 c9bd 380f f53d 1662 1bbd
00000340: f367 72bd 8412 0b3e 1b1d 603e 105e 91be
00000350: 06ee dc3d b14f 59be e007 4ebe 3cef 843e
00000360: dc0d 99be 96c6 373e e9e6 c1be ea40 573d
00000370: 357c 3a3e f654 d73e f864 6e3d 7440 05bf
00000380: 9eb1 2dbe 0eda 913e b195 19be 3d20 38be
00000390: d091 873c cb8a 04bc 3cb5 95be d0e0 733d
000003a0: be03 8cbe 7fae bcbe 16f4 30bd ecbf d23d
000003b0: 0666 8ebe e018 cbbd 061c 3bbe 88c9 a0bd
000003c0: eb83 3ebe a95f 8c3d 7d68 f83d 5625 ef3e
000003d0: 0db8 30bd 5d46 07bd 8aca 683e 7c5d 0abe
000003e0: 2a9a eabd 016a b63a 8c30 7a3d 7588 9ebd
000003f0: a7f1 4cbe 6adf 943e a20c 45be 3fb3 7ebd
-0.20552549 0.19173881 0.17019345 0.06289716 0.053396594 -0.12789273 0.17617457 0.24494113
0.06390258 -0.020212978 -0.063258775 -0.31656936 -0.14714125 -0.036123596 -0.02541424 -0.080637276
0.052167732 -0.47727844 0.08410074 0.014254529 0.040687304 0.33927903 0.22681896 -0.17368482
0.30384436 0.010885375 -0.029620942 0.35825294 -0.27534753 -0.6766434 -0.37630615 0.27747384
-0.17706743 0.091978185 0.021563105 -0.2709958 0.04089013 -0.24565451 0.1028681 -0.4789152
0.24848436 0.23801103 0.36282933 0.21127826 -0.2151828 -0.021658225 -0.12185691 0.1184123
0.38562042 -0.19976112 -0.1439219 -0.17192496 0.21312106 0.52501965 -0.04197439 -0.06433961
-0.12899998 -0.11447426 0.24484882 0.14827226 -0.12308505 0.1505187 -0.107704885 0.21227838
0.01215494 -0.0005154313 -0.25036722 -0.055204093 0.10519838 0.20685126 -0.5127901 -0.1316813
-0.15099503 0.032763287 0.46576533 0.10200167 0.59262013 0.01989918 -0.16167778 -0.30173227
0.013960262 0.16250534 -0.15242343 0.37445837 -0.21385518 0.026626732 0.06157809 -0.502235
-0.2133571 0.10221185 0.08687213 -0.43480903 0.2947606 0.08168234 0.2711268 0.11353012
0.11108977 -0.071726635 0.094464235 -0.21586984 0.17476417 0.026645644 0.17318945 0.1555721
-0.03490371 0.19656007 0.060337394 -0.20716758 0.31788164 0.15312874 -0.33113047 0.09900857
-0.28816786 0.27043152 -0.004332031 -0.042754926 -0.17508681 -0.18626016 0.21542594 0.17953697
0.06206042 0.03943297 -0.0371914 -0.16983336 0.06381635 -0.48974454 0.11587974 -0.010096556
0.091217384 0.051050935 0.16264996 -0.02022999 -0.084211215 -0.1654887 0.22513175 0.07594516
0.42805824 0.20195058 -0.0017407658 0.21551332 -0.09374738 -0.081874624 -0.113476574 0.5860172
0.0030808654 0.15989771 -0.027940148 -0.23641929 0.016518159 -0.009545075 0.012783144 0.33585724
0.24849458 -0.18664873 0.33934686 0.002617545 0.052959785 0.28223178 0.28193915 0.31473228
-0.042094648 -0.39096993 0.14475605 0.6163064 -0.2113303 -0.02154231 0.22637418 0.1207373
0.059003502 0.22251998 -0.36500883 -0.1392398 0.3047583 -0.025009878 0.55836445 -0.022939306
0.09745622 -0.16037586 -0.09955687 -0.29377487 -0.24942696 -0.46232602 -0.30704477 0.1809964
-0.03567073 0.078547925 -0.23016825 0.23023933 -0.022651905 0.1640885 0.12811315 0.0038639223
-0.03265619 0.09229329 0.042671666 0.16193232 0.067462884 0.022110235 0.00012490514 -0.10857526
-0.29936245 -0.29880872 -0.50384754 0.098553665 -0.25693384 -0.09819322 0.11965793 -0.03793534
-0.059181165 0.13581282 0.21886103 -0.28392076 0.10787587 -0.21221806 -0.20120192 0.2596377
-0.29893386 0.17946848 -0.37871483 0.05255214 0.18211444 0.42057008 0.05820176 -0.5205147
-0.16962287 0.28486675 -0.14998509 -0.17981048 0.016549021 -0.008089731 -0.29239833 0.05954057
-0.27346605 -0.3685188 -0.04320153 0.102905124 -0.27812213 -0.09916854 -0.18272409 -0.07850939
-0.1860501 0.06854183 0.121293046 0.46708173 -0.043144275 -0.033026088 0.22733513 -0.13512224
-0.11455186 0.001391709 0.061081454 -0.07740871 -0.20014058 0.290767 -0.192431 -0.06218266

model.policy_head.bias f4 [4]
00000000: f54e 59bd 83c2 aebc d267 3abc ceba 05be
-0.053053815 -0.021332985 -0.011377292 -0.13059542

model.value_head.weight f4 [1, 64]
00000000: 8674 50bd 9c4d 973d 2438 cf3d cd1f 4bbd
00000010: fa4f 78bd bd23 d03c 7657 be3d cfc9 01bd
00000020: cd78 a23d b0b6 b2bb e217 fcbc 0aaa 7fbd
00000030: 8f37 233c 38ae cc3d 5ab8 17be 87eb c43a
00000040: d77c 9cbd 8fd5 253d f7c2 ef3b dd25 4b3d
00000050: 5fc4 05bd 088f 01be 05d4 7ebd 497c 8d3c
00000060: 6cc9 9b3c 79c7 963c 2471 e4bd f6b8 33be
00000070: f710 d93d 8754 283c 97a1 143b 6402 553d
00000080: fe0a 9e3d 1a87 103d be12 c0bd 68b3 d4bd
00000090: 982c b53d 9685 503d ff85 d43c a339 d1bd
000000a0: 1bdc 063e f435 91bd 931e 6b3d 7a72 943d
000000b0: 7796 4c3d aba9 05bd fb26 85bd d0c8 d9bd
000000c0: 0780 9e3d aedd 76bc ae6f 7d3d aba8 923c
000000d0: 207d c8bd 45b7 dfbc 4f7d c43d 2a27 bd3d
000000e0: 640e b7bc ac6c 02bd 108e aa3d 1b19 f43d
000000f0: 8455 d4bd 0a75 a2bc 21e8 8bbd 9740 22be
-0.050892375 0.0738785 0.1011813 -0.049590874 -0.060623147 0.025407666 0.092940256 -0.0316866
0.07933197 -0.005453907 -0.030773107 -0.06241802 0.009961977 0.09994167 -0.14816418 0.0015023806
-0.07640999 0.04048687 0.007316943 0.049596656 -0.032657977 -0.12652218 -0.062213916 0.017271178
0.019016944 0.018405663 -0.11154392 -0.17551026 0.10598939 0.010274059 0.0022679323 0.052004233
0.0771694 0.035285093 -0.09378575 -0.103857815 0.08846396 0.050908647 0.0259428 -0.102160715
0.13169901 -0.07090369 0.057402205 0.07248397 0.049948182 -0.03263251 -0.065015756 -0.10634005
0.07739263 -0.015067501 0.061874084 0.017902693 -0.09789491 -0.02730907 0.09594213 0.092359856
-0.02234573 -0.03184192 0.083278775 0.11918851 -0.10367873 -0.0198312 -0.068313845 -0.15844952
