submissions/xingyi_yang_agent_rl.pth (torch, 141717 bytes, 9 tensors)

model.encoder.0.weight f4 [64, 10]
000000 0c 94 0c be ed b9 32 be ee 41 be 3d 80 41 5d 3e
       -0.1372835 -0.17453738 0.09289919 0.21607018
000010 7e f9 f3 3d 1d 5e 5e 3e 9c bb d8 3e 02 31 a3 3e
       0.11912821 0.21715589 0.42330635 0.31873327
000020 fc 50 06 bd a7 3d 45 be bd bb 0d be e4 86 88 be
       -0.032792076 -0.192618 -0.13841148 -0.26665413
000030 f8 25 11 3e bb 80 80 be 49 1c 18 bb db 0f fc 3b
       0.1417464 -0.25098214 -0.0023210219 0.00769232
000040 bc 96 1b be 3b f2 3e 3e 5a 2b 49 be 83 44 59 3d
       -0.1519422 0.18647091 -0.19645444 0.053043853
000050 40 82 7b be 53 78 30 bd 98 e8 00 be c7 12 0b bd
       -0.24561405 -0.0430835 -0.12588727 -0.033953454
000060 f8 e4 29 be 67 fc ff 3d 9d ba c0 3e a8 5f 0e be
       -0.16591251 0.12499314 0.37642375 -0.13903677
000070 60 5d f7 3d 5e be bb 3d 79 b5 12 bd d2 75 b9 be
       0.12078357 0.09167169 -0.035817597 -0.36222702
000080 3d f7 7e 3e 15 20 90 3e e2 fa 4a be 57 86 ca bd
       0.24899001 0.28149477 -0.19822267 -0.098889045
000090 0c 6b 4d b9 42 c8 2e be 7f 0f 7d 3e b0 34 40 3e
       -0.00019590202 -0.1706858 0.24712943 0.18770099
0000a0 2c 3a a7 bd ef 15 2b be 53 fc 09 3d 69 07 32 3e
       -0.08165392 -0.16707586 0.0336879 0.17385639
0000b0 10 19 3b be 11 89 5b 3e 3e 36 36 bd 9c b0 19 3e
       -0.1827128 0.21439005 -0.044485323 0.15008777
0000c0 12 e6 a2 be a1 86 6e 3e 0f 55 51 be 99 be b2 3d
       -0.31816155 0.23293544 -0.20442604 0.0872776
0000d0 6c f0 a7 3d 88 00 3f be 51 9b 6d be 89 41 4e bd
       0.08200154 -0.18652546 -0.2320378 -0.050355468
0000e0 46 39 06 3e e5 8b 37 3e 61 a4 a3 3e 53 c5 c4 3d
       0.13107786 0.1792446 0.3196135 0.09607949
0000f0 22 4e 29 3e 72 1d 66 bd 57 95 93 3e fe 95 71 3d
       0.16533712 -0.056180425 0.28824875 0.058980934
000100 f0 1b 0a 3e e0 81 24 be 0b 55 e0 3c 4c ce bb bd
       0.1348722 -0.16065168 0.027384302 -0.091702074
000110 85 63 3d bb d6 57 e7 3d 6f 86 23 be bd 93 7d bd
       -0.002889843 0.1129605 -0.15969251 -0.061908472
000120 cb 64 c3 bd ea b5 32 bd 7a b7 7e be fb 22 98 3e
       -0.09540709 -0.043630518 -0.24874678 0.29714188
000130 65 3d da 3e cb a2 2e be 36 41 c8 3c 28 28 88 3e
       0.42624965 -0.17054288 0.024445157 0.26593137
000140 df f5 48 3e 24 c9 d6 3d d7 78 0a 3d 6a fa 14 3d
       0.19625042 0.10487583 0.033806648 0.036371626
000150 5c 09 92 3b 98 d8 69 3e ff f2 83 be 45 29 5e 3d
       0.004456682 0.2283653 -0.2577133 0.054238576
000160 21 43 79 be 28 ee 90 3e e5 ce 94 be ec d6 0d 3e
       -0.24342014 0.283067 -0.29064098 0.13851517
000170 e3 4d 75 3e 24 88 f9 3b 5c ec 23 be 40 c7 2f 3e
       0.23955493 0.007615106 -0.16008133 0.17165852
000180 1e 2a 8f bc ac 67 b3 bd ba 8a d9 3e fe 98 85 bd
       -0.017476138 -0.08760008 0.42488652 -0.065233216
000190 c1 c4 14 be 41 00 b1 3e f7 18 29 3e e3 f6 4f 3e
       -0.1452818 0.34570506 0.1651343 0.20309024
0001a0 02 a1 81 3e ec 0f 2b be c2 49 8e be dc 4f 40 be
       0.25318152 -0.16705292 -0.27790648 -0.18780464
0001b0 bc b4 44 be 47 57 95 be 83 8f 60 3e 32 f6 4a 3d
       -0.1920957 -0.2916815 0.21929745 0.049551196
0001c0 55 76 06 be a9 5e 1c 3e ff 95 64 3e fb dd 91 3e
       -0.13131078 0.15270485 0.22322844 0.2848967
0001d0 ba ab 18 3e 72 77 72 bd 39 93 81 be f9 06 34 3e
       0.14909258 -0.059195943 -0.25307634 0.17580785
0001e0 a6 c2 40 3e cf 1d d2 bd 72 79 4b 3e d3 42 24 be
       0.18824252 -0.10259592 0.19870546 -0.16041116
0001f0 d8 4b 9e 3e 3b 5c c7 bc 71 c8 ba be af 94 b5 be
       0.3091724 -0.024335971 -0.3648105 -0.35465
000200 9e ff f2 3d 00 d5 84 be c5 8a a2 bc 25 b9 97 be
       0.11865161 -0.25943756 -0.019841561 -0.29633442
000210 43 99 91 3e 97 01 7c be f8 86 b4 be 26 d7 8d 3e
       0.28437242 -0.24609981 -0.35259223 0.27703208
000220 d7 3d 87 3d 17 dc a1 bd 40 5f 8e 3e 74 e1 34 be
       0.06603592 -0.07903307 0.27807045 -0.17664129
000230 9b dd aa 3d b6 05 e9 bc b8 d1 ef 3d 0e 59 ab be
       0.08343049 -0.028445106 0.117099226 -0.3346638
000240 64 11 e6 bd 3b 56 33 3e 0a 88 41 3d 54 c9 90 3e
       -0.11233786 0.17513363 0.047248878 0.282786
000250 d5 ed 8a 3e 84 4e 53 3e d1 1c 3f be 5e f6 a6 bd
       0.27134576 0.2063542 -0.18663336 -0.081524596
000260 d6 71 68 be 68 89 a1 be 95 56 ce 3e be e2 83 3e
       -0.22699675 -0.31550145 0.40300432 0.25758928
000270 3a 07 a7 3e 5b 6c 30 be 3b 83 44 be 81 3d 6d be
       0.326227 -0.17228834 -0.19190685 -0.23167993
000280 e8 53 c7 3e 29 9f 8f be 98 8e d0 3d d7 c6 57 be
       0.38931203 -0.28051117 0.101834476 -0.21071945
000290 ff db 8c bd ef 66 80 3e 45 92 c2 3d bc 72 0d 3e
       -0.068778984 0.25078532 0.09500555 0.13813299
0002a0 9f 31 d0 3e 8e a8 da bd 3b e1 14 3e f7 10 85 bd
       0.40662858 -0.106766805 0.14539044 -0.064973764
0002b0 03 a2 a5 3d cf 26 9e 3e 32 60 b6 3d 33 ff af be
       0.08087542 0.30888984 0.089050665 -0.3437439
0002c0 15 ed 99 be a1 56 42 3e dd 06 98 3e 50 ab 08 3e
       -0.30063692 0.18978359 0.29692736 0.133466
0002d0 df 11 09 3e df c1 61 3e 41 16 b4 bd a7 0a 8a 3e
       0.13385724 0.22046612 -0.08793307 0.26961252
0002e0 e5 a8 36 3e 36 de 44 be cf 8d d8 3c f8 ba 35 be
       0.17837866 -0.19225392 0.026434807 -0.17747104
0002f0 51 da 80 3e 7f a0 65 bd 62 61 2b be 7f 21 2c be
       0.25166562 -0.056061264 -0.16736367 -0.16809653
000300 ac 75 0a be db 19 86 3d 2a 30 8c 3e 0d 14 83 3e
       -0.13521451 0.065479 0.27380496 0.25601235
000310 3a e4 3e 3e da 1a 1c 3d a9 dc 3e 3e c6 b4 81 3d
       0.18641749 0.038111545 0.18638863 0.06333308
000320 bb 7e dd 3e 24 b4 52 3e fc e1 e0 bd e6 13 88 3e
       0.4326075 0.2057653 -0.10980603 0.2657768
000330 b1 12 69 3e f3 75 8b 3e a2 0c ab be 9e 9e 35 be
       0.22761036 0.27238426 -0.33408076 -0.17736289
000340 42 18 02 3e 65 e3 95 3e 2a 0b b5 bd 88 d3 a5 3d
       0.12704566 0.2927505 -0.0884002 0.08096987
000350 c4 2b b2 3c 9d 7f 79 bd 01 04 78 3e 92 3e 4b be
       0.021749385 -0.060912717 0.24220277 -0.19848087
000360 a8 0d 73 be e3 71 1e 3e 2d 89 0c be 9b 97 93 3d
       -0.23735678 0.15473132 -0.13724203 0.07206651
000370 5b f9 a7 3e 00 8f 63 bd e5 55 d2 bd 4f 60 af 3e
       0.3280743 -0.055556297 -0.10270289 0.34253165
000380 d0 1f 90 bd 21 08 8f 3d 29 69 eb ba a5 e4 c5 3d
       -0.07037318 0.06983972 -0.0017960417 0.09662751
000390 c4 ce 39 bd 90 2f 65 3e c9 03 90 be 96 27 8b be
       -0.045363203 0.22381425 -0.28127888 -0.2717864
0003a0 f9 e0 e7 3c 79 73 a6 3c b7 f2 36 be b0 8a a9 3e
       0.028305518 0.020318734 -0.17866026 0.33113623
0003b0 64 16 13 bd 2d 91 72 3e b8 bb cc bd ba 20 80 3e
       -0.035910025 0.23688193 -0.09996742 0.25024968
0003c0 04 c1 36 3e 7f 6e 1c be e0 ae a9 3e 7a 16 fa bc
       0.17847067 -0.15276526 0.33141232 -0.030528296
0003d0 ca 1e 96 3d a5 7b f0 bc 92 c3 97 3e 09 5c 8e 3e
       0.07330091 -0.029355833 0.29641396 0.27804592
0003e0 0f 74 6f 3e 3a 57 29 3e ca 2b 3f be a3 0a 61 3e
       0.23384117 0.1653718 -0.18669048 0.21976714
0003f0 06 81 0d 3e de d4 ce bd e5 d8 02 bd a1 c9 a2 3e
       0.1381875 -0.10099195 -0.031945128 0.31794456

model.encoder.0.bias f4 [64]
000000 69 98 89 3d a7 64 4a be c1 57 1d 3e 02 f6 3b 3e
       0.06718523 -0.19764958 0.15365507 0.18355563
000010 f7 c4 f5 3d 8e 2e 2a bd 87 5b 97 3e e8 b8 2b 3e
       0.12000459 -0.041548304 0.29562017 0.16769755
000020 e0 dc e8 3c 01 aa 0f be 17 3f ae 3d 57 f1 e1 bc
       0.028425634 -0.14029695 0.08508127 -0.0275809
000030 9c 21 8c 3e 7d ce 65 3e ea 7c 8e 3e 07 4f 91 3e
       0.27369392 0.2244205 0.27829677 0.28380606
000040 2e e2 0c be 93 23 2c 3e 26 9a 8f bd 08 c5 19 be
       -0.13758156 0.16810445 -0.07011823 -0.15016568
000050 a8 0f 3d 3e 87 39 1c 3e 75 b2 84 3e 6f 2f a8 3e
       0.18463004 0.1525632 0.25917402 0.3284869
000060 06 98 70 be 78 0f 81 3c 6b f6 32 3e 28 2c 1d be
       -0.23495492 0.015754446 0.17476813 -0.15348876
000070 3e f0 8b be ad 00 e0 3d 24 c6 74 be 11 9d a3 3e
       -0.27331728 0.10937629 -0.2390371 0.3195577
000080 39 6e 9d 3d ec 70 ab 3d b8 5c 3d 3e 50 61 46 bd
       0.07687039 0.083711475 0.184924 -0.04843265
000090 7e 19 90 3e c5 06 1f be a0 71 34 3e 7c 1e 79 3e
       0.2814445 -0.15529926 0.1762147 0.24328035
0000a0 ca cb a7 3d 10 ad 54 3d 23 f5 20 3e 39 be 93 3e
       0.081931666 0.051922858 0.15718512 0.28856066
0000b0 67 1d 14 be f9 3f 07 be 28 9a 41 3e 82 83 88 3d
       -0.14464341 -0.13207997 0.18906462 0.06665708
0000c0 13 87 b7 bd 82 82 72 be 3b 73 8e bd 1f f4 9f bc
       -0.0896131 -0.23682597 -0.06955572 -0.019525586
0000d0 9b e0 5c bd bd 55 ba 3d df 34 1e 3d c4 ee 9d 3e
       -0.053925138 0.090983845 0.03862464 0.30846226
0000e0 1f f3 6d be b8 47 6b 3e 88 9a 64 3e c5 40 76 3e
       -0.23237275 0.22976577 0.22324574 0.24048145
0000f0 46 5c fc 3d b1 52 50 3e 4f 7c 9a be 56 a3 d5 3d
       0.12322287 0.20344044 -0.30172965 0.104315445

model.lstm.weight_ih_l0 f4 [256, 64]
000000 4b cb a2 3d d8 c8 48 3d 0b 80 35 bd 9e ee 04 3d
       0.07948931 0.049019665 -0.044311564 0.032454126
000010 95 92 86 bd 87 85 3e bb 5b 9d 99 3d 60 20 50 3d
       -0.06570927 -0.0029071288 0.07500716 0.050812125
000020 ff 80 af bc 98 4d 8b bd a3 0e 88 3b 8b 0b 81 3d
       -0.021423815 -0.06801909 0.0041521355 0.0630103
000030 f3 c1 04 3e 33 14 32 3d 12 a4 5d 3b 90 95 c7 bc
       0.12964611 0.043476295 0.0033819717 -0.02436331
000040 22 83 4d 3e 31 27 70 3d e6 6f db 3c 09 71 7b bd
       0.20069554 0.058631126 0.026786756 -0.061387096
000050 4c a7 4b 3d 72 ca 02 be 9b 6b c3 3d 7b dd 66 3d
       0.049720094 -0.1277254 0.095420085 0.056363564
000060 97 06 e1 3c 22 92 f1 3c 0f e1 09 3e 07 df 6a bd
       0.027468963 0.029488627 0.1346476 -0.0573416
000070 00 fd 32 3a ee 27 0e 3d 50 a9 21 3d c9 41 aa bd
       0.0006827861 0.03470605 0.03946811 -0.08313329
000080 f4 71 8f 3d c1 53 f4 bc 5d c9 c7 3c 06 4f a0 3d
       0.07004157 -0.029825093 0.02438801 0.078275725
000090 83 9a e8 3c 1e 14 0b 3e 74 0f 5c 3e f9 4d 20 3e
       0.02839399 0.13581893 0.2149027 0.15654744
0000a0 8b 1a 64 bd 62 b6 08 3e 0d 45 3e bc 57 d6 57 3d
       -0.055689376 0.13350824 -0.011613143 0.052694645
0000b0 93 79 26 3e cd d2 aa 3d 23 04 67 3e 14 22 f2 3d
       0.16257314 0.08340988 0.22560172 0.11822906
0000c0 e4 88 42 3e c5 78 0d 3e 1d 9d 8c 3d 53 de 47 bd
       0.18997532 0.13815601 0.068659045 -0.04879601
0000d0 a4 b6 60 3e 8e 81 1b 3e 83 69 33 3d f3 20 06 be
       0.21944672 0.1518614 0.043801796 -0.13098507
0000e0 86 c6 60 bb 39 d6 79 bd 47 b7 9b 3d 96 4e b5 3d
       -0.0034298017 -0.060995314 0.07603317 0.0885288
0000f0 b4 2d bd 3c 14 6c d2 bc 9c 89 39 3d e6 a3 3d 3d
       0.023093082 -0.025686301 0.04529725 0.046298884
000100 d6 bf e8 3b 48 8f b8 bd a3 11 80 3c 41 38 b7 3d
       0.0071029468 -0.09011704 0.01563341 0.089462765
000110 79 c0 9a bd 9e e6 ee bc cb 6d 9b 3d e9 fb bf 3d
       -0.075562425 -0.029162701 0.07589301 0.0937422
000120 0f 71 84 3d e0 7b ca bc 9f cc 04 be 67 fa e3 bd
       0.06466877 -0.024717271 -0.12968682 -0.11131745
000130 85 fb e4 bd a7 1f 67 bc 13 13 a7 3d 1f 42 73 be
       -0.11180786 -0.014106668 0.08157935 -0.23755692
000140 12 59 77 3d f9 8f ea bb 76 27 2d 3e 91 f8 52 3d
       0.06038768 -0.007158276 0.16909584 0.051506583
000150 c2 65 fd 3d 81 1b eb bd fb 81 18 3e f9 03 a5 bd
       0.123729244 -0.11479855 0.14893334 -0.08057398
000160 d3 96 e2 bc ee 10 2f 3d c4 7c 9e 3d de ef 3c 3d
       -0.02765981 0.042740755 0.07738641 0.046127193
000170 98 76 91 3d 9c 19 97 3d b8 ea f8 bd f3 00 c9 3c
       0.07102698 0.073779315 -0.12154144 0.024536585
000180 1a 27 3c 3e ec 21 f8 bc 1e 9c a6 bc d7 96 32 3e
       0.18374291 -0.030289613 -0.020338114 0.17440353
000190 e1 89 fb bb 08 6f 38 3e f3 05 04 3e ad ac dd bd
       -0.0076763486 0.18011105 0.12892894 -0.10823951
0001a0 e4 10 02 3e ad 13 bd 3d a4 96 33 bd ef 5c 1c 3e
       0.12701756 0.092322685 -0.043844834 0.15269826
0001b0 5c b5 0b 3c ca 17 0c 3d 7d 69 89 3e 33 84 02 3e
       0.008527126 0.034202375 0.26838294 0.12745742
0001c0 f3 8f db 3d 85 b0 d5 3d 64 39 cb 3d 15 f4 07 bd
       0.107208155 0.10434059 0.09923056 -0.03319176
0001d0 0d dc 25 3e 02 60 45 3e ca 55 d1 3d 3a b1 04 bc
       0.16197224 0.19274905 0.10221441 -0.008098895
0001e0 e6 fb a1 bc 21 d1 d5 bc 42 84 6b 3c c0 af 46 bc
       -0.019773435 -0.026100697 0.014374794 -0.012126863
0001f0 36 4a 22 bc 1d 21 ce bd 34 c4 38 3d 2a 57 9c 3d
       -0.009905389 -0.100649096 0.04510899 0.07633813
000200 fe 2f d1 bd 6c c2 ce bd f1 e3 7c bd 20 a7 94 b9
       -0.10214232 -0.10095677 -0.06174082 -0.00028353278
000210 da 89 1b 3c 28 2b 59 bc 77 11 51 bd c8 51 02 3c
       0.009493316 -0.013254918 -0.051042046 0.0079540685
000220 ad a9 3b 3c 4f 90 e2 bd 2d c2 27 3e 1a 10 83 3d
       0.011454028 -0.11062681 0.16382666 0.063995555
000230 f0 0c af 3d 96 9b 1c bd de 30 a6 bd ad 20 14 3d
       0.085473895 -0.038234316 -0.081147894 0.036163975
000240 5a 39 c5 3d e7 94 36 3e 7a 42 7a 3e dd 47 29 be
       0.096300796 0.17830239 0.24439421 -0.1653132
000250 c2 31 24 3e 8c 5d 0a 3e 8e c1 70 bd 72 12 ad 3c
       0.16034606 0.13512248 -0.058778338 0.02112696
000260 a0 e2 12 be a1 fb c9 bd 7a 6b d7 3c 11 18 3f bd
       -0.14344263 -0.098624475 0.026296366 -0.04665381
000270 10 41 8e bc a3 cb 47 be 98 b1 a9 3c bf d4 3a 3e
       -0.017365009 -0.19511275 0.020714566 0.18245219
000280 d0 d1 b4 bb 41 6c 09 3e ca 70 3f bd f6 cb 6b 3e
       -0.0055181757 0.13420202 -0.046738423 0.23027024
000290 26 15 1b be ec c4 9a bd 0b fc 6b 3e 83 6d 22 bd
       -0.15144786 -0.07557091 0.23045366 -0.03965522
0002a0 5a d9 ac bc 2f fd fe 3d a6 fb cc bd 89 91 5a 3d
       -0.021099735 0.12450635 -0.10008936 0.05336145
0002b0 7e fa 58 3d 07 3e 90 bd 20 f0 e7 3d 0d 19 2f be
       0.052973263 -0.07043081 0.11325097 -0.170994
0002c0 66 77 32 be fd 63 7b bd 80 d9 0b be 19 ae 90 3d
       -0.1742836 -0.061374653 -0.13657188 0.070644565
0002d0 cf f9 11 3e 2a 9b f5 3c 2f e8 e5 3d 68 f8 22 3d
       0.1425545 0.029981215 0.11225926 0.03978768
0002e0 58 ea d4 bd 74 d6 da 3d e4 8c 1e 3e 4f 74 f1 3d
       -0.1039626 0.10685435 0.15483433 0.11789762
0002f0 c9 88 1e 3e 1b fb 5f bd 20 39 d2 3b 01 c1 b7 3d
       0.15481867 -0.054682832 0.0064155012 0.089723594
000300 8f 7b 26 3e cc 49 aa bd b6 e9 2c bd 9c 86 8d bd
       0.16258071 -0.08314857 -0.04221507 -0.0691044
000310 ba ad 10 3e 2e 2e 21 3d d3 d5 c3 3d 6a eb f6 3d
       0.14128771 0.03935068 0.09562268 0.120566204
000320 a8 26 18 3e fb d3 db 3d cc d3 45 3e 76 59 79 bd
       0.14858496 0.107337914 0.19319075 -0.060876332
000330 1f b8 ac bb f2 1a a3 3c 6a 13 c6 3d 1a f7 f9 3c
       -0.0052709724 0.01991031 0.09671672 0.030513335
000340 83 66 db 3d 30 3d 12 3e 58 a0 11 3d 41 3e 1d 3d
       0.10712912 0.14281154 0.035553306 0.038389448
000350 bf c5 1a 3e bf bb 01 bd 94 ec 39 3e ae cb 1c 3e
       0.15114497 -0.03167319 0.18156654 0.15312073
000360 88 e4 0e 3e 5c de 1c 3e b6 11 66 3e 5c 88 8e bd
       0.13954365 0.15319198 0.22467694 -0.06959602
000370 cc 88 e7 3d 9e b2 18 bc 70 e4 77 3c b1 d2 f7 3d
       0.11305389 -0.009319929 0.015130147 0.12100733
000380 9e 59 ff 3d 1d f8 ae 3d a4 71 bf bd cc 36 8e 3c
       0.12468265 0.085434176 -0.09347847 0.017360114
000390 83 60 8a 3d e8 78 f8 3d ee 81 34 bd b6 fc 5f 3d
       0.067566894 0.12132436 -0.044069223 0.054684363
0003a0 5b a6 5c bc 9d e3 11 3e 72 35 1b 3c 0a c9 6f 3d
       -0.013467397 0.14246984 0.009473192 0.058541335
0003b0 b5 ec a8 3d ef 06 05 3d 6f fe 17 3e b7 a5 f9 3c
       0.08248273 0.032477316 0.14843152 0.030474527
0003c0 fc f7 70 bd 86 69 85 bd 00 05 31 bd c2 c6 80 3d
       -0.058830246 -0.065142676 -0.04321766 0.0628791
0003d0 28 af 0b 3d cf 0d 7e 3d 2b c9 61 bd 9b 8d bc 3d
       0.03410259 0.062024888 -0.05512349 0.092066966
0003e0 a6 29 e0 3d 2d 39 6d 3d 96 82 01 3d 7c 28 89 3c
       0.10945444 0.057915855 0.031618677 0.016742937
0003f0 fb 81 12 3e 77 64 c0 3d 8c bf 04 bd e6 e1 a0 bc
       0.14307396 0.09394162 -0.032409236 -0.019638967

model.lstm.weight_hh_l0 f4 [256, 64]
000000 6c f4 02 3e 36 87 b6 3d 61 04 e0 bc 15 31 f2 3d
       0.12788552 0.08912508 -0.027345838 0.11825768
000010 76 2b b8 bd 55 4a e4 bd f3 bf fe bb 84 a3 83 bd
       -0.089926645 -0.1114699 -0.007774347 -0.064276725
000020 e5 4d 09 3e 5b 09 ff ba 56 9f 86 bd 31 20 38 3d
       0.1340862 -0.0019457744 -0.0657336 0.044952575
000030 61 38 93 bd 51 10 a9 3d bf cd 51 3c f9 92 7c bd
       -0.07188488 0.08255065 0.012805401 -0.0616636
000040 6b 93 ca 3d 3b 1c 63 bd e4 0c e3 bb 31 ad c5 bd
       0.09891399 -0.055446845 -0.006929027 -0.09652174
000050 33 b1 28 3d 4d 39 2f 3d b0 68 c5 3d e0 4a a0 3d
       0.041184615 0.042779256 0.09639108 0.07826781
000060 42 60 40 bd 18 1b 69 bd 5f e7 22 bd c4 34 b3 3d
       -0.0469668 -0.056910604 -0.039771434 0.087502986
000070 e6 b7 59 3c 0a 42 2a 3d eb e2 da b9 da c3 0c 3d
       0.013288474 0.041566886 -0.00041749267 0.034366466
000080 6a 7a 9e 3d 77 92 41 bd ed 7e 63 3d 32 e9 51 3d
       0.077381924 -0.04725882 0.055540968 0.051247783
000090 71 6f 2f 3d 18 7e 47 3d b2 80 0a 3d 78 71 ae bd
       0.04283089 0.048704237 0.03381414 -0.08517736
0000a0 cb b6 90 3c 0a 42 9a 3d 13 24 d9 3d 02 15 e6 3c
       0.017665287 0.07532127 0.10602584 0.02808619
0000b0 7e e4 d8 3d e4 c3 5d bd aa 8e 7b bc c2 fd 87 3b
       0.105904564 -0.054141894 -0.015353838 0.0041501233
0000c0 ab cd ce 3d 96 43 6e bd 48 14 5e 3d b4 04 51 bd
       0.10097822 -0.058169924 0.05421856 -0.051029876
0000d0 9f 3f 12 3e 7e b6 27 3d 4a 70 93 3d c3 ea 10 be
       0.14282082 0.040945522 0.07199152 -0.14152054
0000e0 91 cd 73 3d c7 8b b7 bd d1 92 e4 bd 60 e0 3b 3e
       0.059522215 -0.08962207 -0.111608155 0.18347311
0000f0 b5 58 34 3d ae 1b 93 3d 20 20 93 bd 3b 26 77 3c
       0.04402991 0.07183014 -0.07183862 0.015084798
000100 29 79 aa bd de 8a 01 be 40 88 05 3c 86 cb fb bc
       -0.08323891 -0.1265063 0.00815016 -0.030736696
000110 58 ac 99 3c db 40 d4 3b c8 a4 23 3e ad f3 62 3d
       0.018758938 0.006477458 0.15980828 0.05540817
000120 28 ca 82 3d 60 97 ad bc be 09 f4 3c b8 78 df 3d
       0.063862145 -0.021190345 0.029789802 0.10911697
000130 42 2f e4 3d 6e 56 4b 3d 99 81 e7 3c 35 4d f5 3d
       0.11141826 0.049642973 0.02826004 0.11977617
000140 e5 49 88 3d db a9 4e 3d 42 2d 9f 3b 6e e4 5c 3c
       0.06654719 0.050454956 0.00485769 0.013482196
000150 96 65 ca 3d eb 79 ba bd 84 e7 90 3d 50 38 cf bd
       0.09882657 -0.09105285 0.07075408 -0.10118163
000160 2d 82 a2 bd 87 c4 63 bd cb 0f 7b bd f4 70 43 bb
       -0.07934985 -0.055607345 -0.06129436 -0.0029821964
000170 5a 3e 3a bd 91 da bc 3d 63 48 5a bd 08 69 9f 3d
       -0.04546962 0.09221376 -0.05329169 0.07783705
000180 bf 0a 77 bd 97 db 2f bc b7 18 2a bd 94 cd 93 3b
       -0.060312983 -0.010733507 -0.041527476 0.004510591
000190 5e 00 d8 bd 86 29 5a bb 65 03 76 bd 32 8b 99 3d
       -0.10546945 -0.003328891 -0.06006183 0.074972525
0001a0 53 a8 91 bc 2d 97 45 3d 70 0f 00 3e 45 57 0d be
       -0.017780459 0.048239876 0.12505889 -0.13802822
0001b0 3f 42 00 be 34 2a 09 3e a1 e6 3d be ea 93 06 3e
       -0.12525271 0.13395005 -0.18545009 0.13142362
0001c0 ec 8d f5 3d 6d 7b ce 3d 33 2d fc 3b d5 5c 93 bd
       0.1198996 0.10082135 0.007695818 -0.07195441
0001d0 db c0 35 3e 5b 67 07 3d 00 da e1 39 b1 20 93 bd
       0.1774935 0.03305755 0.00043077767 -0.0718397
0001e0 57 9d ff 3d 0f cf a1 3c 2f 73 f3 bd de 03 26 3d
       0.12481182 0.019752054 -0.11887204 0.04053103
0001f0 a9 2a ae 3d 9c 4a 91 bc 5d 05 da bd ec f1 71 bc
       0.085042305 -0.017735772 -0.10645554 -0.014767151
000200 cd 98 ba 3d cf 59 0f bd 43 9f 13 3d 0d f5 f2 bc
       0.09111176 -0.034997758 0.036040556 -0.029657865
000210 db cf 3f bc 25 c6 cb bc e0 3c 34 bc cb 92 7b 3d
       -0.011707271 -0.024874756 -0.011000842 0.06141929
000220 4e db 5e 3e 53 c9 83 3c 38 2b 8b bd 2e 01 7c bd
       0.21763346 0.01608721 -0.06795353 -0.061524563
000230 a5 8b 61 bd af f3 0b 3e be 13 87 3c 1c 20 9a bd
       -0.055064816 0.13667177 0.016488906 -0.075256556
000240 ba ae 0b 3e 6a 94 3e 3d a8 21 a1 3d b4 f0 cb 3b
       0.13640872 0.046528257 0.078677475 0.0062237624
000250 cf 65 15 bd cf 79 ab 3d 21 27 59 3d 14 75 c7 3d
       -0.036474045 0.083728425 0.05301583 0.09739128
000260 87 d7 d8 3b 48 c1 8c bc 5b a1 cc bd 4f 7f 02 be
       0.0066174897 -0.017182007 -0.099917136 -0.12743877
000270 14 a6 11 3e 36 88 4e 3d d9 69 09 3e 92 24 bf 3c
       0.1422351 0.05042287 0.13419284 0.023332868
000280 46 29 02 3e b8 7e 19 bc 3f 82 c0 bd aa 13 3e bd
       0.12711057 -0.009368591 -0.093998425 -0.04640547
000290 63 55 48 bd e1 03 d2 3c 52 a6 a0 3a 77 05 fa bc
       -0.048909556 0.025636615 0.0012256599 -0.030520184
0002a0 10 0f 1a bd 54 0b 6a bd fb 57 df bc 1c 61 ec 3c
       -0.03761202 -0.05713971 -0.027263632 0.0288549
0002b0 9b 5a bc 3d f5 2b 17 be 80 b4 df bc 0a a8 e4 3d
       0.09196969 -0.14762862 -0.027307749 0.111648634
0002c0 59 c0 07 be fb 33 72 3b 7e aa 0b 3e 1d a4 0a 3d
       -0.13256969 0.0036957252 0.13639256 0.033847917
0002d0 89 28 3c 3a da d9 38 bd 50 b3 04 3d 9f d4 f4 bd
       0.0007177671 -0.045129634 0.03239757 -0.11954617
0002e0 bb e9 72 bd 70 29 a3 bd c2 59 e4 3d 8d 0d 87 3d
       -0.059304934 -0.07966888 0.111499324 0.065943815
0002f0 27 fa d3 bd 5b 07 18 be 59 c8 aa bd 46 45 a6 3d
       -0.10350447 -0.14846556 -0.083389945 0.081186816
000300 02 50 f8 bc 0b ef 67 3d b8 30 18 be 86 9f 5a bd
       -0.030311588 0.056624454 -0.14862335 -0.05337479
000310 1f 6d a2 3d cf 3d dd 3d ee 8f ff 3c 64 25 0e 3e
       0.079309694 0.10802805 0.03119656 0.13881451
000320 46 91 44 3d 26 f8 2a be 54 4c 8f bc 0b 77 06 be
       0.047990106 -0.16696224 -0.01749245 -0.13131349
000330 59 94 d3 3c d4 b3 cc 3d 08 c0 88 3d d1 0f 1a 3e
       0.025827574 0.09995237 0.06677252 0.15045096
000340 34 69 80 3c 76 d6 ef bd 44 e8 f8 3c a2 2e 80 bd
       0.015675165 -0.11710827 0.03038419 -0.062588945
000350 8b 2c e3 3d 0c 45 0b bb b5 cd 4d 3d 99 13 0c 3d
       0.1109248 -0.0021250872 0.050245006 0.034198377
000360 a4 fa f9 3c 51 90 98 bc df c7 80 3c 9b bf fb bd
       0.030515023 -0.018623503 0.015720306 -0.12292405
000370 df 2a 35 3e 68 f0 b9 bd 54 af c1 3d c7 28 00 3e
       0.17692135 -0.09079057 0.09457269 0.12515555
000380 2b b3 6a bd 11 73 76 bd 21 50 08 bd 8b 86 49 3d
       -0.057299774 -0.06016833 -0.033279542 0.049200576
000390 72 1c 65 3b 71 df df 3c c9 c6 6f 3c 98 be 72 bd
       0.0034959582 0.027328225 0.014634796 -0.059263796
0003a0 59 48 11 be 98 52 08 3d 7b 6c c4 bd 11 30 a3 3d
       -0.14187755 0.033281893 -0.095910035 0.07968152
0003b0 ca 5b 2d bd 48 3b ef bd 7d 3a 94 bd b5 9c 57 3c
       -0.042323865 -0.11681229 -0.07237718 0.01315992
0003c0 07 e7 99 3d 4e 9a e4 bd 77 cf bc 3d da 79 3c 3d
       0.07514768 -0.11162244 0.09219258 0.046014644
0003d0 a9 ac 83 3d 53 21 2d 3d b0 40 b7 3d 99 ac a5 bc
       0.06429417 0.04226811 0.08947885 -0.020223903
0003e0 95 f0 74 bd 33 73 e0 bd 9b 18 c8 3c 26 63 05 bc
       -0.05979975 -0.109594725 0.024425795 -0.008141315
0003f0 e1 e8 ca 3d ad b7 9a bd 16 1b e1 3c 45 01 86 3d
       0.099076994 -0.075545646 0.027478736 0.06543211

model.lstm.bias_ih_l0 f4 [256]
000000 ca 5d c8 bc 7e 57 dd 3d 9a 7f 33 bd ac fe 87 3d
       -0.024458785 0.108077034 -0.043822862 0.06640372
000010 5e 5c 5f bd 32 2d 8c 3c 68 fa 94 3d b5 a3 17 bc
       -0.054531448 0.017111395 0.07274324 -0.009255339
000020 c5 1a 30 3d e9 73 f4 3d 08 12 2d 3e 02 3f 09 3c
       0.04299428 0.119361706 0.1690141 0.008376839
000030 39 1e 08 3e 7e 25 5b bd 37 12 24 3e 55 51 1f 3e
       0.13292779 -0.053502552 0.16022573 0.1555837
000040 0a 6a dc 3d 81 e6 19 bd 98 0c 98 3d c9 43 1f 3e
       0.10762413 -0.03757334 0.07424277 0.15553202
000050 4e 42 0f 3e a4 3c c6 bc 3d 89 ac 3d 12 15 a7 bd
       0.13990137 -0.024198838 0.084246136 -0.08158316
000060 ad 3d e0 3d 8b b1 33 3e 22 26 54 3d 44 48 64 bd
       0.10949264 0.17548196 0.05179418 -0.05573298
000070 ae a4 3e 3d c6 5f a5 3d 1c 3c aa bd de 4d ab 3c
       0.04654377 0.08074908 -0.08312246 0.020911153
000080 03 dd 33 3e eb 28 1d bd 6e d4 88 bd 42 f9 89 3c
       0.17564778 -0.0383691 -0.06681143 0.016842488
000090 81 41 ea 3d 30 84 da 3d 72 c9 31 bd 10 ab 2b 3e
       0.11438275 0.10669744 -0.043405004 0.16764474
0000a0 5c d3 69 3d 94 13 c9 3c 23 d2 f7 3d cd 50 09 3e
       0.057086334 0.024545468 0.12100627 0.1340973
0000b0 0f 6f 37 3e a3 bd 45 3e 89 ea 01 bd 7d af 3a 3e
       0.17913459 0.19310622 -0.03171781 0.18231006
0000c0 37 2e 84 bb 2a 52 0b 3e cb c1 33 3e 55 22 bf bd
       -0.0040338296 0.13605562 0.17554395 -0.0933272
0000d0 85 fa 1d 3d d3 c6 0b 3e ab 8a 66 3e 86 1e fa 3d
       0.038568992 0.13650064 0.22513835 0.12212853
0000e0 13 ca ba 3d ba fa 01 3d ca f3 18 3c 67 5b e0 3d
       0.09120574 0.031733252 0.009335468 0.109549336
0000f0 95 93 38 3c 82 6f 95 bb fb 19 c7 bc 0a 1e 74 bd
       0.011265655 -0.004560412 -0.02430438 -0.05959896
000100 8a cc d2 bc 8f fd d6 bd 36 81 ed 3b da 76 d9 3c
       -0.025732297 -0.10497581 0.007248069 0.02654593
000110 74 e1 ca bd 1d 6f 80 3b 5c 29 35 bd e0 55 03 3e
       -0.09906283 0.0039194957 -0.044228896 0.12825727
000120 c5 cc 98 3d 41 db c4 3c 2a ba a5 3c b2 8b 02 3e
       0.07460932 0.02403033 0.020230372 0.12748602
000130 36 4d 59 3d ad 83 af bc 50 8d 49 bc b3 07 af bd
       0.05305215 -0.021425093 -0.012301758 -0.085463904
000140 9a 90 b8 bd f4 ae d2 3c 9b f0 01 3e cd c9 9a bc
       -0.090119556 0.02571819 0.1268944 -0.018895054
000150 7b 6c 99 3d df b1 e8 bb 02 22 c7 3d 99 5e 0a 3e
       0.07491394 -0.007101282 0.09723283 0.13512649
000160 6a 27 03 3e 69 b7 43 3d 29 86 fd 3d 4a 6b ee 3d
       0.12808004 0.047782335 0.12379105 0.116415575
000170 74 39 98 3b 6f 06 02 3e 39 5d 0f 3d bb 97 95 3d
       0.004645521 0.12697767 0.035001013 0.07304331
000180 06 4e d5 3d d3 2c 01 bd 82 a6 5e bd 4d 53 34 3d
       0.104152724 -0.03153689 -0.054358013 0.044024754
000190 97 40 09 3e ea 9b 61 bd f2 0b dc 3d 90 bb 49 bd
       0.13403545 -0.05508033 0.10744466 -0.04925114
0001a0 6f e7 7c bd 41 8a b7 3d 95 1b 7e bd c1 52 cc bd
       -0.06174415 0.08961917 -0.062038023 -0.099767216
0001b0 5c 3b 00 be 65 04 50 3d 3b bb 05 3d f8 e4 81 3d
       -0.12522644 0.05078544 0.03264926 0.063425004
0001c0 22 e7 5b bd 0d 1d 8f 3d 5f 4f e4 3c 0e e4 aa 3c
       -0.053687222 0.06987963 0.027869878 0.020860698
0001d0 5c 23 df 3d 31 8b 32 3d cd 74 84 3d 58 a0 cf bc
       0.10895416 0.043589775 0.064675905 -0.025345013
0001e0 3e 0f 0f 3e e6 ab 93 3d 84 81 be 3d 67 08 91 3d
       0.13970658 0.072105214 0.09302047 0.07081681
0001f0 4f d0 d0 3d b3 60 c4 bb 66 e8 d6 bd 61 52 db 3d
       0.10195982 -0.0059929728 -0.10493545 0.10709072
000200 2c 9c d7 3d 1f 2b 22 be e9 bf ae bd ef b9 9a bd
       0.10527834 -0.15836762 -0.08532698 -0.07554995
000210 7b 2a 84 bd 5d 32 bd bd 0a f5 8e bc 9a 1e 9f 3d
       -0.06453415 -0.09238122 -0.017450828 0.07769509
000220 fb f3 e0 3c ff 52 f0 bd 16 f0 c1 3d 50 8b 9d 3d
       0.027460089 -0.1173458 0.09469621 0.076925874
000230 4a c3 ab bd 78 c6 aa 3d d4 4e 82 3c 41 4a 70 3d
       -0.08386858 0.08338636 0.015906729 0.058664564
000240 e3 fd e8 3d 99 bd 8d bd b9 8c d4 bd ff fe 2c 3d
       0.1137655 -0.069209285 -0.10378403 0.04223537
000250 45 49 25 3d 93 5c 20 3d e3 5d 94 3d 54 22 14 be
       0.04035308 0.039150786 0.0724447 -0.1446622
000260 c6 4d 9c bc d9 60 be bd 93 c4 53 bd 24 38 fb bd
       -0.019080054 -0.09295816 -0.05170114 -0.12266567
000270 b5 9a 85 3d 42 c5 f1 bc ae 17 69 3d 88 53 ca 3d
       0.06523649 -0.029513005 0.05690735 0.098792136
000280 23 c6 6b 3d 23 e0 a1 bd 8e ef 10 be aa bf 1d bb
       0.057562005 -0.07904079 -0.14153883 -0.002407054
000290 b4 da c4 3c 47 ba f7 3d 69 c8 c9 bc d6 04 35 be
       0.024030067 0.120960765 -0.024631696 -0.17677626
0002a0 1e 38 5a 3b 70 b0 1f bd a6 1b 72 bd 71 41 5b 3d
       0.0033297609 -0.038986623 -0.0591084 0.053529207
0002b0 3c a3 88 bd 23 17 95 bd b0 a6 e4 3d 63 01 6d bd
       -0.066717595 -0.072798036 0.111646056 -0.05786265
0002c0 e1 71 f3 bd f1 c0 87 3d 9b d4 3d bc ad ed af 3d
       -0.11886955 0.066285975 -0.011586334 0.08590255
0002d0 87 d3 7c bb ee 67 82 3d ea 01 a3 bd ff dd 62 bd
       -0.0038578229 0.06367479 -0.079593495 -0.055387493
0002e0 b6 35 d3 bd 8c 2a ad 3d 3b 6a b2 3d db 35 14 bc
       -0.10312979 0.08455381 0.08711668 -0.009046043
0002f0 88 3b 15 3c c9 87 6c 3d 13 9d a6 3d 31 d9 22 bd
       0.009108432 0.057746682 0.08135428 -0.03975791
000300 be 7f 30 bd 9b 79 46 3d bb e1 dd 3d bd 46 b4 3c
       -0.043090574 0.048455816 0.1083407 0.022006387
000310 88 00 fd 3c 63 b5 7b bc 90 cc a1 3d 7b ef 22 3c
       0.030884042 -0.01536307 0.07900345 0.009944792
000320 ea f7 2f 3e 44 0d 21 3d cc db 1e 3d 5f 99 29 3c
       0.17184415 0.03931929 0.038783833 0.010351508
000330 ef ce 12 3e 0d df bf bc 90 be 7e 3c 15 40 9d 3d
       0.14336751 -0.023421789 0.015548363 0.07678238
000340 4e 67 65 3d 17 f0 4f bd 78 65 91 3d a1 07 b2 3d
       0.056006722 -0.050766077 0.07099432 0.08692861
000350 b2 fd 14 3e 46 fc 8f 3d e5 7b 02 3d 84 73 7f 3c
       0.14549902 0.07030539 0.031856436 0.015591506
000360 46 20 44 bd be 76 f1 3d 1d e8 b6 bd b9 5c af 3d
       -0.04788234 0.117902264 -0.08930991 0.08562607
000370 55 f0 c3 3d fe 77 0e 3e 45 c4 21 3d 52 fe c9 bc
       0.09567324 0.13912961 0.039493818 -0.024657402
000380 08 94 50 bd 7a 93 61 3d 72 33 18 3d 4c 18 4c 3d
       -0.050922424 0.055072285 0.037158437 0.04982786
000390 0e 70 fa 3d c1 f6 c5 3d e1 65 a8 3d 22 71 48 bd
       0.12228404 0.09666205 0.08222557 -0.048936017
0003a0 6c d0 82 bd 60 8b 13 3b d7 5f 56 3d d6 69 27 3e
       -0.063874096 0.0022513494 0.052337494 0.16348967
0003b0 c2 37 27 3e 70 0b 57 3e 23 b2 2a 3e d0 30 4b bb
       0.16329864 0.21000457 0.16669516 -0.0031004436
0003c0 86 1d 19 3e c9 8e 7c 3d b0 72 05 3e 9c ee 2a 3e
       0.14952669 0.061659608 0.13032031 0.16692585
0003d0 ab dd 15 3e ca b9 0a 3d 39 df 67 3e 38 52 7c 3a
       0.14635341 0.03386859 0.22643746 0.00096252887
0003e0 9b 35 2d 3e 5f 79 0e 3e d7 2e 15 39 24 01 01 bc
       0.1691498 0.13913487 0.00014227197 -0.007873807
0003f0 65 5e 48 3d 4d b7 3a bd fb f2 01 3e 5c a0 4e bd
       0.048918147 -0.045584965 0.12690346 -0.0504459

model.lstm.bias_hh_l0 f4 [256]
000000 e6 38 2b 3d ea 12 2a 3d 6c 4f 0f 3d 8a 62 30 3e
       0.04180231 0.041521944 0.034987852 0.1722509
000010 82 01 38 3d 73 19 d9 3d f4 25 0a bd e6 d7 46 3d
       0.044923313 0.10600557 -0.0337276 0.04854574
000020 cb 5c a8 3d 0b 78 4b 3e 25 35 c3 3c ad 7a 45 3d
       0.08220824 0.19870012 0.023829052 0.048212696
000030 a0 6a db 3c b2 d2 3d 3e 58 d0 03 3e 07 ef 3d 3e
       0.026784241 0.18537405 0.12872446 0.18548213
000040 95 0e 1d 3e 42 e4 31 3e ab 85 00 bd 6b c8 3f 3e
       0.15337594 0.1737223 -0.031377476 0.18728797
000050 e0 a0 04 3e e7 28 8f 3d 29 64 a6 bd d8 c4 a6 3d
       0.12951994 0.069902234 -0.08124573 0.08143014
000060 57 41 ae 3d 6e d7 0f 3e b3 72 b5 3d 7a 19 a2 bb
       0.08508556 0.14047024 0.08859768 -0.0049468847
000070 d9 18 10 3e d1 96 b1 bc 29 14 2f 3d 26 4c 10 3e
       0.14071979 -0.02167836 0.042743836 0.14091548
000080 3f 1c d0 3d 4a d1 3f bc ce c5 0f bd d5 b4 23 bc
       0.101616375 -0.011707613 -0.03510075 -0.009991844
000090 75 4f f6 3d bc c7 ba 3d f2 29 cc 3b 48 59 46 3e
       0.12026874 0.091201276 0.006230586 0.19369996
0000a0 6e d1 ac bd cd e2 22 3d 7f 97 9c 3d 8f ec 47 3e
       -0.08438383 0.039767075 0.07646083 0.19523834
0000b0 c4 d7 8f 3d e0 a6 87 3d 93 45 a1 3d 16 90 3d 3c
       0.07023576 0.06623626 0.07874598 0.011569997
0000c0 e5 0c 3b bc 7e 4f 94 bb 97 77 bb 3d 95 dc 23 bd
       -0.0114166485 -0.004526078 0.09153669 -0.040005285
0000d0 3b 90 25 3b 5e 36 43 bc 74 40 2f 3d ad 8e ac 3c
       0.002526297 -0.011914818 0.042786077 0.021064127
0000e0 43 5e 8c 3d 7a f9 2d 3e 84 2c 33 bd a8 b3 a0 bb
       0.068539165 0.16989699 -0.043743625 -0.004904229
0000f0 13 e1 0d 3e 67 3d 00 3c ce 58 06 3e f3 8c 60 3d
       0.1385539 0.007827139 0.13119814 0.05482192
000100 59 06 d3 3d 4d 4e c6 bb 7d 1f 91 3d 9f 29 43 3d
       0.10303945 -0.0060518146 0.07086084 0.047647115
000110 6d 70 9e bc b4 68 bc bd 5a f6 9a 3d d5 7d 7c bd
       -0.019340718 -0.09199658 0.07566519 -0.06164344
000120 6d 13 e3 bd fa 01 1b 3d 92 ac 30 3c c5 9f 47 39
       -0.110876895 0.037843682 0.0107833315 0.00019037638
000130 05 e7 a7 3d 5d ea dd bd a2 47 05 3d 1f 5f c9 3d
       0.0819836 -0.10835717 0.032539017 0.09832596
000140 0b 6e 44 bc 9c 07 8f bd 86 72 92 bd ca 45 01 3e
       -0.011989127 -0.06983873 -0.0715075 0.12624279
000150 cf 82 8b bd f0 57 da 3d e8 8e 07 3e 68 e0 1b 3d
       -0.06812059 0.10661304 0.13238108 0.038055807
000160 ec 41 c6 bc 05 27 5c bd e8 b3 a5 bd 9f 85 b6 3b
       -0.024201356 -0.05374815 -0.08090955 0.005570128
000170 72 11 d9 3d 6c 13 91 bc 9e 13 86 3d 3a 39 07 3e
       0.105990306 -0.017709456 0.065467104 0.13205424
000180 e4 a0 dd 3c 3c c9 b9 bd 4a 8e 1d 3d b4 cd f6 3d
       0.027054258 -0.090715855 0.038465776 0.120509535
000190 1d 98 c6 3d ee 6a 5f 3d 6a 80 af 3d c6 3a 14 3c
       0.09696982 0.054545335 0.08569415 0.009047216
0001a0 2e 67 a7 bd b5 ac bf bd ac cf e5 3d 4d c6 ad bd
       -0.08173977 -0.09359113 0.11221251 -0.084850885
0001b0 3f 01 99 3d 49 a6 a7 bd dd de 45 bd 13 2e fd 3c
       0.07470941 -0.08186013 -0.048308242 0.030905759
0001c0 72 03 61 3d ef ca a8 3d c8 f8 92 3d 5a 36 73 3d
       0.054934926 0.082418315 0.071763575 0.059378006
0001d0 ac ae a4 3d c6 63 f2 bb 82 2c f5 bd 36 63 8c bc
       0.080411285 -0.007397148 -0.1197138 -0.017137151
0001e0 e4 b9 13 3d 44 a2 87 bc 5d c1 81 3d 05 3f ee 3d
       0.03606595 -0.016556866 0.06335709 0.11633114
0001f0 a7 30 13 bd a5 ee f6 3d 6e b2 ec 3c 87 a7 9e 3d
       -0.03593507 0.120572366 0.028893676 0.07746797
000200 c1 c9 a9 bb 30 9c cd bd 21 f0 7d 3d 90 e9 25 3e
       -0.0051815216 -0.10039556 0.061996583 0.16202378
000210 87 61 a8 bd 24 63 65 bd 60 09 05 be 7f 98 01 3e
       -0.08221727 -0.05600275 -0.12991858 0.12655829
000220 26 02 dc 3b 86 a2 ee bc d8 c2 96 3d 5f 2a 22 be
       0.0067141233 -0.029130232 0.07361382 -0.15836476
000230 7a b1 34 bd 9d fb f4 3d 54 0e c2 bd a3 68 3d 3d
       -0.044114567 0.11962054 -0.09475389 0.046242367
000240 e7 06 e7 3b 32 89 fa 3d 2c 98 10 bd ad bc a0 bd
       0.0070503834 0.12233199 -0.035301372 -0.07848487
000250 86 97 84 ba 67 c9 4a bd 53 61 f5 bd e4 e4 db bd
       -0.0010115958 -0.04950848 -0.11981454 -0.10737017
000260 2c 84 ee bd b0 d6 fa bc 4c 29 8d bd f8 9d c1 bd
       -0.116463035 -0.03061995 -0.068926424 -0.09453958
000270 06 d9 60 3c e2 90 c4 3d 2f 49 d0 3d d2 df 0d 3e
       0.013723617 0.09597947 0.10170209 0.13854912
000280 39 3c 06 3e 5b 4c aa 3d f1 53 03 be 69 5c a4 bd
       0.1310891 0.08315345 -0.1282499 -0.08025438
000290 4c ef d5 3d 43 ea cc 3d b9 5a f1 3d ac d1 36 be
       0.10446033 0.100056194 0.11784882 -0.17853421
0002a0 10 50 e1 bd 64 36 92 bc 4b d3 a8 3b 74 ab b6 3d
       -0.11001599 -0.017848201 0.005152141 0.08919421
0002b0 f7 f1 63 3d 2a 52 93 3c 93 20 4f bd 03 7e ce 3d
       0.055650678 0.017983515 -0.050568175 0.100826286
0002c0 ae b3 74 bd ab 9b 05 be b0 d6 16 3e 74 e3 69 bd
       -0.05974167 -0.13047664 0.14730334 -0.05710168
0002d0 e1 2a a8 3c 36 be 84 3c ca 33 dd bd a5 6e 49 bd
       0.020528259 0.01620398 -0.108008936 -0.049177784
0002e0 be 19 9d 3d 83 d6 d0 bb b2 af 23 bd 8d 24 7a bd
       0.076709256 -0.006373228 -0.039962478 -0.061070014
0002f0 e4 c0 88 3d 47 79 c4 bd 47 d1 9f 3d 53 98 78 bd
       0.06677416 -0.09593444 0.07803588 -0.060692143
000300 98 ad 3e 3d f6 6b bf 3d e2 7b 1c 3d d2 85 02 3e
       0.04655227 0.09346764 0.03820408 0.12746361
000310 33 4e 36 bd 73 f2 68 3c 73 c5 84 bc 5f 90 10 3e
       -0.04450817 0.014217961 -0.016207432 0.14117573
000320 ce ee 4a 3c 9c 29 45 3e 00 3e 19 3e ac 50 af 3d
       0.012386037 0.19254154 0.14965057 0.08560309
000330 51 c3 d8 bc 85 79 2f 3c e5 77 6d bc ff 64 5c 3d
       -0.026460322 0.010710125 -0.014493917 0.053807255
000340 ce cb 35 bd cc ae 0e bd 60 64 bb 3d 0d 2f 6a 3e
       -0.044383816 -0.034834668 0.091500044 0.22869511
000350 5c 65 12 3d f0 a3 13 3c 72 75 18 3e d3 01 e7 3d
       0.035741195 0.009011254 0.14888552 0.11279645
000360 57 69 28 3e b1 81 23 3d 9d e8 ca 3d 65 6d 8c 3d
       0.16446434 0.039918605 0.09907649 0.06856803
000370 7d f5 2f 3d 8a ef 25 bc 47 65 c9 3d 4c e2 8e bc
       0.042958725 -0.010127911 0.0983377 -0.017441891
000380 3c f4 b5 3d e0 13 3a 3c d5 8f bd 3d 96 4f 55 3d
       0.08884475 0.011357278 0.092559494 0.052077852
000390 d8 a2 fb 3b 7d b1 34 3e f5 8b 02 3c 40 96 06 3e
       0.0076793246 0.17645831 0.007967939 0.13143253
0003a0 f5 6b a6 3d 82 fb 75 3d 81 23 5c 3e a6 6a 29 3e
       0.0812606 0.06005431 0.21497919 0.1654459
0003b0 0e c8 d0 3c 64 65 de 3d 25 3e b4 3d d3 2c 49 3d
       0.025486019 0.108591825 0.08800916 0.049115013
0003c0 38 9d 0b 3e 60 54 37 bd 86 17 8a 3d 6a 1e f3 bb
       0.13634193 -0.0447582 0.06742768 -0.007419397
0003d0 6e f1 b8 3d fb 0d 50 bb a2 67 33 3e 6f c3 e4 3d
       0.09030424 -0.0031746614 0.17520002 0.111700885
0003e0 d6 a5 3d bc 75 4d b6 3c 61 12 00 3d ce fd f1 3c
       -0.011575183 0.022253731 0.031267527 0.029539969
0003f0 61 37 79 3d 0a 5e 12 bb 04 36 05 3d 26 8b 39 bd
       0.06084383 -0.0022333884 0.032522216 -0.045298718

model.policy_head.weight f4 [4, 64]
000000 8c f5 4c 3e b6 22 27 be 33 12 56 be 15 a7 05 3e
       0.20015544 -0.16321835 -0.2090538 0.13052018
000010 2f 06 14 3e f1 a3 d1 3d ab ad 2b 3e f3 bb f1 3d
       0.14455484 0.102363475 0.16765468 0.118034266
000020 62 42 05 3e ce bc 2b be 56 e8 32 be 83 95 44 3d
       0.13013604 -0.16771242 -0.17471442 0.047994148
000030 6c 1f 53 3e 07 0b ce 3d f7 8a 92 bd 0b 63 87 3e
       0.20617455 0.10060697 -0.07155412 0.2644275
000040 16 80 4c 3e 36 c6 ce bd c9 78 26 be 8a 2d 16 be
       0.19970736 -0.100963995 -0.16257013 -0.1466581
000050 7d ef 56 3e a2 33 97 3c d9 6a a8 bd d5 e2 9f 3b
       0.20989795 0.018457238 -0.082235046 0.0048793354
000060 d9 cb d5 3c ae 57 da 3b 8d 14 a4 3d ef 0a 0d bc
       0.026098179 0.0066632843 0.08011732 -0.008608564
000070 6e f1 46 3e 54 e3 25 bd 81 b1 11 be 6e 06 9b 3d
       0.19428036 -0.0405 -0.14227869 0.07569586
000080 c8 e8 13 3d f3 08 c2 bb 10 4c 3b bd af f8 22 3e
       0.03611067 -0.005921477 -0.045726836 0.15915178
000090 14 8b 07 3e ea 7c 7c 3c d9 8b c9 bd 14 18 9e bd
       0.13236648 0.015410641 -0.09841127 -0.07719436
0000a0 7a 23 89 3d 37 d4 a2 bd db 53 2a be 49 fa 82 be
       0.0669622 -0.07950633 -0.16633551 -0.25581577
0000b0 d6 03 25 be 7e 5b 0d bd 00 83 90 be 10 a2 87 3e
       -0.16114745 -0.034511082 -0.28224945 0.2649083
0000c0 95 52 8b 3e dc f5 88 3d 73 9b 03 3d dc 97 85 3d
       0.27211443 0.06687519 0.03213067 0.065231055
0000d0 a4 3b ba bd d8 5b 52 3c fa 6a e8 3d 38 0d a2 bd
       -0.09093407 0.01283928 0.11348529 -0.079126775
0000e0 b7 46 99 bb c2 21 51 be f0 4f 80 3e 1a 48 8b 3e
       -0.0046776193 -0.20423034 0.25060987 0.27203447
0000f0 3d 6f cb 3d 85 ef 1f 3d 9c 95 23 be 9e 85 f5 bc
       0.099333264 0.039046783 -0.1597504 -0.02997094
000100 94 ad b9 bd 98 fe 87 3d a8 28 4e be 1c d9 29 3e
       -0.090663105 0.06640357 -0.20132697 0.16586727
000110 64 43 03 be ed d2 1e be cf 51 ae bd 13 6a 87 bc
       -0.12818676 -0.1551015 -0.085116975 -0.016530072
000120 2f 20 d2 3d f2 8d ae bc 74 4e 4e be 66 5a 08 be
       0.10260045 -0.02130792 -0.20147115 -0.13315734
000130 95 17 25 3e 8d f6 ea bd bb 1d 46 be a1 a0 2f be
       0.16122277 -0.11472807 -0.19347279 -0.17151119
000140 3f 33 32 be 7c d8 1c be 19 7a cf 3d b1 58 7d be
       -0.17402361 -0.15316957 0.1013071 -0.24740864
000150 80 a4 49 be 0c 10 61 be 19 c7 d2 3d c1 a0 1e 3d
       -0.19691658 -0.21978778 0.10291881 0.038727526
000160 86 52 fd bd 49 be d1 3d 4b fd 2e be c4 6b ff bd
       -0.12369256 0.10241372 -0.17088811 -0.124717265
000170 21 8e c2 3d ba 2d 94 bd 82 d7 0b 3e 57 b4 ca 3d
       0.09499765 -0.07235284 0.13656428 0.09897678
000180 64 fc 36 3e a9 64 95 3d 54 12 ef bc be ec 9e bd
       0.17869717 0.0729459 -0.029183544 -0.07759999
000190 c4 91 63 bd 1e 2d 8a be c0 df 01 3e 23 60 62 3d
       -0.055558935 -0.26987547 0.1268301 0.055267464
0001a0 e2 72 b3 bd 3e cd 59 be 9d f0 17 be 39 09 fd 3d
       -0.087621465 -0.212697 -0.1483788 0.12355275
0001b0 6c 8f 27 be dd b9 89 be 19 44 3d 3e 6d bc 90 bd
       -0.16363305 -0.26899615 0.18483008 -0.07067189
0001c0 91 ab a1 3d 4a 8e e8 3d ff 0b 96 3d 70 62 06 be
       0.07894052 0.113552645 0.07326507 -0.13123488
0001d0 58 38 7e be 72 2d 26 3e 02 97 7a 3e f4 36 2d be
       -0.24826181 0.16228274 0.24471667 -0.16915494
0001e0 c3 28 24 bd bb 93 76 be 87 85 d6 3d a3 30 80 be
       -0.040077936 -0.24079792 0.10474687 -0.25037107
0001f0 ae a4 d4 3d 91 7e f4 bd b6 82 13 3e b4 d7 ec bd
       0.10382973 -0.11938203 0.14405331 -0.115645796
000200 33 a1 58 bd df 27 34 bd 56 73 51 3e 6f 0f 97 3d
       -0.052888107 -0.043983337 0.20454153 0.073759906
000210 6b e8 7d bd 25 f7 b1 3d 39 9e 8e bd c5 de 24 3e
       -0.06198923 0.08689717 -0.06963772 0.16100605
000220 5c 61 63 be e4 eb 7a 3e 3d a6 4e 3e 6d 15 bc bc
       -0.22205108 0.24504048 0.20180602 -0.022959435
000230 ce 93 61 be 24 e1 f6 3d 88 61 06 3e 1a 7e 43 be
       -0.2202904 0.12054661 0.13123143 -0.19091073
000240 f6 e3 00 3c f6 16 8b 3d 45 94 da bd 97 e2 8a 3e
       0.00786685 0.06791489 -0.106728114 0.27126
000250 17 d4 bb bd e8 77 10 3e 84 ef d2 bd 50 a4 1b be
       -0.09171312 0.1410824 -0.1029959 -0.15199399
000260 0d 05 bf bd 4c 0b c7 bd ec 74 97 bc c8 6f c5 3a
       -0.09327135 -0.097189516 -0.01848837 0.0015063221
000270 4d 5b 28 3d 9a 66 1b 3d c9 a5 00 3e ca cd fd 3d
       0.041102696 0.037939645 0.12563242 0.12392767
000280 e6 b5 dc 3d f2 2d 3c be 02 d4 21 be f7 a9 ed bd
       0.10776882 -0.18376902 -0.15803531 -0.11604684
000290 8e 66 2d 3d ed a8 18 3e 3a 58 0a bd ff 91 c6 bd
       0.042334132 0.1490819 -0.033775546 -0.09695815
0002a0 be cc 24 3e 55 df 0b 3e 84 f7 b0 3e 11 c8 67 3e
       0.16093728 0.13659413 0.3456384 0.22634913
0002b0 48 1d a4 3e 14 f6 27 3e aa 97 13 3e 81 0e 99 bc
       0.3205359 0.16402465 0.14413324 -0.018683674
0002c0 bd 88 8a be a2 af 37 be 89 f3 df 3d 60 5a 19 bc
       -0.27057448 -0.17938092 0.109351225 -0.009359926
0002d0 4d da 6a 3e 96 f2 49 be bb 7a a7 be b2 be 23 3e
       0.22934838 -0.19721445 -0.32710823 0.15990713
0002e0 13 d1 ae bd 59 9d cd 3e 44 93 11 be d7 37 71 bd
       -0.085359715 0.4015911 -0.14216334 -0.058891144
0002f0 78 67 9e 3c bd 23 93 bd 6a 59 0d 3e c9 cf f5 3d
       0.019336447 -0.07184551 0.1380364 0.120025225
000300 99 d7 80 be f4 57 92 3e e2 a6 f9 3d cf 00 40 be
       -0.25164488 0.28582728 0.121900335 -0.18750308
000310 be fa 57 3e 9f 8b 8e 3c f3 fa 4f 3d 9e e5 64 be
       0.21091744 0.01740056 0.050776433 -0.22353217
000320 91 24 b0 3d 4e 5f ae 3d 1f 02 87 bd 8e 5c 8b 3e
       0.086007245 0.08514272 -0.065922014 0.2721905
000330 2c 3f 08 3e e9 81 55 be 6e 64 8d 3e 22 5b 3c bd
       0.13305348 -0.20850338 0.27615684 -0.04598535
000340 4b 7d d4 bd 53 17 b5 bd b3 62 d7 3d 59 b2 36 3e
       -0.1037546 -0.08842339 0.10516872 0.17841472
000350 69 a2 02 3e 6a ed b2 bd 2b 88 7a 3e 48 a9 77 3e
       0.12757267 -0.087366894 0.24466006 0.2418567
000360 ca 9e 59 3d e2 c1 7b 3c bc b9 96 3e d8 03 00 3e
       0.05312995 0.0153660495 0.2943858 0.12501466
000370 19 3a b5 bd 2c 08 00 3e 91 d9 13 be 36 90 6e be
       -0.08848972 0.12503117 -0.14438464 -0.232972
000380 29 d8 66 bd bd 55 21 3e ca 17 3c 3e 0d 77 23 3e
       -0.05635849 0.15755363 0.1836845 0.15963383
000390 ad df c5 bc c3 0f 0f be 62 75 e0 bd 27 bf 88 3e
       -0.024154508 -0.13970856 -0.10959889 0.26708338
0003a0 cb 4e 06 3e 3b 51 7f 3e dc d9 57 3e 19 18 98 3d
       0.13115995 0.2493333 0.210792 0.07426471
0003b0 b9 29 93 3d 25 4d 5f 3e f1 d9 60 3e 11 27 62 bd
       0.07185692 0.21806772 0.21958138 -0.055213038
0003c0 26 c0 7d be b1 fe 1e 3e 3a 2e 99 be e1 2e 6b 3e
       -0.2478033 0.15526845 -0.2991808 0.22967102
0003d0 30 03 70 3e 77 fc 88 be 28 b9 51 be 4a 52 3e 3e
       0.23438716 -0.26755115 -0.20480788 0.18586078
0003e0 7f 82 86 3d 88 93 3e 3e 78 69 83 3c 49 16 1e be
       0.06567859 0.18610966 0.016041502 -0.15438189
0003f0 ad a9 74 be c2 c4 7a 3e 9f ea 40 be 4d d3 83 be
       -0.23892851 0.2448912 -0.18839501 -0.25747147

model.policy_head.bias f4 [4]
000000 cf 82 ec 3d 99 9d 08 bd 63 20 b5 3b 08 87 0b be
       0.11548387 -0.03335342 0.0055275424 -0.13625729

model.value_head.weight f4 [1, 64]
000000 a0 85 4f 3e eb 25 26 bd 61 c4 f1 3d c1 d4 97 3c
       0.20265818 -0.040563505 0.118050344 0.018534066
000010 c4 b5 fe bd 24 9c c5 3d f5 63 89 bc 5c b0 2e 3c
       -0.12437013 0.09648922 -0.016771296 0.010662165
000020 22 62 3d be af 18 e6 bc ab 9c 9a 3d 2f e2 3e 3e
       -0.18494466 -0.028087942 0.07549413 0.1864097
000030 0d 4f 3e bd 5f e1 0f 3e 55 5a 91 be 0e f6 c5 3d
       -0.046462107 0.14050816 -0.2838923 0.09666072
000040 8f 7e 4d be c0 05 cb bd e5 ff 20 3e 64 d2 94 3c
       -0.2006781 -0.09913206 0.15722616 0.018166728
000050 6c 32 54 3d bb ed b9 3d 51 c9 c3 3d 3c 43 6f bb
       0.0518059 0.090785466 0.095598824 -0.003650858
000060 37 ee 8d be 41 97 89 be 23 45 b8 3d fa 67 e5 3d
       -0.27720806 -0.2687321 0.08997562 0.112014726
000070 ff 9a 08 bd 2d 87 4b 3e 27 9a bd 3d 3a 19 cf 3d
       -0.03335094 0.19875784 0.09257918 0.101122335
000080 4f 17 21 3e 21 b4 b5 3d 72 73 e5 3d 02 c1 0f 3e
       0.15731548 0.088722475 0.1120366 0.1403847
000090 65 8c e2 bd f1 79 db 3d 76 86 a8 bd 46 c5 6f 3d
       -0.110619344 0.10716618 -0.082287714 0.058537744
0000a0 16 f0 b4 bc 78 92 98 bd 43 8c ca bd 21 f6 c2 3d
       -0.022087138 -0.07449812 -0.09890034 0.095196016
0000b0 ce 19 53 bd 08 35 6f be a0 06 85 bd 01 cc c8 bd
       -0.05153828 -0.23360074 -0.06495404 -0.09804536
0000c0 04 6e ff 3d 46 41 4a bd 8d 0c cd bc 78 46 28 3e
       0.12472156 -0.049378656 -0.025030399 0.16433132
0000d0 81 25 80 3d d9 a8 b1 bd 2c df 47 3c 00 5f fd bd
       0.06257153 -0.08674783 0.012199204 -0.123716354
0000e0 36 20 8d bd f6 7c af bd b9 58 f8 bd 9c 32 39 3c
       -0.068909094 -0.08568756 -0.121262975 0.01130357
0000f0 61 8e 41 be fc f8 e3 bc da d1 db bd 54 07 58 bc
       -0.1890197 -0.027828686 -0.107333854 -0.013185341
