lab/submissions/alice_agent.pth (torch, 82037 bytes, 6 tensors)

model.lstm.weight_ih_l0 f4 [256, 10]
00000000: 0ac7 97be 0184 74be 02db 95bd 8ceb 873d
00000010: fec9 b43d 329a 983d 055f 183e 72ff 92be
00000020: f8cc 1b3e 6608 1cbe 15c3 063f 171c ac3e
00000030: d41d 243f 52a9 913e b8db d6be 0448 bdbd
00000040: 3d03 a23d b196 a73e ca55 f53e eb6f ea3e
00000050: b6e4 bebe 687d abbe f8a3 00bf 5509 afbb
00000060: c38c 843d ce46 3c3e d760 c63e 743d b93d
00000070: 9779 053e 6afc e13e 610b 7b3d f564 0fbe
00000080: a8ce d23e 39dc 883e d197 b23e db18 013e
00000090: 0b93 823e aeb1 523e da4e e13e 7395 993e
000000a0: b53e 22bf 1394 b2be 3958 88be ca8a 753e
000000b0: 242a 023f 56cf c73c 6900 543f 5c48 8f3e
000000c0: 0c77 c1bc efbc 16bd 33f2 c1bf 0f2a 0dbf
000000d0: 549b 9f3e 7fa9 b53e ca71 f23e 6334 ce3d
000000e0: df9d f13e 35ee 69be 1344 f2bd 5770 4f3e
000000f0: 96fe 473e be56 71be 3cdc 01bf bbec 073e
00000100: c382 f23d a2ce 9b3d 2693 713e 1174 34bc
00000110: 367d 71be 0d7c 4dbd 5f8b 113f 358c 5c3e
00000120: 2334 5f3e bca1 6dbe 6822 38bf 1fb1 50bd
00000130: 190c 10be 718e 04bd 876c cd3e e6f9 cd3d
00000140: 21df 92bf 1e68 6dbd 7f79 283f eb0a 343e
00000150: 32a9 bd3e 4108 91bd 9392 183c 0fdf c1be
00000160: dd5b 0fbd 39c2 bb3e b60d a2bd 260d dabd
00000170: 1950 88bf 81ca b0be c47b 743e b78e 79bd
00000180: d7fa 3abd 364d 983d 6b95 f43c 5046 c13a
00000190: cb76 ad3e 20cd 01bd 3d9d 1bbe 5931 1ebe
000001a0: 22ba 61bd 1ae0 6dbe ea63 52bf dff7 1c3d
000001b0: 2c47 8d3d 048e c3bd d0f6 0cbe c6fd f63d
000001c0: 7781 513e c2da 0a3e 7b72 a63b e58f f93d
000001d0: 4fba bd3c 95aa 04be 6e44 4b3e f432 93be
000001e0: eb75 1bbe ba06 e0be f884 abbf 0373 bbbe
000001f0: 2bb3 063e fd40 06be 7fe1 12bf 9e14 5fbe
00000200: 43ec a2bd dcc9 7d3e ca4d 353f 0f1c 803e
00000210: 8369 c23e 343e c53c a418 7ebe b283 93be
00000220: 29d9 4fbe 831c 40be b73f 1b39 95d2 843c
00000230: 1dec debf 0a1f d0be e0f3 3a3e c041 313e
00000240: b6b4 38be 20bd 96bd 1433 313d 3f1a 0bbf
00000250: 6e11 3f3e 3797 753e 9daa 51bf ffa5 debe
00000260: 7f3f 93be 39b2 0bbe 042b 243d 8024 a43b
00000270: 8486 dcbd 70f2 44be b6bf 5fbd 7ffa a53d
00000280: 0c81 fe3e 25ab 723d 5624 883e 2e61 ce3d
00000290: 153c 1d3f 5702 543e b87d 2ebf 484e 413e
000002a0: 8d5e 6f3e 49e0 833e c47d a93b 77e9 693d
000002b0: 4669 0c3e cc86 6cbd 11ae c3be b4bb 3cbd
000002c0: e52e 943d 3f5f fbbd 9206 303f 80fe d83e
000002d0: 7fb5 023d 088f c83d 3d09 7abe 8b31 00bd
000002e0: 81e9 e9be e03c c2bd ccd6 babd 7a68 7cbd
000002f0: e544 39bd 9b21 6bbe 03b2 eb3e e4a3 d0bc
00000300: a854 583c 048c 353e 3264 543e 4429 f0be
00000310: c7b6 93bf f37e aebe fefb 01bd a06b ae3b
00000320: e659 27bf eb97 55be a809 aa3d 13d8 87bd
00000330: d0ca 2abe 2109 6bbd 7cc3 c33d 401b a8be
00000340: acb1 8abe d02a 703e ca59 a13e b544 b93e
00000350: 81d0 333f ca2d a73d faae b2be 098e 6a3e
00000360: f49c da3e a903 e23e e456 2d3f 11df 423f
00000370: edfd 9abd 3a1b 92be ac19 a8be 58a5 60be
00000380: 8bae c33d 759e 21be e441 263d 54c7 b6be
00000390: df72 2d3e 32b8 33be 06a8 00bf 0538 813d
000003a0: 848e 523e 3f0c 743e 36ae 393f 9043 963d
000003b0: ef9c 92be 8225 0cbe 34f8 3e3e 6983 913e
000003c0: ca40 653d da5b 703e 3782 a33e 15a8 d8bd
000003d0: 5083 c3be 3c6a 69be 3238 d93d b411 093d
000003e0: 8800 2dbe f07e ca3d 3d20 94be 1a19 3dbe
000003f0: 8c98 6d3e ede3 5ebd 236c 71bf d822 5f3c
-0.29644042 -0.2387848 -0.07317163 0.06636724 0.088275895 0.074512854 0.14879997 -0.28710514
0.15214908 -0.15237579 0.5264142 0.3361518 0.64108014 0.28449494 -0.41964507 -0.092422515
0.07910774 0.32732156 0.47917014 0.45788512 -0.37283868 -0.33494115 -0.50250196 -0.0053416886
0.06472161 0.18386385 0.38745758 0.090449244 0.13034664 0.4413789 0.06129015 -0.14003356
0.4117329 0.26730517 0.34881452 0.12607138 0.2550281 0.20575592 0.4400547 0.29996833
-0.63376933 -0.34878597 -0.2662981 0.23978725 0.5084555 0.024390858 0.82813126 0.27984893
-0.023616336 -0.036801275 -1.5152038 -0.551423 0.31173193 0.35480878 0.4735244 0.10068586
0.4719076 -0.22844775 -0.118293904 0.20257698 0.1953071 -0.23568246 -0.50726676 0.132739
0.11841347 0.076077715 0.23591289 -0.0110140005 -0.2358292 -0.050167132 0.5685329 0.2153786
0.21797232 -0.23206228 -0.719275 -0.050950166 -0.14067115 -0.032362405 0.40121862 0.1005743
-1.1474344 -0.057960622 0.6581039 0.1758229 0.37043148 -0.070816524 0.00931229 -0.37865493
-0.034999717 0.36671618 -0.079127714 -0.10647039 -1.0649444 -0.34529498 0.23875338 -0.06092712
-0.045649376 0.07436602 0.029856404 0.0014745686 0.33879694 -0.031689763 -0.151967 -0.15448512
-0.05510915 -0.23230019 -0.82183707 0.038322326 0.068983406 -0.09548572 -0.13766026 0.12060122
0.20459543 0.13560012 0.005079565 0.12185649 0.023160128 -0.12955697 0.19850323 -0.28749812
-0.15181701 -0.43755132 -1.3399954 -0.36611184 0.13154285 -0.13110729 -0.5737533 -0.21785209
-0.079552196 0.24784034 0.7082182 0.25021407 0.37971124 0.024077512 -0.24814087 -0.28811413
-0.20297684 -0.18760876 0.00014805688 0.016213695 -1.7415806 -0.4064868 0.18257093 0.17310238
-0.18037686 -0.073602915 0.043261603 -0.54336923 0.18658993 0.23983465 -0.8190096 -0.4348602
-0.2875938 -0.13642205 0.040080085 0.005009234 -0.10767844 -0.19233108 -0.05462619 0.08104419
0.4970783 0.059245247 0.26590222 0.10077129 0.614198 0.20704018 -0.6816058 0.18877518
0.23375912 0.25757053 0.005172463 0.057107415 0.13712034 -0.05774574 -0.3821874 -0.046077445
0.07235507 -0.12274026 0.68760026 0.42381668 0.03191137 0.09792906 -0.24417587 -0.031297248
-0.45685962 -0.09484267 -0.091230005 -0.061623074 -0.04523172 -0.22962038 0.4603425 -0.025468774
0.013203777 0.17729193 0.20741346 -0.46906483 -1.1540154 -0.3408123 -0.03173446 0.0053228885
-0.6537155 -0.20858733 0.08302623 -0.0663301 -0.1667893 -0.057381753 0.0955877 -0.3283329
-0.27088678 0.23453832 0.31513816 0.36185232 0.70240027 0.081630304 -0.34899122 0.22905745
0.4269787 0.44143417 0.6771071 0.7612162 -0.07567964 -0.28536397 -0.32832086 -0.21938074
0.09554776 -0.15783103 0.040590182 -0.3569895 0.16938351 -0.17550734 -0.50256383 0.06309513
0.20562178 0.23832797 0.7253145 0.07337105 -0.28635356 -0.13686183 0.1864937 0.2842057
0.05596999 0.23472539 0.31935284 -0.10578934 -0.3818612 -0.22794431 0.106064215 0.03346415
-0.16894734 0.09887493 -0.28930846 -0.18466607 0.23202723 -0.054416586 -0.9430563 0.013619147

model.lstm.weight_hh_l0 f4 [256, 64]
00000000: a993 cfbd 6462 a63d ed52 7abe 5e2e 353d
00000010: da89 393d a5e9 1dbe b96b dbbd 8c90 0abe
00000020: 5088 4e3c 9c52 98bc 36c6 53bc dd76 64bc
00000030: 270b d93d 4bb1 58be 40ca 61bc c30d 273d
00000040: d604 1e3c c099 733e 3de2 08be bd9c 5bbd
00000050: a6f5 9ebd 589f 5a3e a7a5 15bd 7111 98bd
00000060: 3b72 4e3d 72c7 523e 1f39 7c3d 00c2 2cbd
00000070: 3e48 163e 7db3 e93d 7fdb e0bc c077 083c
00000080: 9c2b 353e 911c 15be 1d53 54bd 8a0a fc3c
00000090: 8ca5 4dbd 445a f2bd e912 2abc b498 63bd
000000a0: b001 8b3d 56c8 f3bd 466b c8bd 5adf 803c
000000b0: 15b8 19be 0906 a9bd 3f7a db3d 1596 bbbd
000000c0: 5a3b 403b 77fd 29be 84b9 74bc 71c3 24bd
000000d0: 6677 3f3d 2bd3 7d3b 03a0 783d 52a6 91bc
000000e0: f429 523b 1c8d 72bd 8d6f bc3d 5025 6cbe
000000f0: 44a5 c3bd 19dd f2bc 4c17 323e 8618 88bd
00000100: 22a9 383f 40ba 45be 8c9a 713e deea dd3e
00000110: 9128 e43e a076 cdbd d3cd 12bf 56c0 cf3e
00000120: 9d06 8e3e ac2d 1f3f 2e76 ddbd e062 2abe
00000130: 2c28 9dbe 6396 413e fc99 f03e d525 8b3e
00000140: 6318 bb3c bda4 95bd 5be9 58bf 6558 36be
00000150: 8283 a1be a80f 9cbe 5bcb d03e 334a d53e
00000160: 5833 e93e 53ee d7be 78c4 683e 4899 243f
00000170: 7ce5 083e f7cb b1be 8036 a23e 800f f23d
00000180: ed41 8fbe 3dde 343e 7efe 7c3e baeb afbe
00000190: f28f 4abc 5719 c33e af26 f4bd 50a3 10be
000001a0: 318f ed3e 5f1b 4cbe befb 913f ba81 32be
000001b0: d9b6 2fbf 953c cdbd 176c 233f fa87 ef3e
000001c0: d329 d9be 8e90 f63d 8811 7dbe 7a7d 9bbe
000001d0: e604 9b3e c6b1 f8be 1009 333f 1547 cbbe
000001e0: 571a cc3e 5cc9 48be 8e25 173e 8355 e7be
000001f0: bab8 4dbe e0f4 88be 3989 2b3e b6de 9e3e
00000200: c0d9 4f3e fb26 f53d 3087 fdbd e3f6 673e
00000210: 6667 f23d 09a6 4dbd e753 babe b037 a3be
00000220: 4a98 91be 0e7b 033f e660 bc3e 5e86 68bd
00000230: b2b6 98be ffc7 1a3d f39d b73d 56fc 87bd
00000240: 359d 5ebe 1855 4bbd d09a 71be 7123 843e
00000250: dfe7 b1be d10c 91be 9b6f cd3e 4133 e63d
00000260: b090 8b3d 7a32 0e3c acc2 d5bd 7193 a13c
00000270: e42f 003b 7433 813d b399 c53d 5c05 9e3d
00000280: f24a 333d f76b d5be 0ccd f63e 0bb7 61bd
00000290: 1287 b6bd 86e2 013e 726b 2d3e eba8 cabd
000002a0: 6e7e e13e 2689 dabd 2731 953d 3e29 c9be
000002b0: 517d 313e fb39 6e3e 5534 5a3e da50 1f3e
000002c0: 1678 d2be c170 0d3e 69ad a5bd 3e9d b7be
000002d0: 2310 823d 8494 6c3d 3738 0d3e 7479 dabd
000002e0: 1e89 ad3d f6c1 8fbe 471c e53d 5b4b c0be
000002f0: f392 0fbe cc38 b9be 60cc a43e 3ba2 973e
00000300: 12eb 263f 5a75 bdbd 8d7a e33e 5f97 0f3e
00000310: 0fc8 8a3d 2210 c1be 0da9 55bf 0a24 143e
00000320: 62fd efbe 66c9 0e3f 59fa 953e db67 06bf
00000330: 863f 09be 306d 6c3d 209e 313f 1990 ff3d
00000340: 7ff0 51be 4598 2cbf 1c43 22be 7f0b 3fbc
00000350: 56a0 f1be 0d8d dfbe e513 b63e c7eb e23d
00000360: 9c65 953e 3be8 b7be e06f 963e e0bf 153e
00000370: 7222 8f3e 1d57 79be 0bf2 ec3e 0903 e7bd
00000380: ab19 993e 2de5 a6bd 4e63 bb3e d880 adbe
00000390: 6a25 cebe 3962 bfbd a4b0 02be 292a 96bd
000003a0: 81bf 033f 7333 12be 53d3 5c3e 8923 babe
000003b0: 7ae9 33be 578e 193f e3a1 533e 2804 4b3f
000003c0: 57b0 eabe bec0 2d3f 4a5e a6be 70d4 71bd
000003d0: ee3a 653e 3e09 323d e2d5 9a3e 3da1 a53d
000003e0: 16a2 193e 68e6 9cbe 1528 5f3e 77e9 f6be
000003f0: 45da 18be ca46 23bf 3fd9 443d ff1d e73e
-0.10135586 0.08124235 -0.24445696 0.044233672 0.04529748 -0.1542116 -0.10713906 -0.13531703
0.012605742 -0.018594079 -0.012925675 -0.013944355 0.1059783 -0.21161382 -0.01378113 0.04078461
0.009644708 0.2378912 -0.13367553 -0.053616274 -0.077616975 0.21349847 -0.03653493 -0.07425202
0.050401907 0.20583895 0.061577912 -0.0421772 0.14675996 0.11411188 -0.027448414 0.008329332
0.17692417 -0.14561678 -0.051837076 0.030766744 -0.050206706 -0.11833623 -0.010380485 -0.05556555
0.06787431 -0.119034454 -0.09786086 0.015731502 -0.15011628 -0.08253104 0.10716676 -0.09159485
0.0029332251 -0.16600595 -0.0149368085 -0.04022545 0.046744727 0.0038730602 0.060699474 -0.017779503
0.0032068463 -0.059216604 0.09200964 -0.23061109 -0.09553006 -0.029646443 0.173917 -0.066453025
0.72133076 -0.1930933 0.23594111 0.43343252 0.445622 -0.100323915 -0.5734531 0.40576428
0.2773942 0.62179065 -0.108135566 -0.1663928 -0.3069471 0.18905024 0.4699248 0.271773
0.022838777 -0.07306812 -0.8473107 -0.17807157 -0.31545645 -0.30480695 0.40780148 0.41658172
0.45546985 -0.42174014 0.22731197 0.6429639 0.13368791 -0.34725925 0.31682205 0.11819363
-0.27979985 0.17662902 0.24706456 -0.34359533 -0.012363421 0.3810527 -0.11921441 -0.14124799
0.4639831 -0.19932316 1.1404951 -0.174323 -0.6863838 -0.10021321 0.63836807 0.4678343
-0.42414722 0.1203929 -0.24713719 -0.3036917 0.30277175 -0.4857313 0.69935703 -0.3970267
0.39863846 -0.19608063 0.1476042 -0.45182428 -0.20089999 -0.26749325 0.16751565 0.3102929
0.20297909 0.119703256 -0.123793006 0.22652774 0.11836128 -0.05020717 -0.36392137 -0.31878424
-0.284365 0.5135964 0.36792678 -0.056768768 -0.29826885 0.037788387 0.08965673 -0.06639926
-0.21739657 -0.0496417 -0.23594213 0.2580829 -0.34747216 -0.2833009 0.4012421 0.11240245
0.06814706 0.008679027 -0.10437521 0.019723626 0.0019559795 0.06308642 0.096484564 0.07715866
0.043772645 -0.41683933 0.48203313 -0.055106204 -0.08912481 0.12684068 0.16935518 -0.098955
0.4404177 -0.1067069 0.07284766 -0.39289278 0.1733296 0.23264305 0.21309026 0.15558186
-0.41107243 0.13812543 -0.08089716 -0.35862154 0.06350734 0.057758823 0.13790976 -0.106676966
0.08473419 -0.28077668 0.11187034 -0.37557492 -0.140209 -0.36176145 0.32187176 0.2961596
0.6520244 -0.09250899 0.44429436 0.14022587 0.067764394 -0.3770762 -0.83461076 0.14466873
-0.46873003 0.5577606 0.29292563 -0.5250222 -0.13403139 0.057721317 0.69381905 0.12478656
-0.20501898 -0.67419845 -0.15845913 -0.011660456 -0.4719264 -0.436623 0.35562053 0.11080127
0.29179084 -0.35919365 0.2938223 0.14623976 0.27955967 -0.24349637 0.46278414 -0.11279876
0.29902396 -0.081491806 0.365992 -0.33887362 -0.4026292 -0.09344906 -0.12762696 -0.0733226
0.51464087 -0.14277439 0.21564989 -0.36355236 -0.17569533 0.5998282 0.20667224 0.79303217
-0.45837662 0.67872226 -0.32493812 -0.059040487 0.22385761 0.043465845 0.30241305 0.080873944
0.15003237 -0.30644536 0.21792634 -0.48224995 -0.14927013 -0.6377989 0.048058745 0.45140073

model.lstm.bias_ih_l0 f4 [256]
00000000: 6187 c2bd 3190 ed3e 09e8 ad3e e676 933e
00000010: e13b 0f3e 630c f13d de0a 8b3d 6f99 3d3e
00000020: ef30 bb3e d17b f13d 7f01 a03d c5e9 c1bc
00000030: 2499 203e e3d4 423e 5477 313e aca4 5f3e
00000040: 958b ae3e f189 a93e 5e11 e9bd 5e7e 9a3e
00000050: a552 91bd a471 363f 4a8e 213e 827c a53e
00000060: 0269 b33d 59b3 523e 9749 8b3e 93d0 383e
00000070: 318e 693c aeb1 023d 24f0 903e f860 c63e
00000080: 223e 9a3e d9fb 063f 9e0a 00be 6cbd 883e
00000090: 9abf 163e fbbd 703d 1235 783e bae0 f63e
000000a0: 7e69 413e 1882 3e3d 6419 c93e cbbe 763e
000000b0: 0c53 3b3e dc1c 0abd 8d89 603e 08a7 da3d
000000c0: 5b9b 2f3d a5c2 383d 8f4c a0bd 5b49 f13e
000000d0: 1cea 713e 98ca bb3e 365c 843e d02d 4e3e
000000e0: bcab 123e f507 d13d 9001 443e c414 9f3e
000000f0: 3dd5 de3c b101 023d 9a89 273f b866 0e3e
00000100: c16c 06be 8de8 1bbe fff2 cbbc d588 843d
00000110: eba4 c2bc 62eb 08bd c545 293c 55d4 8abd
00000120: efb1 bd3d 652f 533d f21e 613d 8ee0 b13c
00000130: 354a c8bd 7473 52be 99a5 3fbc 5911 00bd
00000140: 3653 e4bb 1b04 58bd 29e7 c3bd a55f c0bd
00000150: 88ba 943d d729 0ebe 95b5 97bd d7d6 f83c
00000160: 4c2c 9dbd 528c 1ebb de53 67be 6e22 c73d
00000170: 6505 0abe ef20 e2bd 49bb 0fbe 649a 50be
00000180: e5fa 493d 1224 683d ddf0 ee3c f98f 1abe
00000190: a7e7 733d f72b 26be f3b2 d23d 84de b0bd
000001a0: 9a4e 253e f792 f4bb 7e10 23be 5734 593e
000001b0: dc98 60bc 3a64 8abd 4fdf 843d 4a28 f5bd
000001c0: 53fc 903d 27ea c4bd 7339 28be cb7b 173c
000001d0: b28b 5cbd f8ca 0e3c 5ed7 973d 4e2a a2bd
000001e0: fd10 943d 4032 1f3e c8a4 843c 706b a93b
000001f0: bba1 833d e0ca 9a3c 8012 74be 0225 0f3e
00000200: c55e e43d 2b18 f7bc b8d8 e13c 4ec4 db3c
00000210: d8d2 273d 1c38 a0bd 4308 75be 2be1 87bd
00000220: d379 ad3d 2ed1 03bd 57e7 c9bd 457c ccbd
00000230: f477 c9bd 49ae cdbd 4f20 623d 6d76 0b3e
00000240: 4fe4 23bd c616 123e a79d a0bc ab4f 83bd
00000250: 4c29 37be 7f80 963d 9573 313e 1b7d d13d
00000260: 1435 1e3e 1f27 f93c 7ad6 2f3b ef48 f23d
00000270: cc5a ee3d 5ed3 92ba 9704 153d c133 a2bd
00000280: b554 66bc f927 ffbd f3ee 9739 e8c8 0b3e
00000290: 4080 f5bd 04b1 163d 5a82 eabd 32d5 0e3e
000002a0: ebd9 053e 0822 44bd 41a1 2d3e 64bf 203c
000002b0: f072 18be 44be 263e fe59 fb3d 5224 68bc
000002c0: 9f36 60bd f9c6 a03d 254b 68bd 138c f13b
000002d0: ee28 f1bd 4580 f8bd 6344 843d 66ed e5bd
000002e0: c807 c8bd 7ecf 19be a9c7 7e3d eb45 1ebe
000002f0: abf0 993d 4eb1 1ebe 43e1 143d 1ad6 5dbc
00000300: 2184 6d3d fa73 ea3e eb3b b43d aeae 9f3e
00000310: 229b c83e 0813 813e 91cf 2e3d a7be e53d
00000320: 7e34 b83e 4416 d03d 027d 7e3e dd8b f53d
00000330: 7eb5 963e e2b1 783e fd2a 163e 9387 753c
00000340: 6b7a 073f 8b09 3a3e 4031 3e3d a17f ce3d
00000350: 2acd 9fbc 8ea5 5a3e b412 9ebb d151 d53e
00000360: e77b 4ebd 07ea 7c3e 3d7a 663d 8cb8 d33e
00000370: c066 423e 14f2 2b3e 936b bd3e a5b1 c03e
00000380: 1a02 803e ee6b 8b3e 8da3 53bd 7ee6 2b3e
00000390: 9819 783e d003 8c39 e50a 453e 9ee4 af3e
000003a0: 3822 7cbd 35d2 063e 3950 5b3e d929 b83e
000003b0: ec0e c13e fc94 e53d d2f4 1d3e 4893 fabd
000003c0: e9a5 22be be5e a73d 4b9d e83d ed6c 533e
000003d0: 83a9 d73d 5858 993e 8ed0 273e 42cb ce3e
000003e0: e181 d53d d179 073c ab91 c83e e16b 0c3e
000003f0: 4a10 01bc eee5 2c3e f8ef 133f 74d7 ebbd
-0.09498478 0.46399072 0.3396609 0.2880165 0.13987686 0.11769941 0.06789182 0.18515562
0.3656077 0.11791194 0.07812785 -0.02367104 0.15683419 0.19026522 0.17330676 0.21840161
0.34090868 0.33113053 -0.11380266 0.30174536 -0.07095841 0.7126715 0.15776935 0.32321554
0.08760263 0.20576228 0.27204582 0.18048315 0.0142550925 0.03190773 0.28308213 0.38745856
0.3012553 0.5272804 -0.1250405 0.26707017 0.14721528 0.05877493 0.24238995 0.48218328
0.18887898 0.046510786 0.39277184 0.24096219 0.18293399 -0.03371893 0.21927471 0.1067639
0.042872768 0.045107502 -0.078271024 0.47126278 0.23624462 0.36678004 0.258516 0.20134664
0.14323324 0.10206596 0.19141221 0.3107053 0.02720129 0.031739894 0.6544434 0.13906372
-0.13127424 -0.1522543 -0.024896143 0.06471411 -0.02376028 -0.033427604 0.010331576 -0.0677878
0.09262454 0.05155887 0.054961152 0.021713521 -0.09779779 -0.20551854 -0.011697196 -0.031266544
-0.0069679273 -0.05273829 -0.09565575 -0.09393243 0.072621405 -0.13883148 -0.07407681 0.030375881
-0.076744646 -0.0024192524 -0.22590587 0.09723364 -0.1347862 -0.11041438 -0.14036287 -0.20371395
0.049311537 0.056675024 0.029167587 -0.15093984 0.059547093 -0.16227709 0.10288038 -0.086361915
0.16143265 -0.0074638086 -0.1592426 0.21211372 -0.0137083195 -0.06757398 0.06487905 -0.11970575
0.07079377 -0.096149735 -0.16428165 0.009245823 -0.05384416 0.008715384 0.07414125 -0.07918225
0.07229803 0.15546513 0.016191855 0.0051702783 0.06427332 0.018895566 -0.23835182 0.13978961
0.11150888 -0.030162891 0.02756916 0.026827004 0.04097256 -0.07823202 -0.23928933 -0.06634744
0.08470502 -0.03218191 -0.09858578 -0.0998464 -0.09837332 -0.10043008 0.055206593 0.13619395
-0.040012654 0.142665 -0.019606424 -0.0641168 -0.17886847 0.073487274 0.17329247 0.1022894
0.15449935 0.030414162 0.002683072 0.11830317 0.11638412 -0.0011201908 0.03638133 -0.079200275
-0.014058282 -0.12458796 0.00028978995 0.13650858 -0.11987352 0.03678991 -0.11450644 0.13948515
0.1307141 -0.047884017 0.16956045 0.009811256 -0.14887595 0.16283518 0.12273024 -0.014168816
-0.05473959 0.07850451 -0.05671229 0.0073714345 -0.11775385 -0.121338405 0.06458356 -0.11226921
-0.09767109 -0.15020558 0.06220213 -0.15456359 0.07516607 -0.15497324 0.03634764 -0.013539815
0.057987336 0.45791608 0.08800491 0.31187958 0.39180857 0.25209832 0.04267842 0.11218005
0.35977548 0.10160497 0.24852374 0.119895674 0.29435343 0.24286607 0.14664836 0.014985937
0.5292117 0.18167703 0.046433687 0.10082937 -0.01950701 0.21352217 -0.004824007 0.41663983
-0.05041113 0.2469865 0.05626892 0.41351736 0.18984509 0.16791564 0.36996135 0.37635532
0.25001603 0.2723078 -0.051669646 0.16787145 0.24228513 0.0002670572 0.19242437 0.3435411
-0.06155607 0.13166125 0.21417321 0.35969427 0.37706697 0.11210057 0.15425423 -0.12235123
-0.15883602 0.081723675 0.11358126 0.2064702 0.10530379 0.29950213 0.16388151 0.40389448
0.10425163 0.008268789 0.39173636 0.13713028 -0.007877419 0.16884586 0.5778804 -0.11515704

model.lstm.bias_hh_l0 f4 [256]
00000000: c7f0 313c 9d33 de3e fd09 0f3e e7be f43e
00000010: 2a27 0f3e eb19 f13d 3ee0 573e 5cce 8d3e
00000020: 6f7d 883e f73c 453e 0721 183e 78f3 873d
00000030: d8fc aa3e 35c4 c53d 7711 883e 348a 263d
00000040: 42fe ed3e 3d20 c73e 3b0b 29bd 502b 063e
00000050: 52b5 a8bd f6e6 543f 96d4 27bd 97da d23e
00000060: 9125 f73c 02d5 833e 6e57 233e 29ea 8f3e
00000070: dd23 ac3d d202 7f3e 44dc 7a3e 28c7 5c3e
00000080: b424 9b3e d7f4 f23e 9f19 1ebd dfb3 813e
00000090: 1726 793d e29c fd3d 99b9 8c3d 59b2 053f
000000a0: 7d36 d03d a95e cfbc 598f d03e e08a 503e
000000b0: b003 4a3e f53e d53d a4d3 e43d 57aa e83d
000000c0: 6b05 c1bd 13a9 08bd c96a 9e3c 2c61 003f
000000d0: 28f5 803e da73 8b3e d2e1 e93e 8ffa 973e
000000e0: a448 e73d 066f 9ebd de60 8c3e 5e8b ba3e
000000f0: 263f 553d acfe 7e3b 0f6f 3a3f d166 ac3d
00000100: 0449 03be 06f3 acbd d4d5 713d a868 1fbe
00000110: 3830 763c be30 173a dc14 8e3d 579e 0ebd
00000120: 55f6 00be 49c2 3ebc a8f7 b83d 7543 ccbd
00000130: 7b5c 10be 94b3 8cbd 3ccc 9e3d 84d5 133d
00000140: 3cfe a5bd 55e2 513d f327 8bbd ab4f 76bc
00000150: 91c5 b7bd 20ef 04bd 5580 d43d 23dc a3bd
00000160: e122 7c3d 3920 94bd 181e 64be 8488 4cbd
00000170: 8130 fdbd cb20 ebbc 4698 25be 3101 33be
00000180: 0ce7 ec3c e186 8bbd d8ae 033e e849 5bbd
00000190: a786 82bd 23b7 77bc e343 9f3d 08b6 a1be
000001a0: deba 593d 8401 afbd 7aa2 13be f131 4b3d
000001b0: 46e8 7a3d e44e a1bd 7954 60bd 099e 5fbd
000001c0: 18de a23d a6cf ddbd b158 073c 3347 bb3c
000001d0: 1cc1 10be d6f8 423d e8ea ce3d 812d 23be
000001e0: 336e df3d a956 da3d 44e0 e1bd 7ef9 38bc
000001f0: e733 82bc 80f4 8d3d 7828 57be 1749 473c
00000200: fb24 b43c 4908 95bd 5304 bf3d de0a 0ebe
00000210: b1a3 433e 68f9 cdbd 1779 bbbd d9b8 39be
00000220: d6d2 e7bd 1bb7 48bc 2f31 82bd 8fc1 2d3d
00000230: ede9 713d dea1 c33d 3801 1e3e e569 a23d
00000240: eae4 a0bd 5751 70bd 0bf6 aabc 2ec7 0bbb
00000250: 689a f0bc 2932 4f3d 9ceb be3d f45a b23d
00000260: dea4 003e f2f0 5abd 2145 5abe 2b59 603d
00000270: 3b44 15bc fa81 59bd 6837 fd3d 6f23 0f3e
00000280: d9db dfbc 9968 12be a4ac ac3d 3079 fd3d
00000290: 153f 4c3d d5a1 a6bd 61e7 713c 60fd 1b3e
000002a0: 3deb 873d 7f5a ce3c 5821 043e a824 5ebd
000002b0: d517 08bb 1fbd 923d 843b c53c 157a c33d
000002c0: 286b 4dbd c99d ba3d 6df8 27ba 2b8c 29be
000002d0: cf4e 893d 36d0 38be d0f8 cc3d 7a96 443d
000002e0: f95d 22bc a63f 923d e1c8 063e ee1f 0abe
000002f0: 71b6 c2bd acd0 92bc cf3c 9b3d 89ac 863d
00000300: 4b65 e9bd 4137 c53e 9373 2a3e 84f1 273e
00000310: 0e57 ac3e 54c6 533e 5e4a 473d aca1 523e
00000320: e4c8 cd3e 62f5 fd3b ebf2 173e 49f5 cfbb
00000330: a55c ad3e b0ee 963e e3c1 ac3e 145b 6b3e
00000340: a363 d03e b6b6 403e 5754 02be 0fcb c63d
00000350: 563c e6bd e43f 8f3e 9f7b b13d a0de 6d3e
00000360: af84 70bd 33df b33e 3be9 593e f01f 833e
00000370: 6f69 153d fb14 e93d 5f23 163e e120 943e
00000380: 66bd 7d3e bdeb a33e 1695 ffbd 5c78 d43c
00000390: 592f b73e 09cd 913d b98b 1b3e 900d 8b3e
000003a0: a7a5 243d a869 ec3d 495c 833e ef01 4c3e
000003b0: 9de3 7d3e 938d 473c bea0 983c 0e3c 7dbc
000003c0: e3e8 e2bc 1486 253e 9fe4 113c 4deb 7d3e
000003d0: 20a0 683d cfab ce3d 7117 ad3e 3fe4 9c3e
000003e0: 6101 9e3d ef51 15bd 6564 1a3e 0405 9c3d
000003f0: 7d38 bd3c a0a6 d03d e7ce 223f 68af 21bd
0.010860628 0.43398753 0.13968654 0.47801897 0.13979784 0.117725216 0.21081635 0.27696502
0.26658198 0.19261537 0.14856349 0.06638235 0.3339603 0.09656564 0.26575825 0.040659145
0.46483046 0.38891783 -0.041270476 0.1310246 -0.08237709 0.8316492 -0.040974222 0.41182396
0.03016928 0.2574845 0.1595132 0.28108338 0.08405278 0.2490342 0.24498087 0.21560347
0.3030144 0.47452423 -0.038598653 0.25332543 0.06082734 0.12383439 0.068713374 0.5222526
0.10166643 -0.025313692 0.40734366 0.20365477 0.19727969 0.10412399 0.1117318 0.11360615
-0.094248615 -0.033364367 0.019338029 0.5014827 0.2518704 0.27236825 0.456801 0.2968335
0.11293152 -0.0773602 0.27417654 0.36434454 0.052062176 0.003890912 0.7282571 0.08418048
-0.12820822 -0.084447905 0.059041813 -0.15567267 0.015026145 0.0005767456 0.06937572 -0.034818973
-0.12593968 -0.011643001 0.09031612 -0.09973804 -0.14097778 -0.06870189 0.07753798 0.036092296
-0.08105132 0.051241238 -0.06794729 -0.015033643 -0.0897323 -0.03245461 0.1037604 -0.08000972
0.0615567 -0.072327085 -0.22277105 -0.04993488 -0.12362767 -0.02870216 -0.16171369 -0.17480923
0.028918765 -0.068128355 0.12859666 -0.05353728 -0.06373339 -0.015119347 0.0777662 -0.3158419
0.053156726 -0.08545211 -0.14417449 0.049608175 0.06125667 -0.07876375 -0.05476806 -0.054594073
0.07952517 -0.108306214 0.008260892 0.022861099 -0.14136165 0.04760059 0.101033986 -0.15935327
0.10909691 0.1066106 -0.110291034 -0.011289952 -0.01589389 0.069314 -0.21011531 0.012163422
0.02199029 -0.07276971 0.09326997 -0.13871333 0.19105412 -0.10057336 -0.091539554 -0.1813692
-0.11319511 -0.012250687 -0.06357037 0.04242092 0.05906098 0.09552358 0.15430152 0.07930354
-0.07856162 -0.05867132 -0.020869276 -0.0021328437 -0.029370502 0.050584946 0.09322283 0.08708754
0.12562892 -0.05345244 -0.21315433 0.054772537 -0.009110506 -0.05310247 0.123640835 0.1397836
-0.027326511 -0.14297713 0.08431366 0.1237663 0.049864847 -0.08136336 0.014764638 0.15233374
0.06636665 0.025189636 0.12903345 -0.054234177 -0.0020766158 0.07164978 0.02407623 0.0954477
-0.05015102 0.091121264 -0.0006407563 -0.16557376 0.06704485 -0.18048176 0.10008395 0.047995068
-0.0099101 0.07141046 0.13162567 -0.13488743 -0.09507454 -0.017921768 0.07579958 0.06575877
-0.11396273 0.38518718 0.1664565 0.16400725 0.33660167 0.20681125 0.048654906 0.20569485
0.4019233 0.007750199 0.1483876 -0.006346379 0.33859745 0.2947898 0.33741674 0.22983962
0.40701017 0.18819699 -0.12727486 0.09706699 -0.11241977 0.27978432 0.08666157 0.23229456
-0.058720287 0.35131225 0.21280377 0.25610304 0.036477502 0.11380955 0.1466193 0.28931335
0.24779281 0.32015792 -0.12479608 0.025936298 0.3577831 0.071191855 0.15190019 0.27158785
0.04019704 0.1154359 0.25656345 0.19922613 0.24793859 0.01217975 0.018631335 -0.015456213
-0.02769894 0.16164428 0.008904605 0.24796791 0.056793332 0.10091364 0.33806947 0.30642888
0.07715107 -0.03645509 0.1507736 0.07618144 0.023098225 0.10188031 0.6359696 -0.03947392

model.fc.weight f4 [4, 64]
00000000: 3ddd 10be e55c ccbe 0bc7 97be 2344 fabe
00000010: 4bca 103f bc83 5e3f 537b a7be 1cbf 94be
00000020: 851c 4c3f 4db3 153d b27c 8a3d c18f 533e
00000030: 4320 c3bd 2725 773e f3fa 2fbf 2bfd b9be
00000040: 08df a6be fe29 793e fb0d a4bd 66e8 00bc
00000050: 62c0 fa3d 6138 063f 8480 f1bd 9c1a 283f
00000060: 6c58 e33d f9eb fc3e 70a4 e0bd 45c8 303f
00000070: c42f c33d f326 abbd 525f 653e cfcf 98bd
00000080: cd73 3ebf da3a f0bd 5015 a03d e8ad 873e
00000090: a10d 3d3e cf2c 38be a090 463e 2cc8 6a3e
000000a0: fe9d 583d 950f 443f 7866 023f d64d 083f
000000b0: 5173 80be 9599 78be a902 913e c844 a0be
000000c0: 4fff 65bc 5a34 0bbd 0835 b33e ebed 78be
000000d0: effe 59be 6119 b0be 1f00 e63e 0785 c2bd
000000e0: 8b9d 88bc efce afbd b418 86be 41b2 36bd
000000f0: 70d0 b43e e882 57bd 7add 0e3f 96af 21be
00000100: 100d 003d fa1f 0b3f 5f4f aebd 2853 963e
00000110: 128a 8ebe 82b9 b0be 2161 28bc 9fc4 193f
00000120: efc0 2dbe fbd3 5b3e 2adb 8dbe d018 6dbe
00000130: e8bc a03c 52d8 f0be 0273 653e a33f 413e
00000140: ab41 853e 5567 1abf 4302 f73d fcd5 9bbe
00000150: e5cf 953d b102 4cbf 1cab 423d c990 d4bd
00000160: a718 6ebe 0095 58bf 734b 083f 55e5 00bf
00000170: 967b 9dbe dcaf 45bd 1825 423e 1a4c 033f
00000180: c31b c53e 0f3c aabe 328a 4fbe 665d a6bd
00000190: f86c a23e f05a 59be 6451 2bbe 6feb 86b9
000001a0: 1201 2dbd ae7c d0be 49b9 273d a3d8 1c3d
000001b0: a4d3 1ebe 6ce5 023d 7c11 d4be 20e7 4b3e
000001c0: e0eb 0c3e 0545 af3e e016 92be f08f 36be
000001d0: f221 043d 8e4b 9d3e b3a9 79be 9d69 2e3f
000001e0: c725 b43c befb 4a3e 5c01 cdbe a9dd 0f3f
000001f0: d19c d6bd 6e8b eb3d c509 ec3e 02a4 e93d
00000200: f02d 983d 54b1 e3be 865b 69bd 1dc0 a83e
00000210: 6d46 be3d 9f90 8dbe 825d 18be 1712 8bbe
00000220: 8fba 05bf 1029 3d3e 543b cc3e 0130 2bbe
00000230: f5e8 92be ed21 d83e 9028 ef3d 2de7 8fbd
00000240: 1c49 273f d2b2 643e a333 4cbe 20f6 323f
00000250: dc66 8a3d 4c06 be3e 040e 2b3d f9c0 b8be
00000260: 23f3 fc3c 81a3 0d3e 99cb e1be ce22 f4bd
00000270: 88c9 87be 5325 ca3e 1df2 53bf 27bb a13e
00000280: 1a6f 793e fdc5 10bf 6f62 b83d 619f 873e
00000290: 807d c33d 9c52 e13e 6201 c7be e162 183f
000002a0: 62fa 2c3e 179a a9bd fd51 9dbe 4b8e 2ebf
000002b0: 7766 953f 68ce bc3e e500 5b3d 024b 0ebe
000002c0: e65c c7bc 1206 73be 4f89 9e3d 1fbc 00bf
000002d0: 51f9 94be 62b6 64be 6fe6 62be f347 6cbe
000002e0: 880c 6bbe a5bf 333c 8762 703f de75 88be
000002f0: 5352 cfbe ac60 5f3e 768a d5be 5cc1 263d
00000300: aaf6 35be a0bd a83e 64a8 ff3e 7e6f 5cbe
00000310: ca03 31bf be92 6bbd 8abe 893e afba 2ebe
00000320: aa0d 903d 5dbe 82be 84f7 74be 3095 893d
00000330: ea4a 1e3f 3657 503b f432 4c3e aa18 4c3e
00000340: 4a67 bfbe 6b2a fe3d 66a4 f1bc 56d9 86be
00000350: 7cbe e3bd 6567 383e cc12 75be 7b4b 87be
00000360: 5cec 533d e523 8a3e 6e78 443d be7a b3be
00000370: 67ca 3a3e 55c6 8bbe eeab 493e fdb8 5bbf
00000380: 971b 5b3e 8b1c 643f 5e3f a3bd 45ba 83be
00000390: 4940 2fbf f8a1 64bc 5f14 963e a6ac 7cbf
000003a0: f733 64be 00a5 93bd 8b45 87be 6c14 bf3e
000003b0: 0b7f f1be b6d5 02be ba20 4b3d 6f9c 363c
000003c0: d121 d43d 7d75 12bc e141 e8bd bbfd 423f
000003d0: a14f b53e 3386 e53e 9a50 693d a27f aebe
000003e0: 748b e43e 0176 673b 8fac 1fbe f9c7 e1bd
000003f0: db16 8a3d 8bc3 78be 1e1e 11bf f75b 07be
-0.14146896 -0.39914623 -0.29644045 -0.4888011 0.56558675 0.8691976 -0.32711276 -0.29052055
0.7973102 0.036547948 0.06762065 0.20660307 -0.09527638 0.24135266 -0.68742293 -0.36325964
-0.32592034 0.24332425 -0.08010479 -0.007867908 0.12243725 0.5242978 -0.117920905 0.656656
0.111008495 0.49398783 -0.10968864 0.6905559 0.09530595 -0.08357038 0.22399643 -0.07461511
-0.7439545 -0.11729975 0.07816565 0.26499867 0.1846223 -0.17985843 0.19391108 0.22927922
0.052885048 0.76586276 0.50937605 0.5324377 -0.2508798 -0.24277337 0.28322342 -0.31302476
-0.014037921 -0.033985473 0.35001397 -0.24309509 -0.21288656 -0.34394363 0.44921967 -0.09498029
-0.016676685 -0.08584391 -0.26190722 -0.04460359 0.35315275 -0.052615076 0.55806696 -0.15789637
0.031262457 0.5434567 -0.085112326 0.29360318 -0.27839714 -0.3451653 -0.010277064 0.60065645
-0.1696813 0.21467583 -0.2770627 -0.23153996 0.019621328 -0.4704004 0.22407153 0.18871932
0.26026663 -0.6031392 0.12060978 -0.30436695 0.07315043 -0.79691607 0.047526464 -0.10379178
-0.23251592 -0.84602356 0.53240126 -0.5034993 -0.3075835 -0.048263416 0.18959463 0.51287997
0.38497743 -0.33248946 -0.20267561 -0.08123283 0.31723762 -0.21226096 -0.16730267 -0.00025733883
-0.04223735 -0.40720123 0.040948186 0.03829254 -0.15510422 0.031957075 -0.4141959 0.19912386
0.13761854 0.34232345 -0.28533077 -0.17828345 0.032258935 0.30721706 -0.24381141 0.68129903
0.02199067 0.19822595 -0.400401 0.561976 -0.10479129 0.115012035 0.46101204 0.11408235
0.07430637 -0.44471228 -0.05697205 0.3295907 0.092907764 -0.276494 -0.1487942 -0.2716224
-0.5223779 0.18472695 0.39889014 -0.16717531 -0.28693357 0.42213383 0.116776586 -0.07026515
0.6534593 0.2233384 -0.19941573 0.69906807 0.067579 0.3711418 0.041761413 -0.36084726
0.030877655 0.13831903 -0.44100645 -0.11920701 -0.26520944 0.394816 -0.8279131 0.31588098
0.24358788 -0.56552106 0.0900315 0.26488784 0.095454216 0.44008338 -0.38868243 0.5952588
0.16892388 -0.082813434 -0.30726615 -0.6818587 1.1671895 0.36876225 0.05346765 -0.138958
-0.02433629 -0.23732784 0.07741033 -0.5028705 -0.29096463 -0.22335199 -0.22158216 -0.23074321
-0.22953999 0.010970985 0.9390034 -0.26652426 -0.40492496 0.21814221 -0.417072 0.040711746
-0.17769876 0.32957172 0.4993316 -0.21526906 -0.69146407 -0.05751299 0.26903182 -0.17063402
0.07033856 -0.2553586 -0.23922545 0.067179084 0.6183306 0.0031790263 0.19941312 0.19931284
-0.3738349 0.12410434 -0.029497337 -0.2633769 -0.111203164 0.18008192 -0.23932952 -0.26424775
0.05173908 0.2698051 0.047966413 -0.35054582 0.18241273 -0.27299753 0.19694492 -0.85829145
0.21397243 0.89106053 -0.07971071 -0.2572805 -0.68457466 -0.013954632 0.29312417 -0.9870094
-0.22285448 -0.072092056 -0.26420245 0.37320268 -0.4716724 -0.12776837 0.049591757 0.011145695
0.103580125 -0.008939144 -0.113406904 0.7616841 0.35412315 0.44828948 0.056961633 -0.3408175
0.44637644 0.0035318139 -0.1559317 -0.1102447 0.067426406 -0.24293344 -0.5668658 -0.13218676

model.fc.bias f4 [4]
00000000: eb88 bf3c 3211 dcbd 1bff be3d e517 88bd
0.023380717 -0.10745467 0.09326001 -0.066451825
