student_package/submissions/your_name_agent.pth (torch, 82037 bytes, 6 tensors)

model.lstm.weight_ih_l0 f4 [256, 10]
00000000: f720 823e f017 29be f4c1 99bf 8fe9 083e
00000010: 6e2a cd3e b81d 523e 64a8 12bf 2d8f 743d
00000020: 4885 a43e ea24 df3e 974d 80be 219b afbd
00000030: 8c0c 3a3d 5bc6 b13e 52d7 1f3f 066a 843e
00000040: 5bd5 a6be afe0 32be 860f 85bd 572c 663d
00000050: a935 443d f281 f7bd abf7 bbbd 6af1 5d3d
00000060: 1040 3ebe 5460 9abe 9875 7cbd 7d53 8dbe
00000070: 993c a83d 4811 e1bd 8e32 713e ddfb a13c
00000080: 70de 05bf 50c5 06be b291 e4be 1735 a43e
00000090: ff92 1c3e d88e 9b3c c925 443d 14e5 0e3f
000000a0: 67e4 54bd c3f4 fabe ab28 47bf b4a9 023e
000000b0: 9167 223e cb48 cabd dd2d 4b3c 18d7 813e
000000c0: bec1 fb3d e8b3 973e 35ab a53e 4995 59be
000000d0: 11a9 b8be a923 49bd e289 bc3c 9bfd 65be
000000e0: 1efe 663d 41db 963e aa1c 563e 6e36 0abd
000000f0: d20d 53bf e238 60be 68f0 003f 808c b8bc
00000100: 6a20 67bf 6e91 5cbd 4cd4 403e 84e0 7d3d
00000110: ecae c73e 3c78 c63e f9cf 263e b854 72be
00000120: 4c55 833c 3db4 34be 1ec9 52bf 3981 90bd
00000130: 11ea 3d3d 0eb2 823e 7d20 513f 178c 203f
00000140: e782 3bbe d981 853d 0939 973e 6576 843e
00000150: 1cbe 3ebe 40b7 93be da80 29bf f340 cf3d
00000160: 76d6 783e 5ca8 08be 334b 1f3e af05 c13e
00000170: f0e6 153f fa88 b63e 8591 863e b5c1 45be
00000180: eb9b 83bf 31eb f8bc b2a2 623e b634 793e
00000190: 8263 fbbc d790 65be 30e0 9dbe a12d 99be
000001a0: e368 6dbe d143 673d 8784 4f3e 069b 103e
000001b0: bfd0 10be c472 30be 8132 603e 9120 553d
000001c0: 0d54 aa3d 07de 833e f106 3bbd f2c6 d6be
000001d0: fc0c 61bf 16ea b5be 8639 bdbd 8264 04bd
000001e0: 2ecd a13e f81c 2d3e c1df 723d ba2c 58bd
000001f0: c02c bf3c d4e1 2e3e 5d77 be3e 0869 293e
00000200: e5d3 093e e474 3b3e b7e8 51be 6710 c33d
00000210: e2ef 953e 01ab 873e 65e5 1f3f 77a7 873e
00000220: 8ad0 a23d 62ae 343e 1493 da3e 4fc2 123e
00000230: 78e4 39be e514 30bd f96b dc3d d996 cc3d
00000240: 1be8 a9be 55a1 82be 503b 90bd e893 f8bd
00000250: 8411 4cbe afb1 d8bb 4dcf 3f3e 186c 1ebd
00000260: 9d53 583e ad31 113e 2969 1d3e 03c0 c7be
00000270: 36d4 c2bf fdde 4ebe fdeb 183d 4a36 6b3e
00000280: 26b2 3c3e 4dd4 bebd 9148 aabd 8ba9 c6bd
00000290: 2d0e b3bc 058c e93d 7ebf 8f3e 1ac6 423e
000002a0: 2344 dc3d 84ec c33e eacc 06bf e4b8 b9be
000002b0: 28a4 c9be dbd0 b0be 69d0 f7be 0120 59be
000002c0: 7f37 92be 7b4b 6ebe e2f2 e03e 4e67 c13e
000002d0: a48a 893e cc87 ca3d 5adc 61bf 7008 31be
000002e0: 8c7f afbe b69e 37be c860 70bf c755 83be
000002f0: 6553 8d3e 160e 533e 552f 2dbf 2ed7 7abe
00000300: 37ec ebbd 6c01 703d 1b13 0f3e 1930 21bb
00000310: e021 153e 9840 b03d 2a41 893e aab9 0f3e
00000320: e67e 6c3e 69b7 a0be 91c1 9cbf 5b1c a5be
00000330: e1ff 053f bcd1 4b3b d228 8b3e 5708 613e
00000340: cf12 a33d 9a92 963d 60fe a43e 9fed 613e
00000350: 4ed9 f33d ad0e fc3e d227 6c3f 5113 d43e
00000360: 6af2 19be 52b4 7f3e b9ab f13e d116 e13e
00000370: 61f8 4bbd 5a5f 8dbe 2855 babe 0fc6 81bd
00000380: f61a c3bd e737 ab3e 723e f33e 28f7 453e
00000390: cae5 383e 627f 653f b9f3 75bd b8c1 0ebe
000003a0: 9613 8dbe 7769 58bd 56db ecbb b754 d33d
000003b0: aaaf ce3c 90c7 bbbd ed5b 5ebd 7917 6cbd
000003c0: b8da 08bf 4174 823e 8f18 93be 6f09 303f
000003d0: 3654 893f a8d0 af3e 8d94 9c3e ad20 8c3e
000003e0: c61a c43e 46b9 ea3e c021 e73e 182f 853d
000003f0: 98f4 29bf 5c60 bfbc 3ac6 38bf 219d cf3c
0.25415775 -0.16513038 -1.2012315 0.13370346 0.40071434 0.2051915 -0.57288194 0.059706856
0.32132936 0.4358285 -0.25059196 -0.0857451 0.045422122 0.34721646 0.6243793 0.2586214
-0.32584652 -0.17468522 -0.064971015 0.05619463 0.047902737 -0.12085332 -0.09178098 0.05418531
-0.18579125 -0.30151618 -0.061635584 -0.2760276 0.08214683 -0.10989624 0.23554441 0.019773418
-0.5229254 -0.13161206 -0.44642407 0.32071754 0.1529045 0.018989012 0.047887597 0.55818295
-0.051975634 -0.49014863 -0.7779643 0.12760049 0.1585982 -0.098771654 0.012401071 0.25359416
0.12292813 0.29629445 0.32357183 -0.21248354 -0.36066487 -0.049106274 0.023014966 -0.22460024
0.05639469 0.29464152 0.20909372 -0.033743314 -0.82442963 -0.21896699 0.5036683 -0.022527933
-0.90283835 -0.05384963 0.18830985 0.061981693 0.39000642 0.38763607 0.16290273 -0.2366513
0.016031884 -0.1764688 -0.8233813 -0.07055897 0.0463658 0.2552647 0.816902 0.6271376
-0.18311654 0.06518907 0.29535702 0.25871578 -0.18627208 -0.28850746 -0.66212237 0.1011981
0.2430056 -0.13345474 0.1555603 0.3769965 0.5855551 0.3565138 0.26282898 -0.19312175
-1.0281957 -0.030385586 0.22132376 0.24336514 -0.030687097 -0.22418533 -0.30835104 -0.29917625
-0.23184542 0.05646116 0.20265399 0.14121637 -0.1414213 -0.1723128 0.21894266 0.05203301
0.08316813 0.2575533 -0.045660917 -0.41948658 -0.8791044 -0.35530156 -0.09239487 -0.032322414
0.31601852 0.16905582 0.05929542 -0.05277703 0.023336768 0.17078334 0.37200442 0.16543972
0.13459738 0.18306309 -0.2049893 0.09524613 0.2928458 0.26497653 0.62459403 0.26494953
0.07949932 0.17644647 0.42690337 0.14331935 -0.1815356 -0.042988677 0.10762782 0.099897094
-0.33184895 -0.25513712 -0.07042563 -0.12137586 -0.19928557 -0.0066129784 0.18731423 -0.038677305
0.21125646 0.14179106 0.15372147 -0.3901368 -1.5221012 -0.20202251 0.03733443 0.22969928
0.18427333 -0.09317837 -0.08314622 -0.097003065 -0.021857345 0.1140366 0.28075784 0.19020882
0.107551835 0.38266385 -0.52656424 -0.36273873 -0.39383054 -0.34534344 -0.48401192 -0.21203615
-0.28557965 -0.23270981 0.43935305 0.37774128 0.26863587 0.098891824 -0.88226855 -0.17288375
-0.34276998 -0.17931637 -0.93897676 -0.2565138 0.27602687 0.20610842 -0.6765035 -0.24496147
-0.11519664 0.058595106 0.13972132 -0.0024595319 0.14563704 0.0860607 0.2680753 0.14035669
0.23095283 -0.3138993 -1.2246572 -0.32248196 0.52343565 0.0031100353 0.2717958 0.21975838
0.07962572 0.07352181 0.32225323 0.22063302 0.11906682 0.49229947 0.9224826 0.41420987
-0.1503388 0.2497113 0.47201326 0.4396272 -0.04979742 -0.2761181 -0.36393094 -0.06336605
-0.09526627 0.33441088 0.4750858 0.19332564 0.18056408 0.89647496 -0.060046885 -0.13941085
-0.27554005 -0.052834954 -0.0072282953 0.103188924 0.025230248 -0.09168923 -0.054286886 -0.057639573
-0.5345874 0.2547932 -0.28729674 0.68764395 1.0728824 0.3433888 0.30582085 0.2736868
0.38301677 0.45844477 0.45142937 0.06503123 -0.66388845 -0.023361377 -0.7217747 0.02534348

model.lstm.weight_hh_l0 f4 [256, 64]
00000000: c8c6 bc3d cf71 8d3e ffa4 013f 0174 bdbe
00000010: 4090 f63d d0fd 0b3f 5708 d9be eed2 cc3d
00000020: cdad 5bbc 6a7d 9e3e e228 e83e 8bd5 9d3e
00000030: a07c d93e ca59 08bf 56ae 943e 4afc aa3e
00000040: 9031 f9be 09f9 823e e2a5 95be 8ca4 483f
00000050: 7012 ebbe beb7 ccbe 1324 89be 2364 a2be
00000060: f4f7 d8be 36d1 8e3e b377 413f 1021 193e
00000070: baf5 0f3f 6cda 9f3e 8feb 9ebc 1621 943d
00000080: ba07 ad3e c296 fb3e de74 e83e d9c0 f73d
00000090: e9f0 7ebe 2264 04bd 6393 28bf d149 abbe
000000a0: b5db 9fbe abbf dabe 2e80 ca3e 5237 203e
000000b0: 7a62 113f bbac 913e b894 92bd 2c7a 16be
000000c0: 054f 003f 9afb 4f3e cf96 89bc be6a 16bf
000000d0: 41a9 683e cf45 e7be 17fc ebbe 57dc 883e
000000e0: 693a 403c 3291 cc3e 18ea a6be a6c4 ac3d
000000f0: fe09 f2bd b5b9 ae3e d095 29be 638a 9e3e
00000100: 664d 4cbd 2b15 923e 5b14 493e 733d 54bd
00000110: 89c1 65be 6b86 fb3e 538b 2abe 5911 babc
00000120: 4f50 cdbd 89f3 c33d 57e2 0d3e b9c6 833e
00000130: 75e9 f13d a431 14be fb09 223e 7e89 82be
00000140: d3d8 2cbe 2872 613e d49e ccbd 435a 0f3e
00000150: 4416 7bbd 48b6 5c3d f641 56be e19b 10be
00000160: 52af 833d a41e 3bbe d442 a73e e887 9dbe
00000170: 7a36 dd3e 37c9 7d3e 44ee 99bd 80b7 083e
00000180: 0910 263e e907 c2bd c62f 94bd 90d7 1a3e
00000190: 8b0a ad3e 9a05 d53e d753 07bf 6f7c c93d
000001a0: 9206 bfbe 4dfc cfbd 1e45 893d c695 b43e
000001b0: 4d68 9a3e 0d96 403f 5cfa aebe fb01 ff3d
000001c0: a293 023f fa62 243e f6f6 643e d33a 8b3e
000001d0: 82bc 6c3e 17cd 0fbe a2cf 13be 86ea 00bf
000001e0: 87a3 973d 97ec bb3e df7a fa3d 1e15 963e
000001f0: d4ad 2cbe f843 803e 2c56 223e 45dc f83d
00000200: 13fa afbd 8c59 b93d 9618 c9ba b5b7 de3d
00000210: 8b6f bfbd 17ae 35bc ed7b 66bc 62d5 6ebe
00000220: effe f63d 0f81 4abe 0f3d ce3c 7ae8 a6bd
00000230: f49d e03c c28a 6bbe 8532 9fbc 0aad bebd
00000240: e839 9cbd eec0 83bd 076e 61bd 84b4 42bd
00000250: 9523 41bd 85a0 1e3c 8dca ff3c 4b4a 2a3d
00000260: 6a74 663c 3fc4 9bbc 92a6 b93b 694f d43c
00000270: d661 e9bd 467b 1dbd 9221 163c 06bb 953d
00000280: a42d 613d 503d 1b3c 3b93 28be 4d41 8ebd
00000290: 4311 393c a2af 903d 3d4a 173e 46b1 8bbe
000002a0: dc13 a1bd ed54 aa3d b6c8 273d 4da5 323e
000002b0: c5ba 09be 960d cebd db36 43bd 69b1 1f3e
000002c0: 9e76 15bd 96b6 bf3d 6270 5dbe fd8b 4c3c
000002d0: 2123 253e 5378 8cbd 24f8 2f3e 8958 493e
000002e0: 12c7 ee3c 6c39 1abd e589 a2bd 2867 263e
000002f0: 5b21 e2bd d3e3 9bbd 3f6f 51bd 7534 53bd
00000300: 97b5 893e 42cb 973e 2bf4 e83e d1ba df3d
00000310: 952a a2be 0d71 143e 5d5e c53d 186a 083d
00000320: f6e9 82be f55c d63e 2d46 f53e a2b5 443e
00000330: c517 503e a6d9 2dbe 3562 7e3e 1736 cf3d
00000340: 1694 d1be 2298 d3be 02a5 0ebc a6bc b53e
00000350: 460f 8ebd 9030 abbe 8b59 b63d 2ad5 22bf
00000360: 2890 253d 325b adbe 1793 f83d fb7e b2bd
00000370: 9481 8d3e 09ec 7f3e 72ce 8fbe 8e71 623e
00000380: b5e9 fb3e cf1a 943e 16b1 7f3e 0e31 9b3c
00000390: a825 1e3e 30a2 f23e 73e7 25be 564c 86be
000003a0: cf6e 80be 01e1 a5bd b0b0 ca3e f3f9 edbd
000003b0: 4ad6 e23d dfc2 b33e ed8d 433d d2fe 893f
000003c0: ee9e 4abe 33c3 593e 15ab abbe 81a5 18be
000003d0: 0bd3 4bbe 548d 87be 9208 5ebe 7b1b 043e
000003e0: c931 363e 9ec3 5a3e ab1b c93d 3b52 54be
000003f0: 542c 37be 0d9f aa3e 55ea 88be 13f3 de3e
0.09217602 0.27625892 0.5064239 -0.37002566 0.12039232 0.5468416 -0.42389175 0.10001169
-0.013408137 0.30955058 0.4534369 0.30826983 0.42477894 -0.5326201 0.29039258 0.33395606
-0.48670626 0.25580624 -0.2922812 0.7837608 -0.45912504 -0.39983934 -0.26785335 -0.31717023
-0.42376673 0.2789399 0.7557327 0.14954019 0.56234324 0.3122133 -0.019399432 0.07232873
0.33794957 0.49138457 0.45401663 0.1209733 -0.24896587 -0.032322057 -0.65849894 -0.33454755
-0.3122231 -0.42724356 0.39550918 0.15646103 0.5679089 0.28452095 -0.07157272 -0.14695042
0.50120574 0.20310822 -0.016795544 -0.58756626 0.22720815 -0.45170447 -0.46090767 0.26730606
0.011732676 0.39954525 -0.32600474 0.08435945 -0.11818312 0.34126058 -0.16561055 0.30964956
-0.0498785 0.28531775 0.19636671 -0.051816415 -0.22437109 0.4912599 -0.1665471 -0.02271335
-0.10025083 0.09567935 0.13855873 0.2573755 0.118121065 -0.14472061 0.1582412 -0.25495523
-0.16879587 0.22016203 -0.099912316 0.13999276 -0.06130053 0.053884774 -0.209236 -0.14121963
0.06429924 -0.18273407 0.32668173 -0.3076775 0.43205625 0.24783789 -0.07516149 0.1335125
0.16217054 -0.09474165 -0.072356746 0.15121293 0.33797106 0.41605836 -0.52862304 0.09838187
-0.373097 -0.101555444 0.06702636 0.35270518 0.301577 0.7522896 -0.34175384 0.124515496
0.5100652 0.16053382 0.22359833 0.27193317 0.23118785 -0.1404308 -0.14434674 -0.50357854
0.07404237 0.3670394 0.12230467 0.29312986 -0.16863185 0.25051856 0.15853184 0.12151388
-0.0859262 0.09050283 -0.001534241 0.10874883 -0.09347447 -0.01108887 -0.014067632 -0.23323587
0.120603435 -0.19775794 0.0251756 -0.0814981 0.027419068 -0.2300215 -0.01943327 -0.09310348
-0.07628232 -0.06433283 -0.05503657 -0.047535434 -0.047153074 0.0096818255 0.031224513 0.041574758
0.014065841 -0.019014476 0.0056656087 0.025916772 -0.11395614 -0.03844764 0.009163277 0.073110625
0.054975167 0.009475067 -0.16462414 -0.06946049 0.011295619 0.07064749 0.14774413 -0.27283686
-0.07865116 0.083169796 0.040962897 0.1744587 -0.13450153 -0.10061185 -0.047659736 0.1559502
-0.036490075 0.093609974 -0.21624902 0.012484548 0.16126682 -0.068588875 0.17184502 0.1966268
0.029147658 -0.037652418 -0.079364575 0.16250288 -0.11041518 -0.076118134 -0.051131483 -0.0515637
0.26896355 0.2964726 0.45498785 0.10924304 -0.31673113 0.1449625 0.09637139 0.033304304
-0.25569123 0.41867796 0.47905102 0.19209912 0.20321567 -0.16977558 0.2484215 0.10117739
-0.40933293 -0.41327006 -0.008706333 0.3549549 -0.06936507 -0.33435488 0.08903798 -0.6360651
0.04042068 -0.3385864 0.1213743 -0.08715626 0.27637923 0.24992384 -0.28087193 0.2211363
0.49201742 0.28926703 0.24969897 0.01894429 0.15444052 0.47389364 -0.16201572 -0.26230115
-0.2508454 -0.08099557 0.39587927 -0.1161994 0.11076029 0.35109612 0.047742773 1.078089
-0.1978719 0.21265869 -0.33528963 -0.14906885 -0.19904725 -0.26475012 -0.21682957 0.12901108
0.17792429 0.21363685 0.0981973 -0.20734493 -0.17888004 0.3332447 -0.2674128 0.43544826

model.lstm.bias_ih_l0 f4 [256]
00000000: 83d2 8e3e 8b21 c13e 5161 bb3d dbd9 023e
00000010: ab17 9e3d 8e06 afbc 24ac d13e d54f 383e
00000020: cb99 2e3e 806f be3e 5036 fdbd cfe2 4abc
00000030: a770 8e3e 73d4 763e 86b1 9c3d 9cdb bf3d
00000040: ddc0 483e 83c5 173e 8a19 383e b52a 313e
00000050: 42cf a73d 00fb 0b3f d65d 603e b24a 39bc
00000060: ca1b cd3e d8d9 ae3e 7665 f6bc 5378 a63e
00000070: 1f48 ba3e 9730 8c3e a1b2 c73e 7e66 ac3c
00000080: 6312 843e 0f77 a93e 9a16 c5bb e347 193f
00000090: b562 9c3e f2d7 963e 66eb bb3d 6c66 5d3e
000000a0: 62c6 9f3e 456d 913e d98b 86bb 7be8 933d
000000b0: a0ff 4d3e 39c0 9a3e 4226 903e a827 8c3d
000000c0: 065c 113f 59bf 4c3d 92eb 1b3e 5b20 973e
000000d0: 0a6e 723d d87b 343d 225c 2c3f 9466 013e
000000e0: 9c4b 923e 716d b1bd 8e31 5b3e 8508 bd3e
000000f0: ac96 6c3e 4282 a4bd 2cb2 c63e a921 5f3f
00000100: d6f1 983d e9c8 ca3b cf5f 11bd 24d3 b4bd
00000110: 3af2 b7bd cfea 673e a8c8 9cbd 338a 34be
00000120: 1b07 57bb 85b6 88bd 289c 1bbd 4088 17bd
00000130: e20c b6bd 73cf fabd 4e86 44bd fabe 1fbe
00000140: a74b 21bd c8ba 7c3c f04b c0bc 72c6 29bd
00000150: 755c 0abe 44b6 cfbd f961 f03c d0f0 5f3d
00000160: 7c39 5cbe be98 b6bd 66a1 21be f04f 27be
00000170: a64c ea3d 6fd0 77ba 5df4 72bd fb5f e13c
00000180: 8cbf 9d3c f206 0fbd d550 143c ccc6 f5bd
00000190: 2c43 203a 6050 f9bc 553a b33c 7f8e 873b
000001a0: 4f01 36be 6398 b0bc 8df6 f6bd 78df acbd
000001b0: 9f78 1ebd abda 25bd d6ca 5dbe b4e5 953d
000001c0: e9a1 8d3d f6a5 92bc 1216 f4bd b9ce cb3d
000001d0: 7d68 30bb d943 9d3c 9c5a 3a3e 968d 303d
000001e0: 5127 14bd f4ee 46bd 33e8 8b3d 1fca ed3d
000001f0: 7aae 793d b16f 5d3d e847 3f3d 0434 07bd
00000200: 5509 bf3c e819 2a3e 1d41 533e a7ec 073e
00000210: 2c97 f6bd 44e6 373e 8c5f cb3c 12f5 3bbe
00000220: 4941 8e3c 92b2 043e 7826 9b3d 0dda 283e
00000230: 7883 d6bd 96fa d43d f2ea dd3d 7b3e 2f3c
00000240: 16a3 bcbd 8bfc 7cbd f483 f33b 8edb 1e3e
00000250: 261f 33be 487c e9bd 138a a4bc 428e 82bd
00000260: 074a 74bd a175 39bd b061 b53d 3638 dcbd
00000270: 3f27 c03d dd5c a23b 1bdc 083d 78fb c43d
00000280: 1362 643e 12f3 85bd 4dab 95bd 7e5b cd3d
00000290: 6b98 bf3c 62c1 f63d b8d5 353d bf18 a9bd
000002a0: c34c 733c be4e 0bbd 80f4 093e ce4b 363e
000002b0: 2f56 783d 4093 203e 8c52 013d d096 313e
000002c0: cd09 dabb 8b40 043d bb77 f6bb d9d3 2f3e
000002d0: 1ed0 cdbd 4bbe 143d 2555 e23d 4d26 993d
000002e0: c575 2f3e 14f3 8d3d 0090 a9bd 1220 943c
000002f0: 158e b1bd 4a62 cbbb 91d0 ba3d 0fae 9dbc
00000300: 88bc e93e f548 063f 8d00 643d aae5 473e
00000310: 00f1 d13d f6ff 903c 0a7a 833e 3153 973e
00000320: d6ba 2a3e 2c4e b43e 4609 84bd 8386 62bd
00000330: 4f97 403e 93d2 583e af57 0a3d ff91 b43d
00000340: 875c 573e cdd9 1e3e 3363 b93e eecc 043e
00000350: e857 513e 6fab 3f3e eb01 fd3d 81b0 283e
00000360: ddfd b23e b2a4 bc3e 7492 dbbd 8001 3a3e
00000370: 84d2 12bb b533 e03c 1472 a83e 2a18 3f3e
00000380: 8fb8 c13d d56f 5e3e dc03 ecbd a3f5 bb3e
00000390: f630 8f3e c505 403e c1bb 733d 74a5 803e
000003a0: 035a a23e 4747 323e 5d48 5fbc 8e17 c03d
000003b0: 088d 90bd 7c2a 7c3e 2139 e63e d8aa 983e
000003c0: 0855 363e b934 e5bd e86e 603e ad9b 9e3e
000003d0: 63c3 043d 151f ff3b ab0c b83e 030e 2b3e
000003e0: 5d14 9f3e 2e28 7b3c acbe a93c 6963 8c3e
000003f0: b144 b73c a491 2dbd 12f1 da3e 67b4 a63e
0.27894983 0.37720904 0.09149421 0.12778418 0.07719358 -0.02136543 0.40951645 0.17999204
0.17050855 0.37194443 -0.12363875 -0.012383177 0.27820322 0.2410448 0.076510474 0.09368059
0.19604822 0.14821438 0.17978492 0.17301448 0.08193828 0.5467987 0.21910796 -0.011309313
0.40060264 0.34150577 -0.030077677 0.32513675 0.3638315 0.2738082 0.3900347 0.021044966
0.25795278 0.33098647 -0.006014657 0.59875315 0.30544057 0.29461628 0.09175758 0.21621102
0.31206042 0.2840368 -0.0041060266 0.072220765 0.20117044 0.3022478 0.28154188 0.06843501
0.5678104 0.04998717 0.15226582 0.29516873 0.059186973 0.04406342 0.67328084 0.12636787
0.2857331 -0.086634524 0.21405622 0.36920562 0.23104352 -0.08032657 0.3880781 0.87160736
0.074680015 0.006188501 -0.03549176 -0.088293344 -0.08981748 0.22648166 -0.0765546 -0.17630844
-0.0032810632 -0.06675438 -0.03799072 -0.036995173 -0.08889176 -0.12246599 -0.047979645 -0.15600196
-0.03937879 0.0154253915 -0.02347371 -0.041449018 -0.13511832 -0.10142186 0.029343592 0.054673016
-0.21506304 -0.08915852 -0.15784225 -0.16339087 0.11440401 -0.0009453361 -0.059315074 0.027511587
0.019256376 -0.034918733 0.009052475 -0.12000808 0.0006113525 -0.030433834 0.0218784 0.00413686
-0.17773937 -0.021557039 -0.120587446 -0.08441061 -0.038689252 -0.04049174 -0.21659407 0.07319203
0.069156475 -0.017901402 -0.11918272 0.099515386 -0.0026917749 0.019197391 0.18198627 0.043103777
-0.036170308 -0.048567727 0.06831398 0.11610817 0.06095741 0.054061595 0.046699435 -0.03300859
0.02331988 0.16611445 0.20630307 0.1327387 -0.120405525 0.17958933 0.024825834 -0.18355206
0.017365115 0.12958744 0.07575697 0.1648943 -0.104742944 0.10399358 0.10835828 0.010696049
-0.09210794 -0.06176428 0.0074315015 0.15513441 -0.17492351 -0.11400658 -0.02008537 -0.0637479
-0.05964091 -0.045278195 0.08856523 -0.10752909 0.093824856 0.004954918 0.033413034 0.09618276
0.22303037 -0.065405026 -0.07308064 0.100272164 0.023388108 0.120486036 0.04439327 -0.08256673
0.014849844 -0.03401064 0.13472176 0.17802355 0.060629066 0.15681171 0.031572863 0.17342687
-0.0066540004 0.032288115 -0.007521597 0.17170657 -0.10049461 0.03631429 0.11051396 0.074780084
0.1713477 0.06931129 -0.08279419 0.018081699 -0.08669678 -0.0062067853 0.09121812 -0.019248037
0.4565165 0.52455074 0.055664588 0.19521204 0.10251045 0.017700177 0.25679046 0.29555658
0.16672835 0.3521589 -0.06447081 -0.05530406 0.1880772 0.21174078 0.033775028 0.08816909
0.2103139 0.15512772 0.36208495 0.129688 0.2044369 0.1871774 0.123538814 0.16473581
0.34959307 0.36844403 -0.10721293 0.18164635 -0.002240331 0.027368406 0.32899535 0.18661562
0.0945903 0.21722348 -0.115241736 0.36710843 0.27967042 0.18752201 0.059505228 0.2512623
0.31709298 0.17410003 -0.013628093 0.09379493 -0.070581496 0.24625582 0.4496546 0.29817843
0.17805874 -0.11191697 0.21917307 0.30978146 0.032412898 0.0077856877 0.35947165 0.16704564
0.31070223 0.015329404 0.020720802 0.27419594 0.022371622 -0.04237522 0.42762047 0.3255951

model.lstm.bias_hh_l0 f4 [256]
00000000: 73ca d83e 8e59 d43e a9af 533c 51bc a23e
00000010: f334 6d3e ab18 dabb 9a75 793e 9136 af3e
00000020: 3d48 a13e e71f cc3e c74f 60bd a286 463e
00000030: f0ae b13e 70d8 413e b2db 9d3d cfb4 8b3e
00000040: 01fc 303e 3460 943d 0629 2a3e 74cb 823e
00000050: ec33 823e 76f9 1d3f 266f 513e 1aab 393e
00000060: f13c 9b3e ff20 be3e e8e2 90bc 1109 183e
00000070: 88f8 a93e 9ab2 b63d af7a cc3e 1bdb 583d
00000080: d6e1 d23c bbce ad3e 2cba 3a3b 0022 e63e
00000090: 1fa4 cc3e 5a6b 5a3e ed61 073e 7ec2 813e
000000a0: ead3 683e e0c5 7c3e 5a52 913c 6101 363e
000000b0: 4abb c33d c7ec 943e b22f cd3e f812 853e
000000c0: 2e72 0d3f 177b 3b3d 1d1b 9e3e 9520 6f3e
000000d0: b056 1f3e e0d8 ae3d 2e17 223f 1bfb eb3d
000000e0: 9ec1 f43d bbbf b63d 39ff 6a3e f66f cb3e
000000f0: a5ca fd3d cfaa 9f3d 558f bc3e b782 573f
00000100: 7c7e 84bd 7971 2f3d 783d ee3d 90c4 3bbe
00000110: 403b 05be 5bcb 5c3d 4ca7 a8bd 7b1b 203d
00000120: c320 a7bd e865 30be 5f84 323d d530 bd3d
00000130: 4687 5f3c 9f1d 11bd fbf8 973c d55b f93b
00000140: f4e4 c3bb 1bda 06bd afb8 263d 1d0b 6bba
00000150: 2b87 523c 5247 11bd 8185 18be c117 113e
00000160: a0f9 40bd 67f2 c9bd ffda fcbc 6600 56be
00000170: 0feb d7bd f3d9 663c 6453 d33d fd62 153d
00000180: 61a4 223e 47d7 b7bc 8172 9b3d 2b80 db3c
00000190: 512c 52bd 6485 8bbd 2ca7 413d c4d4 0cbe
000001a0: da4f 54be f84d 58bd 6412 adbd 9ee8 f4bb
000001b0: bef0 563c 9402 58bd e9a9 e8bd aa41 a1ba
000001c0: 289a 0d3d 88a4 a73d af9c 31be 0b8d 30bd
000001d0: 974b c8bd 33e0 d3bd 0a60 343e 7bb0 7c3c
000001e0: e2c9 00bd 8259 793d 2661 8cbd 4eba 0b3d
000001f0: ba4d ac3d 2206 dd3d ffe4 34bd a74d a5bd
00000200: 4794 063e 94fe 083e 658e 673e b45d b23d
00000210: f099 ac3d 944a 293e 990a 283e f548 59be
00000220: 9359 8abd 8419 a63c 6ed3 4a3c b936 323d
00000230: c4a5 3f3d 724f 8ebc b605 4f3d 9a8d 0abe
00000240: 7796 da3c 400d 833d a9dc 6bbd ebee c23d
00000250: 99b9 21be 7f1f 72bd c1ce 84bd 2dab b1bd
00000260: c506 083e 78b6 ea3d e31d f23d f33d da3c
00000270: 1c35 553d daae 3d3d 8f0c 3dbc 6455 043e
00000280: c784 ca3d 2029 0d3e 3fed 833d 65cb 9b3c
00000290: df35 07bc 761e 833e 7ba6 bebd 02b2 983d
000002a0: 9c57 cfbd 5d22 213e a26c 853b 3941 ec3d
000002b0: d8f6 1a3e 6b92 6b3d 4fba b03d b23c 41bd
000002c0: 4db4 203e 2bba a1bc 9a86 3f3e 315d 36bc
000002d0: 6c01 a93d e5f9 9fbd 7ed3 42bd 662b d33d
000002e0: 3c67 0b3d b6b1 9b3c 61a5 bf3d de37 363d
000002f0: c60e dd3b d2cc 35bc 465a d63c 5f27 a33c
00000300: f2d0 833e 8d8e c83e b20a 15bb 7e14 9b3e
00000310: ba97 bc3d 4c94 c63d f218 b93e e9e6 6e3e
00000320: 5ced 2d3e d942 cd3e 9777 0bbd 1c3a ca3d
00000330: 1607 f73d 7019 7d3e c6d3 acbc ab4d a23d
00000340: e027 9c3e 4cd1 993d 07e7 c43e 9360 7a3e
00000350: e9cc 923e 8c16 443e b56f 343e 43f3 a03d
00000360: 34a6 c53e 29a0 fd3e 1c14 bdbd 3ec9 9d3e
00000370: 865b 823d 7ecb 763d 3c90 fe3d 9a7c 0b3e
00000380: 83ed 4a3e 1314 823e 14a6 7bbd b698 d63e
00000390: 1b9b 9b3e ff9f 883e d66d fe3b c648 d13e
000003a0: 09d1 573e 6d74 743e e4bc cc3c fdfd ef3d
000003b0: badf 083e b22f 2c3e ff70 043f 916b 783e
000003c0: 86bb 3f3e 7419 043d da1a b63e 37fa a53e
000003d0: 18a7 923b 0a5f cc3d ca6f b33e 49d3 043e
000003e0: c57a a73d dea0 0a3e a922 783d d247 563e
000003f0: 5707 fb3d 97ed 043d 30cd 533e 112a a63e
0.42341956 0.41474575 0.012920299 0.317843 0.2316473 -0.0066557727 0.24361268 0.34221318
0.31500426 0.3986809 -0.05476358 0.19387296 0.3470378 0.1893022 0.07707919 0.27286384
0.17283632 0.07244912 0.16617212 0.25545847 0.25430238 0.6170877 0.20452556 0.18131676
0.30319932 0.3713455 -0.017686322 0.14847209 0.33197427 0.08920784 0.3993735 0.05294333
0.025742453 0.33946785 0.0028492315 0.44947815 0.39968964 0.21330014 0.1322095 0.25343698
0.22737089 0.24684858 0.017739464 0.17773964 0.09557207 0.29086897 0.4007545 0.25991035
0.5525235 0.045771684 0.3088006 0.23352273 0.15560412 0.085374594 0.6331662 0.11522504
0.11950992 0.089232884 0.22948922 0.39733857 0.12392167 0.07796251 0.36828104 0.8418383
-0.064694375 0.042832825 0.11632818 -0.18336701 -0.13010883 0.053904872 -0.08235034 0.039088707
-0.08160546 -0.17226374 0.04358327 0.092378296 0.013643092 -0.03542864 0.01855134 0.007609824
-0.005978221 -0.032922845 0.04070347 -0.00089661946 0.012849609 -0.035468407 -0.14894678 0.14169218
-0.04711306 -0.09860688 -0.030866144 -0.2089859 -0.10542881 0.014090049 0.1031864 0.036471356
0.15883018 -0.02244152 0.07590199 0.026794514 -0.051311795 -0.068125516 0.04727857 -0.13753039
-0.20733586 -0.05280873 -0.08450773 -0.007474019 0.013118921 -0.052736834 -0.11360533 -0.0012302895
0.034570843 0.08185679 -0.17344926 -0.04310326 -0.097800426 -0.10345497 0.17614761 0.015422936
-0.03144253 0.060876377 -0.06854467 0.03411322 0.08413263 0.10792185 -0.0441637 -0.08071452
0.13142501 0.13378364 0.22612913 0.08709279 0.08427799 0.16532356 0.16410293 -0.21219237
-0.06755366 0.020275839 0.01237951 0.04350922 0.046788946 -0.017371867 0.050542556 -0.13530579
0.026683075 0.063990116 -0.057583485 0.09518226 -0.15793456 -0.05911207 -0.06484748 -0.08675227
0.13283832 0.114605844 0.11822107 0.026640868 0.052052602 0.04630933 -0.011538639 0.12923199
0.098886065 0.13785219 0.064417355 0.019017885 -0.00825259 0.25609177 -0.093090974 0.07455827
-0.10124132 0.15735765 0.004071788 0.11535878 0.15133226 0.057512682 0.086292855 -0.047177024
0.1569378 -0.019742092 0.1870369 -0.011130617 0.08252224 -0.078113355 -0.047564976 0.10311012
0.034034 0.019005638 0.093577154 0.044486873 0.006746146 -0.011096196 0.026166093 0.019916235
0.2574535 0.39171258 -0.002274197 0.30289072 0.09208627 0.09696254 0.36151844 0.23330273
0.16985077 0.40090063 -0.034049597 0.09874365 0.120618984 0.24716735 -0.021097075 0.0792497
0.30499172 0.07510623 0.3845751 0.24450903 0.2867196 0.19149226 0.17620738 0.078588985
0.38603365 0.49536255 -0.09232351 0.30817598 0.06365113 0.06025266 0.12429854 0.1362175
0.19817166 0.2540594 -0.06143768 0.41913384 0.30391774 0.26684567 0.0077645583 0.40875834
0.21075834 0.23872538 0.024992414 0.11718366 0.13366595 0.1681507 0.5173492 0.24259783
0.18723878 0.032250836 0.3556736 0.3241746 0.0044754855 0.09979065 0.35046226 0.12971224
0.08177713 0.13537928 0.06057993 0.20925835 0.12257259 0.032453146 0.20683742 0.3245397

model.fc.weight f4 [4, 64]
00000000: 9fde 933e 8a8d d23e 58ce a23d db53 30bd
00000010: b609 62be d0be 90bd 2db3 fc3e c54a b1be
00000020: f32f d5bd 3ac8 83be 307f c43c 30d6 163e
00000030: bed5 a23d 78be b13e 9055 363e 26b2 093e
00000040: 9e46 08be c561 00bf df9a 7cbd 035e c7be
00000050: 5cd1 a6bd 2dde 0dbf dece 8e3e 94b5 ef3d
00000060: 90d2 693f a1ea a33e a0f2 8ebd 8ba2 4dbe
00000070: 5296 b4be 9bca 783e ab1f bebe 420f 44be
00000080: 2976 88bd 8aa6 773e b4d3 9e3b 509a 4dbf
00000090: 3085 67be 3bc2 623e d312 8b3e 41b2 b93e
000000a0: 0f5f 2a3f 07db c0be 8630 4b3e c4ae f43e
000000b0: 0c44 a2bd f6a9 4dbf 9756 2bbe 5851 913e
000000c0: 1cf5 1cbf 950c 883e 611c 823d ff4a a13e
000000d0: 31d5 b73d 8ae9 173e 8c4f e03d 78aa f9be
000000e0: 9dfd fa3e b4ba 43be 6cd7 05be 7b86 4dbf
000000f0: b8ec f4be 2f0b 4e3e 8095 9ebd f010 123f
00000100: 0e76 9e3c 0d89 67be 80d4 e9bd d3fa 9d3e
00000110: cc40 dd3d b464 c23d 3682 24bf 87c3 2e3f
00000120: 8d90 d63e 4485 d3be 03a4 68bd 8f37 3abe
00000130: e55f cbbd cfac b8bd 87ef 95be bc8a 1f3e
00000140: 93a6 af3e ad03 d03e e20b 983e 8dd9 3c3e
00000150: 1bd7 22bd 99a6 193d c1a1 aa3e 9f97 25be
00000160: f267 17bd 3da0 34bf b4c0 3bbe 80c1 e5be
00000170: dfd0 fc3d 5917 8bbe a049 853f 25d9 563e
00000180: 7212 63be c514 8dbf 530b aa3e 377f 023f
00000190: 0bf2 823d 7d25 8fbe 1f12 85be fcdb e0be
000001a0: 39b1 90be 6035 053f 46bd 53be 35fc 3dbd
000001b0: 35fe 8fbe 7fc3 083e 9db0 083f d192 8d3e
000001c0: bf59 0d3f 6476 8ebd f357 f5bd d507 e8bd
000001d0: f752 ae3e 466d 853e b262 1e3e 8964 9c3e
000001e0: 8bcf 65bf fd65 263e 32f8 543e c577 223f
000001f0: 8738 2f3e b2ee b5bd a6ab 2dbe 06e0 81be
00000200: f993 503f 3b32 81be b4f9 ba3d 26b6 283e
00000210: e302 1bbe d033 1c3e e139 703e 8e8d dfbe
00000220: 0813 fdbe e333 893f c95c 063e 5cc4 c9be
00000230: 440d a03e a511 023d 5d7b dbbd 35db 4fbf
00000240: ae5f 8d3e 846e 83be 1064 c93e 78c4 933e
00000250: 85ee 81be 7381 d43e 45f2 503e 26ba 6cbe
00000260: 0e33 ccbe a597 b0bd 8085 c93d 4d7a c2be
00000270: d2de a53e 9f99 71bc 8714 babe 14cc 96be
00000280: 9337 e03e 06e6 283f 09e6 81be 132f f43e
00000290: 392a 4dbd f1b4 b13e 8e08 24bc a384 133e
000002a0: 5670 cdbe 6aad 50be 144c f6bd b039 b8be
000002b0: ec17 623e 80ea 7a3e a2cf 08bf 486f 113e
000002c0: c061 2c3e b01f 3dbb 31f5 183f e537 c53e
000002d0: 5eea a0bd 1c83 8f3c b3e2 0bbf e4c5 053d
000002e0: f489 833e e109 af3c 5c15 f13e 2094 913d
000002f0: e014 4c3e 9eea 363e 6b37 cdbe df48 b0be
00000300: 7d86 76bf 757e 48be e6d8 82bc 04e1 09bf
00000310: 1549 b23e be51 6fbe e289 83be 98ae fe3d
00000320: 3221 f83e 47ba c2be da25 a3bd 58eb 8b3d
00000330: 149a 30be 8eb7 71be 0e2f 2d3d 1931 b83e
00000340: f46b 14be 1d07 2c3e 5ae6 11bf 70cb 33be
00000350: acd1 063f 9389 833e 68bf 22bf 97ad cb3d
00000360: 9af2 2abf 5980 463f 6c8e c23d 2e55 913f
00000370: 1a59 b9bd eab5 033d 722d d2be 4d7a 523e
00000380: 9985 093d 60d9 8d3e c1e9 e23d d58c 82be
00000390: b1b6 013f 0768 bebe 83b5 2dbd 5739 52be
000003a0: bd9c 0dbd 5510 b9bd cb3c f1bc eb69 b3bd
000003b0: cf7f 7a3e 86b2 023e 2df3 b63d 2815 45bf
000003c0: bdba fb3d 3acb 4e3d 1598 1cbf 4965 03bf
000003d0: c99a e6be 7e8b 8cbe 51b3 be3e 29d7 84be
000003e0: 37a4 9e3e 5684 e63d 3ee5 09bf ca4a 543e
000003f0: 1805 8c3d fcfc 7b3d 8810 1a3f c720 a0be
0.28880784 0.4112361 0.07949513 -0.04304872 -0.22074017 -0.070676446 0.4935545 -0.34627357
-0.10409536 -0.25738698 0.023986429 0.14730144 0.07950924 0.3471563 0.17806077 0.13446864
-0.13308188 -0.50149184 -0.061671134 -0.38938913 -0.08145401 -0.5541714 0.27892202 0.11704555
0.9133692 0.32014945 -0.06979871 -0.20081536 -0.35270935 0.24296038 -0.37133536 -0.19146445
-0.06663162 0.24184623 0.0048470143 -0.8031359 -0.22609401 0.22144406 0.271628 0.3626881
0.665513 -0.37667105 0.19842729 0.47789586 -0.07923135 -0.80337465 -0.1673225 0.28382373
-0.6131151 0.265721 0.06353069 0.3150253 0.0897621 0.14835182 0.10952672 -0.4876287
0.49021617 -0.1911419 -0.13070458 -0.80283326 -0.47836852 0.20121454 -0.077433586 0.57057095
0.019343402 -0.22610874 -0.11417484 0.30855426 0.10803375 0.09491864 -0.64261186 0.682671
0.41907158 -0.4131261 -0.05679704 -0.18185256 -0.099304 -0.090173356 -0.29284307 0.15580267
0.34306774 0.40627804 0.29696566 0.18442364 -0.03975592 0.037512396 0.33326533 -0.1617112
-0.036964364 -0.70557004 -0.18335229 -0.4487419 0.123445265 -0.2716625 1.0413094 0.20981272
-0.22175005 -1.1021963 0.33211765 0.50975364 0.06393822 -0.2795829 -0.25990388 -0.43917835
-0.2826021 0.5203457 -0.20677671 -0.0463831 -0.28123632 0.13355826 0.5339449 0.27651075
0.55215067 -0.06956175 -0.119796656 -0.11329619 0.34047672 0.26059932 0.15467337 0.30545452
-0.8976981 0.16249843 0.20797804 0.63464004 0.17111407 -0.08883418 -0.1696001 -0.2536623
0.8147579 -0.25233635 0.09129658 0.16475734 -0.1513782 0.1525414 0.23459579 -0.43662685
-0.49428582 1.071896 0.13121332 -0.39407623 0.3126012 0.03175511 -0.10716889 -0.8119386
0.2761206 -0.25670254 0.39334154 0.2886083 -0.25377288 0.41505012 0.20404918 -0.23117885
-0.39882702 -0.08622674 0.09839916 -0.37983933 0.3239656 -0.014746099 -0.36343786 -0.29452574
0.437924 0.6597599 -0.25370815 0.47692165 -0.050089095 0.3470836 -0.010011805 0.14406066
-0.40124768 -0.20378652 -0.120262295 -0.35981512 0.22079438 0.24503517 -0.5344182 0.14202607
0.16834164 -0.0028857999 0.5974913 0.38519207 -0.07857202 0.017518573 -0.5464279 0.032659426
0.25691187 0.021367015 0.47086608 0.07108331 0.19929838 0.17862937 -0.40081343 -0.34430596
-0.9629896 -0.1957949 -0.015972566 -0.5385897 0.34821382 -0.23371026 -0.25691134 0.12435645
0.48462826 -0.38032743 -0.07966204 0.06831998 -0.17246276 -0.23605177 0.042281203 0.3597496
-0.14494306 0.16799589 -0.56992114 -0.17558074 0.52663684 0.25690898 -0.6357331 0.09945219
-0.6677643 0.77539593 0.09499821 1.135412 -0.09050198 0.03215591 -0.41050297 0.20554467
0.033574674 0.27704906 0.11079741 -0.2549807 0.5066939 -0.37188742 -0.04240943 -0.20529686
-0.034573305 -0.09036318 -0.029447934 -0.087604366 0.24462818 0.12763414 0.08933101 -0.76985407
0.12291477 0.05048678 -0.6116956 -0.51326424 -0.45039967 -0.27450174 0.37246183 -0.25945404
0.3098466 0.1125571 -0.5386542 0.20731655 0.06836909 0.06152056 0.60181475 -0.31275007

model.fc.bias f4 [4]
00000000: ed7d 5f3d f4df 293b 85de eabc 4d18 c0bd
0.05456345 0.002592084 -0.028670559 -0.09379635
